23.04.27/Mnist/src/experiments/checkpoint/default/model_10.pt (torch, 609525 bytes, 18 tensors)

linear.weight f4 [10, 3136]
0.05485156 0.057089344 0.04804368 0.02621106 0.03991887 0.04507341 0.051822107 0.036166966
-0.006542429 -0.014615726 0.020733565 0.021938287 0.042433623 0.0057886373 0.03220174 0.054154504
0.018776346 0.0069327345 0.006185621 0.035573196 0.10062669 0.04700646 0.0503491 0.029666716
0.017536147 0.022540217 0.015714467 0.10955597 0.05355002 0.053084448 0.09961519 0.00826266
0.0054510613 0.011203813 0.0758674 -4.9979753e-05 0.02018773 0.033008408 0.028168146 0.0075161187
0.0010217025 0.057732254 0.060106575 -0.004803246 0.003499025 0.014915453 0.027815087 0.06992159
0.026788881 -0.030302174 -0.082292974 -0.06583202 0.026089163 -0.06895611 -0.04285497 -0.04356205
-0.09716189 -0.05764005 0.06528831 -0.07590385 0.021566898 -0.07964092 -0.03455831 -0.057306048
-0.046773676 -0.07073548 -0.0421174 -0.090332255 0.07791984 0.07486025 -0.031010482 0.08531941
-0.07211526 -0.06805995 -0.0890184 0.0929186 -0.04264986 0.032708142 0.09145708 0.059863437
-0.0749065 -0.047693506 0.077522494 0.10211786 0.015339702 -0.08111461 -0.06938441 -0.09056506
-0.0313001 0.033380438 0.08662494 0.0052013807 -0.07988421 -0.032944713 -0.008168077 -0.039767195
-0.026483813 -0.05296683 -0.33777234 -0.446818 -0.24007109 -0.24256277 -0.17894308 -0.32352614
-0.3611904 -0.22012866 -0.4104958 -0.3283352 -0.22915873 -0.0034662855 0.027203215 -0.21609204
-0.26492655 -0.21753876 -0.19846617 0.060495764 0.12573355 0.06400302 -0.04218837 -0.080326
-0.23987055 -0.16893908 0.15315935 0.009941687 0.07775959 -0.0031594394 -0.10334323 -0.2986232
-0.06046497 0.0534617 0.0614829 0.026810452 -0.07982661 -0.3991474 -0.29511338 0.0007087701
0.08778518 0.039336678 0.054546654 -0.31105146 -0.4305394 -0.3009656 -0.30885038 -0.3116293
-0.3819869 -0.40663585 -0.3655595 -0.21829571 -0.97626543 -0.60594237 0.121736296 -0.4664388
-0.42011964 -0.010111288 -0.18746287 -1.1657997 -0.89007205 -0.16323775 -0.6072447 0.24637645
0.15947203 0.37702933 -0.110814124 0.54249746 -0.55316836 0.23188113 0.38879687 0.28492332
-0.007996722 0.045698624 0.7179075 -0.18331529 0.18437026 0.31425473 0.44397664 0.29928377
0.28186128 0.4339345 -0.43031806 -0.44925046 0.2492401 -0.45458135 0.6226407 0.54653656
0.32067814 -0.6737994 -0.6486857 -1.5812199 -0.84825057 -0.07649582 0.43581137 -0.63151395
-0.8567051 -3.0175285 -1.1237037 -0.03085517 -0.034421124 -0.037029997 -0.02119312 0.13058382
0.18959695 -0.04116741 0.01711836 -0.06365928 -0.019121466 -0.06508567 -0.018163994 -0.06770882
-0.077129066 -0.051561195 0.014938448 -0.0014099594 0.021294752 -0.02844992 0.08088847 0.03671081
-0.08815683 0.09067816 -0.0071857753 -0.089435875 -0.06607587 0.06510358 0.010495291 -0.073057376
0.053804785 0.11646593 -0.009772219 0.058952477 0.0654036 -0.04204838 -0.084275395 -0.012379746
0.030736892 0.013933414 -0.025502605 -0.016146395 -0.077198386 -0.055874933 -0.061979428 -0.09565805
-0.07302424 -0.084610365 -0.10036819 -0.021557631 -0.029968724 -0.09038472 -0.026330002 -0.08988199
-0.059998326 -0.025377598 -0.0510505 0.03220262 -0.057126194 -0.053167105 0.077430025 0.0052915826
00000000: 08ac 603d 84d6 693d 73c9 443d 94b8 d63c
00000010: f881 233d e59e 383d 6b43 543d d023 143d
00000020: df61 d6bb cc76 6fbc 70d9 a93c ecb7 b33c
00000030: e1ce 2d3d 9cae bd3b f9e5 033d 1dd1 5d3d
00000040: dad0 993c fe2b e33b c0b0 ca3b 33b5 113d
00000050: 5e15 ce3d d989 403d dc3a 4e3d 9d07 f33c
00000060: f7a7 8f3c 43a6 b83c a0bb 803c e15e e03d
00000070: 4457 5b3d 146f 593d 0c03 cc3d 1c60 073c
00000080: d19e b23b 3390 373c 5e60 9b3d 5aa1 51b8
00000090: bd60 a53c d333 073d e2c0 e63c c649 f63b
000000a0: a6ea 853a a878 6c3d 5032 763d 8c64 9dbb
000000b0: e64f 653b f25f 743c 77dc e33c 0d33 8f3d
000000c0: 5b74 db3c 443c f8bc 3889 a8bd f0d2 86bd
000000d0: f1b8 d53c dc38 8dbd b188 2fbd 1f6e 32bd
000000e0: d0fc c6bd f917 6cbd e1b5 853d 7a73 9bbd
000000f0: 10ad b03c c71a a3bd 048d 0dbd bfb9 6abd
00000100: c195 3fbd c3dd 90bd 4b83 2cbd 1e00 b9bd
00000110: 7094 9f3d 5550 993d b209 febc f1bb ae3d
00000120: 2ab1 93bd 0463 8bbd 474f b6bd 1b4c be3d
00000130: 9fb1 2ebd f9f8 053d d94d bb3d 5d33 753d
00000140: 9468 99bd 445a 43bd 1dc4 9e3d 2b23 d13d
00000150: 6053 7b3c 6b1f a6bd 6a19 8ebd 2d7a b9bd
00000160: 8934 00bd edb9 083d 6b68 b13d 5870 aa3b
00000170: 559a a3bd 09f1 06bd 66d3 05bc ede2 22bd
00000180: 95f4 d8bc bff3 58bd 7ff0 acbe 54c5 e4be
00000190: 32d5 75be 6062 78be db3c 37be 38a5 a5be
000001a0: f3ed b8be 6869 61be 812c d2be 8d1b a8be
000001b0: 96a8 6abe 9f2a 63bb 47d9 de3c 3b47 5dbe
000001c0: 74a4 87be 7bc2 5ebe b73a 4bbe 68ca 773d
000001d0: 4cc0 003e 0414 833d b6cd 2cbd f581 a4bd
000001e0: a0a0 75be 5efe 2cbe ced5 1c3e 75e2 223c
000001f0: 6c40 9f3d 990e 4fbb 9ea5 d3bd 24e5 98be
00000200: 1eaa 77bd a8fa 5a3d 7ed5 7b3d 98a1 db3c
00000210: 227c a3bd 0c5d ccbe 1a19 97be c2cc 393a
00000220: b7c8 b33d 7f1f 213d 506c 5f3d 2342 9fbe
00000230: a96f dcbe 2a18 9abe a321 9ebe e08d 9fbe
00000240: c993 c3be 9332 d0be 9d2a bbbe e988 5fbe
00000250: 88ec 79bf 0a1f 1bbf e150 f93d 11d1 eebe
00000260: ec19 d7be d1a9 25bc 44f6 3fbe ed38 95bf
00000270: c3db 63bf cc27 27be 6374 1bbf 1c4a 7c3e
00000280: a34c 233e fd09 c13e 84f2 e2bd 1de1 0a3f
00000290: 719c 0dbf 3f72 6d3e 6210 c73e 78e1 913e
000002a0: af04 03bc 7b2e 3b3d c9c8 373f 01b7 3bbe
000002b0: 8fcb 3c3e ffe5 a03e e850 e33e b93b 993e
000002c0: 1f50 903e aa2c de3e a652 dcbe 2804 e6be
000002d0: cc38 7f3e e3be e8be 6265 1f3f d2e9 0b3f
000002e0: ed2f a43e 1e7e 2cbf 4410 26bf 6a65 cabf
000002f0: f326 59bf d7a9 9cbd ab22 df3e e6aa 21bf
00000300: 0751 5bbf 301f 41c0 86d5 8fbf fbc3 fcbc
00000310: 2afd 0cbd c4ac 17bd 329d adbc c4b7 053e
00000320: b425 423e 289f 28bd ce3b 8c3c cc5f 82bd
00000330: 9fa4 9cbc a34b 85bd a8cc 94bc ecaa 8abd
00000340: d8f5 9dbd d531 53bd 64c0 743c 63ce b8ba
00000350: 5572 ae3c ce0f e9bc dba8 a53d 135e 163d
00000360: 918b b4bd 79b5 b93d a776 ebbb 282a b7bd
00000370: c952 87bd 0755 853d 71f4 2b3c 1b9f 95bd
00000380: 6862 5c3d b185 ee3d a81b 20bc 2778 713d
00000390: 53f2 853d ec3a 2cbd 9498 acbd 6bd4 4abc
000003a0: efcb fb3c f948 643c d7ea d0bc 7245 84bc
000003b0: 301a 9ebd 1ddd 64bd 24de 7dbd 5ee8 c3bd
000003c0: bc8d 95bd 3348 adbd d68d cdbd a199 b0bc
000003d0: f880 f5bc a01b b9bd 04b2 d7bc 0c14 b8bd
000003e0: cec0 75bd aee4 cfbc 541a 51bd e5e6 033d
000003f0: 28fd 69bd c0c5 59bd a293 9e3d 0365 ad3b

linear.bias f4 [10]
0.07323439 1.242741 -0.1706247 -0.21378899 -0.017740555 -0.19651876 -0.22281608 0.45691827
-0.34974742 -0.27486023
00000000: e9fb 953d 2312 9f3f 3eb8 2ebe 80eb 5abe
00000010: a454 91bc 373c 49be e629 64be 31f1 e93e
00000020: 1812 b3be 7bba 8cbe

layer1.0.weight f4 [32, 1, 3, 3]
-0.6864917 -0.68831027 0.42290965 -0.15042955 -0.24476466 0.008337702 -0.92241377 -1.086553
-0.070710145 -0.44448856 -0.6091831 -0.11024518 -0.05093162 -0.06437173 0.21702093 -0.021488983
0.027743373 -0.49249455 -0.9798031 -0.3589001 -0.5361845 -0.81728315 -0.2250933 -0.59447616
-0.0072520627 0.25355855 -0.043583605 -2.1214147 0.07449945 -0.93426096 -1.3503287 -0.8680589
-0.38257068 -0.997651 -0.2454897 -1.011393 0.104715124 -0.3172649 0.15240917 -0.09334319
-0.26927167 -0.10908481 0.054877784 -0.30979347 -0.29015946 0.1402848 -0.8616455 0.34636304
-1.0159973 0.29841658 0.50249684 0.4928134 0.43647608 -0.10029846 -1.1290351 -0.9045112
-0.9365906 -1.6213686 0.07788228 0.22130892 -0.6811904 -0.009139024 0.75648844 0.5722129
0.06405529 -0.39484352 0.4556829 -0.008117093 -0.63175154 0.28649434 -0.7558997 -1.0572544
0.053760886 0.31587175 -1.057325 -0.8382538 -1.9336076 -0.60800356 0.40701163 -0.35968545
-0.6924472 -1.2979873 0.07644983 0.5557748 -0.93038255 -1.2964041 -0.27966854 0.44204658
-0.8055595 -1.5885085 0.15049385 -0.36117932 -0.5611888 -0.39939573 -0.72339463 -0.061985806
0.22130841 -0.36204064 0.18880738 0.419164 0.2599473 0.53257567 -0.41155276 0.18631434
-0.18148173 -0.41232768 -0.777238 -0.53413993 -0.43350223 -0.4790254 0.13301522 -0.021434885
0.63722426 0.2190456 -0.8183647 -0.8828533 -0.95536095 0.11241253 -0.12264429 -0.0738894
-0.28990534 -0.31499508 0.06484178 0.14770381 -0.25561857 0.11736071 -0.08048715 0.30469432
-1.1387625 -0.18028578 1.0998291 0.16285792 -1.4848484 -0.29131198 0.049975183 -1.3087146
-0.5357706 0.41011855 -0.8283194 0.26812306 0.35142836 -0.87272435 -0.020424698 0.21031556
0.6215427 0.40966266 -0.9421554 -1.1718479 -0.73224837 -0.9431211 -0.35511577 -0.5018055
-0.55256706 -0.2156861 -0.1840657 -0.345522 -0.78629154 -0.2149719 0.117682464 -0.06764665
0.30331638 -0.34824312 -0.14026122 -0.018555047 -0.82223433 0.36637703 0.02760128 -1.0958732
0.11666208 0.67380476 -0.8560131 0.7523922 -0.15686566 -1.2010827 0.17637958 0.10417737
0.21484087 0.02162249 0.19318265 0.35022482 -0.8879766 -0.4142971 -0.3563152 -0.855788
-0.5410021 -1.5765733 0.7920682 0.19099212 -0.68698096 -0.43082264 -0.43131408 0.6139666
0.09018253 0.75135267 0.21591249 0.3964989 -0.055770632 -1.2418365 -0.3997148 -0.3270717
0.46943018 -0.9043376 -0.7844482 0.4085519 0.120410934 -1.2223666 -0.59628767 0.11588193
-0.55140865 -0.6504884 -1.2170137 -0.88762397 -0.343156 -0.71771574 -0.8206773 -0.09231703
-0.01502395 -0.6703558 -0.49638498 0.28710324 -0.22372289 -0.124521986 -0.25998512 0.26003808
-0.4226853 0.33194014 0.15554494 -0.34507528 0.10711459 -0.5399851 -0.80832624 -0.28767186
0.17975199 0.3266718 0.17886806 -0.07632231 0.26084083 -0.53308517 -0.18319874 -0.66337454
-0.21801141 -0.37027916 -0.9169328 -0.10059838 -0.10369844 -0.120731786 -0.013268068 -0.8595973
0.17148283 -0.30127302 -0.59505695 0.09184183 -1.0061066 -0.8870471 0.57344043 -0.47392854
00000000: ecbd 2fbf 1a35 30bf 9d87 d83e 340a 1abe
00000010: 96a3 7abe db9a 083c 4f23 6cbf 2b14 8bbf
00000020: 7bd0 90bd 0194 e3be 6cf3 1bbf 3ac8 e1bd
00000030: ad9d 50bd 53d5 83bd bc3a 5e3e aa09 b0bc
00000040: 1246 e33c 3f28 fcbe 60d4 7abf c1c1 b7be
00000050: 6343 09bf 7839 51bf dc7e 66be 972f 18bf
00000060: b6a2 edbb 6dd2 813e b984 32bd 42c5 07c0
00000070: 2b93 983d ba2b 6fbf 92d7 acbf 1c39 5ebf
00000080: 4ee0 c3be 0e66 7fbf a761 7bbe 5375 81bf
00000090: e274 d63d 8c70 a2be 2611 1c3e b72a bfbd
000000a0: fadd 89be db67 dfbd 87c7 603d 409d 9ebe
000000b0: c88f 94be d2a6 0f3e cd94 5cbf 7f56 b13e
000000c0: 330c 82bf 0fca 983e a2a3 003f 0a52 fc3e
000000d0: cb79 df3e 4769 cdbd 3984 90bf 0c8e 67bf
000000e0: 67c4 6fbf 0289 cfbf bf80 9f3d ce9e 623e
000000f0: 7e62 2ebf d8bb 15bc 3aa9 413f 8b7c 123f
00000100: 6b2f 833d ee28 cabe 454f e93e 8efd 04bc
00000110: 78ba 21bf 63af 923e a582 41bf 1d54 87bf
00000120: 6034 5c3d f1b9 a13e 6d56 87bf cd97 56bf
00000130: 7480 f7bf 1fa6 1bbf d463 d03e b128 b8be
00000140: 3844 31bf 7324 a6bf ba91 9c3d 4247 0e3f
00000150: 8d2d 6ebf 92f0 a5bf b730 8fbe ee53 e23e
00000160: 2639 4ebf 3f54 cbbf 0f1b 1a3e 7fec b8be
00000170: 12aa 0fbf 997d ccbe 6430 39bf d4e4 7dbd
00000180: ac9e 623e 645d b9be b956 413e aa9c d63e
00000190: d017 853e e156 083f 0bb7 d2be 30c9 3e3e
000001a0: 59d6 39be 9d1c d3be 12f9 46bf 65bd 08bf
000001b0: 01f4 ddbe d142 f5be 2435 083e 3698 afbc
000001c0: 2121 233f 7d4d 603e 5980 51bf ad02 62bf
000001d0: 8992 74bf 8a38 e63d ee2c fbbd 5353 97bd
000001e0: 796e 94be 0947 a1be c4cb 843d ab3f 173e
000001f0: 70e0 82be d05a f03d 72d6 a4bd e500 9c3e
00000200: f8c2 91bf d69c 38be 33c7 8c3f 3ac4 263e
00000210: 830f bebf d826 95be c7b2 4c3d f683 a7bf
00000220: 4328 09bf 0ffb d13e bd0c 54bf 6d47 893e
00000230: 6bee b33e dd6a 5fbf b251 a7bc f65c 573e
00000240: 6c1d 1f3f 4ebf d13e 1931 71bf 1dff 95bf
00000250: a174 3bbf 6270 71bf bcd1 b5be 5376 00bf
00000260: 0975 0dbf d1dc 5cbe b87b 3cbe 42e8 b0be
00000270: 674a 49bf 9821 5cbe 8103 f13d 548a 8abd
00000280: 494c 9b3e ec4c b2be a3a0 0fbe c100 98bc
00000290: f37d 52bf c595 bb3e 141c e23c 9345 8cbf
000002a0: 87ec ee3d 787e 2c3f ad23 5bbf c69c 403f
000002b0: 64a1 20be 14bd 99bf d99c 343e f25a d53d
000002c0: 3fff 5b3e a621 b13c acd1 453e ab50 b33e
000002d0: 6f52 63bf c01e d4be f26e b6be ec14 5bbf
000002e0: 1d7f 0abf 27cd c9bf fbc4 4a3f 7093 433e
000002f0: fcdd 2fbf c994 dcbe 33d5 dcbe ea2c 1d3f
00000300: 9eb1 b83d a658 403f 2a18 5d3e e701 cb3e
00000310: bf6f 64bd 80f4 9ebf 6ba7 ccbe f175 a7be
00000320: 2759 f03e ab82 67bf 99d1 48bf b72d d13e
00000330: 029a f63d 8276 9cbf 4fa6 18bf 8153 ed3d
00000340: 1e29 0dbf 6886 26bf 1bc7 9bbf 533b 63bf
00000350: 25b2 afbe 38bc 37bf e817 52bf b610 bdbd
00000360: 0327 76bc 709c 2bbf 2c26 febe 32ff 923e
00000370: 9d17 65be 6205 ffbd c51c 85be b623 853e
00000380: 356a d8be 0ff4 a93e 2c47 1f3e b5ad b0be
00000390: e55e db3d 773c 0abf 78ee 4ebf ba49 93be
000003a0: e810 383e 8741 a73e 3029 373e df4e 9cbd
000003b0: ee8c 853e 4578 08bf 7398 3bbe ead2 29bf
000003c0: 623e 5fbe 3b95 bdbe 1cbc 6abf 8606 cebd
000003d0: d95f d4bd 3a42 f7bd 5062 59bc 920e 5cbf
000003e0: 3299 2f3e 7540 9abe a755 18bf 9217 bc3d
000003f0: 1ac8 80bf 8515 63bf fecc 123f c3a6 f2be

layer1.0.bias f4 [32]
-0.43357584 -0.19460166 -0.24927856 0.19731563 -0.2131569 -0.9026864 -0.11030732 -0.27645072
-0.20694892 0.13415377 -0.3001902 -0.17099497 -0.18766621 -0.36043006 -0.2512091 -0.41965577
-0.076469466 -0.27155405 -0.5059445 -1.0847095 -0.11417973 -0.39831415 -0.16142449 -0.13684571
-0.35075292 -0.79229915 -0.37729686 -0.27714756 -0.36654735 -0.61142075 -0.13945389 -0.72543687
00000000: a7fd ddbe a845 47be e142 7fbe 1c0d 4a3e
00000010: cd45 5abe 7516 67bf cee8 e1bd f38a 8dbe
00000020: 6bea 53be 9b5f 093e 88b2 99be 4e19 2fbe
00000030: 922b 40be 4a8a b8be 7b9e 80be 1fdd d6be
00000040: 069c 9cbd 2209 8bbe 9485 01bf c3d7 8abf
00000050: 10d7 e9bd d5ef cbbe 764c 25be 4821 0cbe
00000060: e395 b3be 1ed4 4abf 0e2d c1be 49e6 8dbe
00000070: 18ac bbbe 1286 1cbf 00cd 0ebe 3bb6 39bf

layer2.0.weight f4 [64, 32, 3, 3]
-0.11107869 -0.11912186 -0.040625762 -0.091676615 -0.002300071 -0.082365625 -0.059381213 -0.09497184
-0.12030316 -0.067205474 -0.050347887 -0.09133888 -0.001731585 0.07808562 -0.07777764 -0.09028148
-0.057458367 -0.022532208 -0.0042298245 -0.08141013 -0.028746156 -0.06147132 0.010167591 -0.046625245
-0.07380616 -0.017414516 -0.05010219 -0.005159057 -0.060890615 0.007968503 -0.024609054 -0.08631008
-0.10324733 -0.026923575 -0.04981221 -0.052964777 -0.10249261 -0.13875328 -0.072061665 -0.05660897
-0.058242057 -0.13726133 0.0073885173 -0.07928827 -0.05550589 -0.023308981 0.07512553 -0.14415808
-0.008421036 -0.018801603 -0.060557194 -0.05466762 -0.010681628 -0.032112025 -0.028917622 -0.05780159
-0.12369236 -0.042433802 -0.09836258 -0.10606893 -0.01699874 -0.072264776 -0.043472964 -0.1255229
-0.10934902 -0.04897529 -0.040702965 -0.020647803 -0.07218215 -0.06499012 -0.08815015 -0.18697673
-0.009110447 0.00985974 -0.03543765 -0.04260167 -0.042787343 -0.037120692 -0.08430529 -0.041937023
-0.041379288 -0.0772206 -0.016785856 -0.09916954 -0.07648948 -0.039229598 0.0071253413 -0.09500457
-0.06955403 -0.007980792 0.0020539572 -0.08983684 -0.08369822 0.0035943862 -0.014943824 -0.10644393
-0.05621836 0.001546392 -0.005533419 -0.058584 -0.038637433 -0.13245186 -0.13317628 -0.122999996
-0.10405374 -0.17767413 -0.06817136 -0.13628441 -0.092102796 -0.053368893 -0.04787571 0.009275614
0.02487524 0.0849702 -0.010951512 0.024364715 -0.14109622 0.035011422 0.03685555 -0.047354497
-0.10919624 -0.07252942 -0.04904597 0.05423962 0.046325926 -0.1256099 0.008024179 -0.078954294
-0.10878443 -0.051634867 0.004804803 -0.075100735 -0.046927474 -0.013985559 -0.005126412 -0.0544939
-0.12383878 -0.08493403 -0.12491781 -0.08116556 -0.112219855 -0.07622597 -0.08840795 -0.046506714
-0.0712192 -0.0530637 -0.028207889 -0.041092884 -0.07840725 0.008393206 -0.09438256 -0.095248505
-0.08158149 -0.00786935 -0.02809767 -0.045193594 -0.046452053 -0.0028016567 -0.10329648 -0.020921078
-0.06990297 -0.041659176 -0.015239964 -0.103901744 0.028055796 0.018226368 0.07502582 0.104499176
-0.07341559 0.02909025 0.025919922 -0.06126421 -0.04565233 -0.04642306 -0.029644167 0.022031909
-0.008877523 -0.086223125 -0.0054120985 -0.07088721 0.01550249 -0.030556383 0.00025059702 -0.048712704
0.011131717 -0.03310106 0.0045830207 -0.05317804 -0.013449702 -0.12182638 -0.109146535 -0.030527242
0.07454846 0.070958704 0.046546638 -0.20645939 -0.17985982 -0.24695793 0.049318943 -0.038831763
0.007569647 0.06818486 0.06607074 0.06251863 -0.04244467 -0.20824514 -0.05373345 0.0029757589
-0.016264368 -0.10746586 -0.10020623 -0.020338701 0.010265844 -0.0873092 -0.06611842 0.004117512
-0.0069450396 -0.09814479 -0.030283362 -0.0021576688 -0.04109879 -0.11750594 -0.06866082 -0.010962312
-0.008982812 -0.007880789 -0.06530001 -0.030517096 -0.057822317 -0.059137505 0.086719535 -0.03396255
0.022548143 -0.009247062 -0.030395042 -0.098865874 -0.062145997 -0.1143669 0.08478656 -0.06701037
-0.33645427 -0.13441381 -0.12911205 -0.023529638 -0.037536908 -0.06958816 -0.046887543 -0.107385084
-0.029184088 -0.0071807015 -0.019103821 -0.0228509 0.011831524 -0.10171331 -0.10244736 -0.068543434
00000000: 397d e3bd 29f6 f3bd 3367 26bd f3c0 bbbd
00000010: cabc 16bb 4faf a8bd b739 73bd 9980 c2bd
00000020: 8161 f6bd 06a3 89bd 9639 4ebd e10f bbbd
00000030: 5af6 e2ba 5beb 9f3d e249 9fbd 7fe5 b8bd
00000040: 7759 6bbd 7795 b8bc 579a 8abb 5bba a6bd
00000050: 0f7d ebbc 5ac9 7bbd f895 263c 1dfa 3ebd
00000060: af27 97bd e3a8 8ebc f437 4dbd 4f0d a9bb
00000070: 7068 79bd 538e 023c ed98 c9bc 57c3 b0bd
00000080: 5673 d3bd d48e dcbc e307 4cbd 98f1 58bd
00000090: a5e7 d1bd 5715 0ebe 1195 93bd cfde 67bd
000000a0: 398f 6ebd 3c8e 0cbe 601b f23b e361 a2bd
000000b0: 255a 63bd 7af2 bebc 6adb 993d 2d9e 13be
000000c0: 63f8 09bc d205 9abc d20a 78bd 28eb 5fbd
000000d0: ff01 2fbc e687 03bd a6e4 ecbc 5cc1 6cbd
000000e0: 6c52 fdbd 11cf 2dbd 5272 c9bd ab3a d9bd
000000f0: f140 8bbc 8eff 93bd b510 32bd 1389 00be
00000100: 61f2 dfbd 509a 48bd 27b8 26bd 9525 a9bc
00000110: 3cd4 93bd 8a19 85bd 1188 b4bd d476 3fbe
00000120: fc43 15bc bf8a 213c 1227 11bd 177f 2ebd
00000130: c841 2fbd de0b 18bd 40a8 acbd 28c6 2bbd
00000140: 547d 29bd d525 9ebd 7e82 89bc 6619 cbbd
00000150: 84a6 9cbd 37af 20bd b27b e93b c291 c2bd
00000160: 5872 8ebd dec1 02bc af9b 063b 61fc b7bd
00000170: f969 abbd cb8f 6b3b f1d6 74bc 46ff d9bd
00000180: 3945 66bd 4eb0 ca3a af51 b5bb c7f5 6fbd
00000190: 4942 1ebd 76a1 07be 5d5f 08be 6ce7 fbbd
000001a0: 211a d5bd 35f0 35be 6d9d 8bbd 248e 0bbe
000001b0: 64a0 bcbd 5799 5abd 5219 44bd bff8 173c
000001c0: 29c7 cb3c db04 ae3d f86d 33bc 8398 c73c
000001d0: 877b 10be 2368 0f3d d8f5 163d caf6 41bd
000001e0: 47a2 dfbd 4e8a 94bd 6de4 48bd 5d2a 5e3d
000001f0: 41c0 3d3d e29f 00be d977 033c cab2 a1bd
00000200: 5fca debd 157f 53bd 9c71 9d3b 6ace 99bd
00000210: 0637 40bd b023 65bc 76fb a7bb ff34 5fbd
00000220: 309f fdbd e5f1 adbd e9d4 ffbd 213a a6bd
00000230: 86d3 e5bd 5d1c 9cbd 3a0f b5bd d37d 3ebd
00000240: 5fdb 91bd 5359 59bd 3b14 e7bc 0351 28bd
00000250: fb93 a0bd a883 093c a54b c1bd a611 c3bd
00000260: 3214 a7bd 72ee 00bc 162d e6bc eb1c 39bd
00000270: 8244 3ebd 009c 37bb 1b8d d3bd ae62 abbc
00000280: 4a29 8fbd d0a2 2abd 0bb1 79bc 70ca d4bd
00000290: 45d5 e53c 774f 953c 23a7 993d aa03 d63d
000002a0: ea5a 96bd ad4e ee3c 0456 d43c 2ef0 7abd
000002b0: f0fd 3abd 1b26 3ebd 53d8 f2bc 437c b43c
000002c0: 0873 11bc c095 b0bd f957 b1bb 502d 91bd
000002d0: 28fe 7d3c 6151 fabc 9062 8339 f986 47bd
000002e0: ce61 363c fa94 07bd 2a2d 963b 37d1 59bd
000002f0: 245c 5cbc 1c80 f9bd 3888 dfbd 4414 fabc
00000300: ddac 983d cc52 913d b0a7 3e3d 176a 53be
00000310: 2c2d 38be 8ae2 7cbe a902 4a3d 0e0e 1fbd
00000320: cd0a f83b 81a4 8b3d 1950 873d c409 803d
00000330: 76da 2dbd 373e 55be 9b17 5cbd f304 433b
00000340: da3c 85bc 1017 dcbd ed38 cdbd 599d a6bc
00000350: 1232 283c 2acf b2bd 1869 87bd 32ec 863b
00000360: 3793 e3bb 2300 c9bd d014 f8bc ad67 0dbb
00000370: 3457 28bd f4a6 f0bd 0b9e 8cbd 459b 33bc
00000380: a52c 13bc 6d1e 01bc 03bc 85bd fdfe f9bc
00000390: 18d7 6cbd 2b3a 72bd 039a b13d 511c 0bbd
000003a0: e2b6 b83c fd80 17bc 06ff f8bc 317a cabd
000003b0: cd8c 7ebd 3139 eabd 93a4 ad3d bc3c 89bd
000003c0: bc43 acbe c6a3 09be f335 04be 3ac1 c0bc
000003d0: 4dc0 19bd 3d84 8ebd 270d 40bd b6ec dbbd
000003e0: 7813 efbc 174c ebbb 9e7f 9cbc d031 bbbc
000003f0: 02d9 413c 114f d0bd eccf d1bd 8060 8cbd

layer2.0.bias f4 [64]
-0.037050292 -0.065692365 -0.30150136 -0.083840415 -0.17173298 -0.11709992 -0.38758639 -0.277459
0.34622318 -0.40719274 -0.2621179 -0.11034913 -0.33757144 -0.055320483 -0.29645607 -0.2348306
-0.18841082 -0.08504314 -0.07978728 -0.07574973 -0.043490548 -0.09549173 -0.110002324 -0.43325663
-0.38073087 -0.11952795 -0.12528789 -0.023205742 -0.015456133 -0.33865806 -0.044012442 -0.16397016
-0.42368907 -0.06849318 -0.21983756 -0.017881824 -0.11199654 -0.38197392 -0.66819364 -0.059160836
-0.0019304502 -0.06614628 -0.23618919 -0.120510995 -0.36548433 -0.31051314 -0.23310429 -0.06197306
-0.10934237 -0.10511742 -0.070843816 -0.013484519 -0.13769604 -0.099033065 -0.18613645 -0.099222586
-0.0068827984 -0.02388251 -0.11198544 -0.10786209 -0.16825798 -0.046001725 -0.097175285 -0.60140216
00000000: 0cc2 17bd b889 86bd 635e 9abe 86b4 abbd
00000010: c5da 2fbe 15d2 efbd b971 c6be 1b0f 8ebe
00000020: 2a44 b13e 917b d0be 5134 86be bafe e1bd
00000030: 2ad6 acbe bb97 62bd 17c9 97be 6f77 70be
00000040: c4ee 40be 192b aebd 8367 a3bd ad22 9bbd
00000050: 2523 32bd 2b91 c3bd e648 e1bd d0d3 ddbe
00000060: 28ef c2be 12cb f4bd 784b 00be f819 bebc
00000070: b83b 7dbc 9764 adbe 6446 34bd cbe7 27be
00000080: c6ed d8be 2746 8cbd 191d 61be e77c 92bc
00000090: 715e e5bd 1692 c3be bd0e 2bbf a252 72bd
000000a0: 2907 fdba b377 87bd 94db 71be 78ce f6bd
000000b0: c320 bbbe 94fb 9ebe e4b2 6ebe 77d7 7dbd
000000c0: e4ee dfbd cd47 d7bd 9016 91bd 2cee 5cbc
000000d0: 3100 0dbe d9d1 cabd 8e9a 3ebe 3635 cbbd
000000e0: 1989 e1bb 41a5 c3bc 9f58 e5bd cde6 dcbd
000000f0: d24b 2cbe 4e6c 3cbd d603 c7bd 7ef5 19bf

exp_avg f4 [10, 3136]
-6e-45 -6e-45 -6e-45 -6e-45 -6e-45 -6e-45 -6e-45 -6e-45
-6e-45 -6e-45 -6e-45 -6e-45 -6e-45 -6e-45 -6e-45 -6e-45
-6e-45 6e-45 -6e-45 -6e-45 -6e-45 -6e-45 -6e-45 -6e-45
6e-45 6e-45 -6e-45 -6e-45 -6e-45 -6e-45 6e-45 6e-45
6e-45 -6e-45 -6e-45 -6e-45 -6e-45 6e-45 6e-45 -6e-45
-6e-45 -6e-45 -6e-45 -6e-45 -6e-45 -6e-45 -6e-45 -6e-45
-6e-45 0.0 6e-45 6e-45 -6e-45 6e-45 6e-45 6e-45
6e-45 6e-45 -6e-45 6e-45 -6e-45 6e-45 6e-45 6e-45
6e-45 6e-45 6e-45 6e-45 -6e-45 -6e-45 0.0 -6e-45
6e-45 -6e-45 6e-45 -6e-45 6e-45 0.0 -6e-45 6e-45
-6e-45 6e-45 -6e-45 -6e-45 0.0 6e-45 6e-45 6e-45
6e-45 -6e-45 -6e-45 0.0 6e-45 6e-45 -6e-45 6e-45
6e-45 6e-45 2.3036279e-16 2.5067536e-15 1.2966103e-15 5.245536e-16 3.821786e-16 3.9837863e-16
4.008264e-16 6.127343e-16 3.5965675e-15 8.975201e-16 1.806548e-15 1.1899739e-17 -5.378232e-19 2.8071792e-16
2.0042468e-15 1.3952198e-15 4.564355e-16 -6.003621e-17 -5.0664498e-17 9.800966e-19 5.2330248e-17 1.5179874e-15
1.345212e-15 4.1334562e-16 -8.591048e-17 2.5297817e-16 1.1128321e-17 5.942872e-17 5.1526057e-16 1.2385438e-15
1.0439424e-16 -1.212727e-18 -2.442539e-18 8.73664e-18 5.597953e-17 5.922425e-16 4.3392942e-16 1.01449374e-16
1.6886493e-20 -9.915142e-19 6.059641e-18 3.9974812e-16 5.9299834e-16 4.6479975e-16 4.741731e-16 4.3782215e-16
4.4012152e-16 4.629804e-16 4.630278e-16 8.591215e-15 1.3992354e-06 0.00012240295 1.3778611e-05 4.7191726e-05
2.0045873e-05 4.8940983e-06 6.478393e-12 0.00025742964 0.00047753486 0.00014319477 -0.0004299556 1.8861356e-05
2.1710238e-10 -5.0620214e-10 0.00073592254 0.00063080987 4.6410078e-05 -0.0001712171 0.00027055314 3.3916763e-08
3.6845522e-09 0.0010199796 9.531043e-05 -0.00017492345 0.0003836388 0.00069047126 7.7077635e-07 -3.70475e-10
0.0005049156 -0.0001420501 -0.00034276908 0.00039408493 5.6071036e-05 5.225164e-09 -1.1336985e-12 -2.886302e-05
-0.00011841017 -0.00019715753 3.1066473e-05 4.9779075e-05 4.2589735e-10 -8.1997755e-32 -1.278236e-07 3.7273904e-07
6.490372e-05 1.0909162e-05 1.4402485e-07 3.976072e-20 6e-45 6e-45 6e-45 6e-45
6e-45 -6e-45 6e-45 6e-45 6e-45 -6e-45 -6e-45 6e-45
6e-45 6e-45 6e-45 -6e-45 6e-45 6e-45 -6e-45 6e-45
6e-45 6e-45 6e-45 6e-45 6e-45 -6e-45 6e-45 6e-45
6e-45 6e-45 -6e-45 -6e-45 -6e-45 6e-45 6e-45 6e-45
6e-45 6e-45 -6e-45 -6e-45 6e-45 6e-45 6e-45 6e-45
6e-45 6e-45 6e-45 6e-45 6e-45 6e-45 6e-45 6e-45
6e-45 6e-45 -6e-45 6e-45 6e-45 6e-45 6e-45 6e-45
00000000: 0400 0080 0400 0080 0400 0080 0400 0080
00000010: 0400 0080 0400 0080 0400 0080 0400 0080
00000020: 0400 0080 0400 0080 0400 0080 0400 0080
00000030: 0400 0080 0400 0080 0400 0080 0400 0080
00000040: 0400 0080 0400 0000 0400 0080 0400 0080
00000050: 0400 0080 0400 0080 0400 0080 0400 0080
00000060: 0400 0000 0400 0000 0400 0080 0400 0080
00000070: 0400 0080 0400 0080 0400 0000 0400 0000
00000080: 0400 0000 0400 0080 0400 0080 0400 0080
00000090: 0400 0080 0400 0000 0400 0000 0400 0080
000000a0: 0400 0080 0400 0080 0400 0080 0400 0080
000000b0: 0400 0080 0400 0080 0400 0080 0400 0080
000000c0: 0400 0080 0000 0000 0400 0000 0400 0000
000000d0: 0400 0080 0400 0000 0400 0000 0400 0000
000000e0: 0400 0000 0400 0000 0400 0080 0400 0000
000000f0: 0400 0080 0400 0000 0400 0000 0400 0000
00000100: 0400 0000 0400 0000 0400 0000 0400 0000
00000110: 0400 0080 0400 0080 0000 0000 0400 0080
00000120: 0400 0000 0400 0080 0400 0000 0400 0080
00000130: 0400 0000 0000 0000 0400 0080 0400 0000
00000140: 0400 0080 0400 0000 0400 0080 0400 0080
00000150: 0000 0000 0400 0000 0400 0000 0400 0000
00000160: 0400 0000 0400 0080 0400 0080 0000 0000
00000170: 0400 0000 0400 0000 0400 0080 0400 0000
00000180: 0400 0000 0400 0000 8ccb 8425 71a1 3427
00000190: 7adc ba26 3931 1726 9b4f dc25 4fa6 e525
000001a0: 890f e725 d09b 3026 7b94 8127 a658 8126
000001b0: ee2c 0227 ee82 5b23 c6bc 1ea1 a7d2 a125
000001c0: d46b 1027 8612 c926 ff8e 0326 206f 8aa4
000001d0: 15a6 69a4 01a3 9021 a754 7124 dac3 da26
000001e0: 90dd c126 0c47 ee25 9918 c6a4 fdd4 9125
000001f0: 0348 4d23 8608 8924 8583 1426 337e b226
00000200: 7cb7 f024 88f7 b2a1 423a 34a2 9e29 2123
00000210: 7b14 8124 c9b3 2a26 ae24 fa25 24ed e924
00000220: 097d 9f1e 5952 92a1 b18f df22 6970 e625
00000230: 8eeb 2a26 2bf8 0526 cdab 0826 2563 fc25
00000240: 79b6 fd25 ec71 0526 6c75 0526 fcc3 1a28
00000250: 5dcd bb35 4b59 0039 af2a 6737 bbef 4538
00000260: 2f28 a837 fc37 a436 2df0 e32c 9ff7 8639
00000270: a55d fa39 8e26 1639 aa6b e1b9 7438 9e37
00000280: e3b4 6e2f cf24 0bb0 edea 403a ef5c 253a
00000290: 71a8 4238 be88 33b9 07d9 8d39 e0ab 1133
000002a0: 5433 7d31 d6b0 853a 66e1 c738 a86b 37b9
000002b0: 2123 c939 be00 353a 59e7 4e35 b9ab cbaf
000002c0: 505c 043a 49f3 14b9 b0b5 b3b9 2f9d ce39
000002d0: d12d 6b38 0789 b331 cb8d 9fab dd1e f2b7
000002e0: fa52 f8b8 12bc 4eb9 5f4d 0238 e0c9 5038
000002f0: b923 ea2f dbe0 d48b e23f 09b4 dd1c c834
00000300: eb1c 8838 7e06 3737 40a5 1a34 c3c3 3b1f
00000310: 0400 0000 0400 0000 0400 0000 0400 0000
00000320: 0400 0000 0400 0080 0400 0000 0400 0000
00000330: 0400 0000 0400 0080 0400 0080 0400 0000
00000340: 0400 0000 0400 0000 0400 0000 0400 0080
00000350: 0400 0000 0400 0000 0400 0080 0400 0000
00000360: 0400 0000 0400 0000 0400 0000 0400 0000
00000370: 0400 0000 0400 0080 0400 0000 0400 0000
00000380: 0400 0000 0400 0000 0400 0080 0400 0080
00000390: 0400 0080 0400 0000 0400 0000 0400 0000
000003a0: 0400 0000 0400 0000 0400 0080 0400 0080
000003b0: 0400 0000 0400 0000 0400 0000 0400 0000
000003c0: 0400 0000 0400 0000 0400 0000 0400 0000
000003d0: 0400 0000 0400 0000 0400 0000 0400 0000
000003e0: 0400 0000 0400 0000 0400 0080 0400 0000
000003f0: 0400 0000 0400 0000 0400 0000 0400 0000

exp_avg_sq f4 [10, 3136]
7.4133416e-10 8.311145e-10 9.795093e-10 1.7520755e-09 2.0151005e-09 1.2201317e-09 6.4577965e-10 7.735701e-10
9.941948e-10 1.2811502e-09 1.5650347e-09 2.5949354e-09 2.7564175e-09 1.3184343e-09 7.5109324e-10 9.501423e-10
7.7110746e-10 1.0256895e-09 1.3496302e-09 1.7561212e-09 1.1452195e-09 7.9730345e-10 7.1451256e-10 6.66968e-10
1.4941038e-09 1.4388688e-09 1.4956816e-09 1.1624184e-09 6.378354e-10 6.730492e-10 2.1383788e-09 2.1519655e-09
1.0352381e-09 1.3115338e-09 9.536607e-10 6.1458727e-10 3.5830347e-10 9.0129937e-10 1.4110844e-09 1.4156446e-09
9.051404e-10 7.7265283e-10 6.4862976e-10 5.348793e-10 5.560032e-10 6.842655e-10 8.001147e-10 8.150251e-10
7.5417017e-10 0.0 9.678794e-14 3.426267e-13 2.2147796e-12 1.1665435e-12 1.0730832e-12 5.1937907e-12
4.948706e-16 5.1471966e-14 1.1048699e-13 3.946653e-12 1.3909295e-13 4.661612e-13 1.4069827e-13 8.65915e-22
1.3922624e-13 2.8736265e-12 1.1116588e-11 4.3420087e-11 3.3422286e-12 2.1681103e-14 0.0 8.4470645e-14
2.1023539e-12 9.686257e-12 6.6798563e-12 4.6578535e-12 9.8421786e-14 0.0 2.3435238e-12 3.0443315e-12
9.890472e-12 7.022625e-13 7.3831485e-14 1.0052245e-12 0.0 5.488369e-16 1.2704842e-12 3.4311796e-12
3.956092e-13 2.411537e-12 1.6557925e-15 0.0 5.351207e-14 2.0363163e-13 8.712705e-14 6.5108444e-13
2.823092e-13 2.348515e-13 1.7528833e-09 2.5681985e-08 3.9433697e-08 2.4227975e-09 1.6766223e-09 9.598471e-10
7.716114e-10 3.6265109e-09 8.213934e-08 1.015165e-08 1.6162707e-08 4.565256e-09 2.3843583e-09 9.194494e-10
1.9979426e-08 6.3760524e-08 5.934732e-09 4.941382e-09 5.240213e-09 2.2834203e-09 8.176261e-10 1.0834052e-08
4.2160988e-08 5.5322045e-09 2.7049767e-09 5.151691e-09 2.5296136e-09 7.3558476e-10 2.6353806e-09 3.4542317e-08
3.9171817e-09 3.5855785e-09 4.9044515e-09 2.5794666e-09 5.0089766e-10 1.861396e-09 4.8356874e-09 4.242458e-09
5.1218154e-09 4.282129e-09 7.802593e-10 7.909724e-10 1.5149616e-09 1.3588239e-09 1.3692038e-09 1.3024952e-09
1.1124799e-09 1.005738e-09 9.761666e-10 5.3831712e-09 1.2568749e-07 2.9145242e-06 2.601338e-06 7.548916e-07
3.0881353e-07 4.366859e-09 5.5864895e-09 5.1799657e-07 3.9411552e-06 2.7382448e-06 2.1037504e-06 3.4780973e-07
4.55607e-09 1.3365728e-08 3.2701219e-06 9.467599e-06 2.5684333e-06 9.257583e-06 9.912287e-06 1.2209301e-08
7.804661e-08 1.1295691e-05 1.8031453e-05 2.677644e-06 1.7133783e-05 1.8039285e-05 9.17298e-08 1.0522436e-08
1.2349669e-05 2.0174968e-05 1.6067872e-06 1.7479353e-05 8.224243e-06 3.566849e-07 2.4201872e-09 3.3118195e-06
6.3025655e-06 1.6996503e-06 2.3992586e-06 9.769606e-07 1.1607365e-08 3.569544e-09 1.9423243e-08 1.427759e-07
3.314566e-07 4.3589074e-07 9.5091806e-08 3.62279e-09 1.08211955e-11 1.00866425e-11 2.0922472e-11 1.6603179e-11
1.118943e-11 1.405557e-11 4.8916666e-11 1.0467905e-12 2.9941145e-12 2.664844e-11 3.889448e-11 2.3823463e-12
6.3478335e-13 5.4363367e-12 1.3516754e-13 1.8061575e-12 1.6226227e-11 3.255293e-12 3.1517337e-11 1.4861849e-12
2.746573e-12 1.5625933e-12 3.370169e-12 1.548571e-11 1.6365357e-11 4.0024987e-11 3.0553366e-12 2.0242753e-12
7.959963e-13 3.1289794e-11 1.5602842e-11 4.6062065e-12 2.673455e-13 5.207275e-12 1.3447852e-12 5.4347716e-13
1.2331956e-10 1.8058355e-11 4.987179e-12 1.1667065e-11 1.1890016e-12 3.3848566e-12 5.965213e-13 3.6760818e-13
8.358335e-13 3.31102e-12 4.323647e-12 1.8167152e-13 5.540228e-12 3.1113005e-12 2.568065e-12 2.9707853e-12
1.5486722e-12 3.5943525e-12 1.0787525e-12 9.546352e-11 2.7948503e-12 4.208087e-12 1.7277985e-11 1.1661944e-10
00000000: c1c6 4b30 7c74 6430 6b9f 8630 adcd f030
00000010: 067a 0a31 91b1 a730 b482 3130 28a3 5430
00000020: 1fa4 8830 7714 b030 c318 d730 9652 3231
00000030: 696b 3d31 4834 b530 7d75 4e30 2996 8230
00000040: ddf5 5330 3ef8 8c30 e47d b930 065c f130
00000050: d465 9d30 3e29 5b30 5a67 4430 b355 3730
00000060: 1b59 cd30 b2c1 c530 9e90 cd30 f6c2 9f30
00000070: ad53 2f30 a101 3930 c2f2 1231 c7e1 1331
00000080: 3448 8e30 7e41 b430 f411 8330 bcef 2830
00000090: bbfa c42f 4ebf 7730 1ef0 c130 9190 c230
000000a0: 98cd 7830 9c62 5430 434b 3230 c906 1330
000000b0: 3fd5 1830 e716 3c30 11ef 5b30 4b08 6030
000000c0: 024e 4f30 0000 0000 73f2 d929 b6e1 c02a
000000d0: ecd9 1b2c 292d a42b e605 972b 82bd b62c
000000e0: 01a3 0e26 23cf 6729 6acb f829 4adc 8a2c
000000f0: d09a 1c2a 7436 032b 8469 1e2a 77da 821c
00000100: 3bc1 1c2a a736 4a2c a990 432d acf6 3e2e
00000110: 3d30 6b2c 3849 c328 0000 0000 0336 be29
00000120: a4f0 132c 0667 2a2d cc06 eb2c 37e2 a32c
00000130: 4ca0 dd29 0000 0000 2ce9 242c cd39 562c
00000140: bafe 2d2d 59ab 452b f440 a629 0879 8d2b
00000150: 0000 0000 0431 1e26 04ce b22b a372 712c
00000160: 4bb5 de2a 63b2 292c f69f ee26 0000 0000
00000170: 37ff 7029 d244 652a 5331 c429 9443 372b
00000180: 0bed 9e2a ab35 842a 19ea f030 489b dc32
00000190: cf5d 2933 4e7e 2631 e76e e630 9eeb 8330
000001a0: 5319 5430 4136 7931 9464 b033 6e67 2e32
000001b0: 2bd6 8a32 6bdc 9c31 13da 2331 80bc 7c30
000001c0: 399f ab32 b8ec 8833 74ea cb31 dbc8 a931
000001d0: 670d b431 5bea 1c31 52bf 6030 aa20 3a32
000001e0: 7f14 3533 c915 be31 74e2 3931 c102 b131
000001f0: 6fd5 2d31 2d32 4a30 1b1a 3531 ae5b 1433
00000200: e597 8631 2a66 7631 0384 a831 7542 3131
00000210: 8aaf 0930 0dd4 ff30 2827 a631 0ec5 9131
00000220: f7fb af31 0122 9331 de79 5630 bc6b 5930
00000230: f936 d030 5ec1 ba30 932e bc30 7a03 b330
00000240: e8e5 9830 433a 8a30 cf29 8630 e0f6 b831
00000250: b7f4 0634 2597 4336 a692 2e36 c1a3 4a35
00000260: 02cb a534 4c0b 9631 48f3 bf31 740c 0b35
00000270: 443e 8436 b0c2 3736 282e 0d36 9bba ba34
00000280: 9e8b 9c31 189f 6532 4474 5b36 07d7 1e37
00000290: 595d 2c36 0451 1b37 f34c 2637 13c1 5132
000002a0: 949a a733 a082 3d37 4042 9737 93b1 3336
000002b0: 85ba 8f37 1253 9737 fefc c433 2ac6 3432
000002c0: 6d31 4f37 6a3d a937 caa8 d735 a0a0 9237
000002d0: dbfa 0937 667e bf34 6250 2631 a040 5e36
000002e0: a07a d336 8a1f e435 f302 2136 1c20 8335
000002f0: bb69 4732 154c 7531 2ad8 a632 f14d 1934
00000300: 0cf3 b134 5e04 ea34 4635 cc33 ccf4 7831
00000310: 555e 3e2d 3372 312d 3809 b82d 090b 922d
00000320: b6d8 442d a944 772d 4523 572e 9a52 932b
00000330: 2cb1 522c f466 ea2d 4b0f 2b2e 89a4 272c
00000340: f6ac 322b 2b46 bf2c 642f 182a af31 fe2b
00000350: 37ba 8e2d 2512 652c 5e9d 0a2e 7429 d12b
00000360: dc45 412c 5bea db2b 9127 6d2c b836 882d
00000370: 82f3 8f2d 2108 302e 0d00 572c 1a72 0e2c
00000380: 940d 602b 2d9d 092e 7a3e 892d 0511 a22c
00000390: 8c80 962a f736 b72c fe42 bd2b a8f9 182b
000003a0: 5f97 072f cdd7 9e2d 8478 af2c ca3f 4d2d
000003b0: 4c56 a72b 2830 6e2c e4e7 272b ecf1 ce2a
000003c0: 2744 6b2b 09fe 682c f31f 982c 408b 4c2a
000003d0: f0ed c22c 35f0 5a2c 25b6 342c e90c 512c
000003e0: ccf4 d92b 19ee 7c2c 28d2 972b 2fed d12e
000003f0: 8cab 442c 140f 942c 90fa 972d 7439 002f

exp_avg f4 [10]
0.00014117346 0.00027319495 0.00030163754 0.00017348725 -0.00084711 0.000606838 -0.00019916825 -0.00015108057
-0.0012275307 0.0009285651
00000000: f607 1439 9b3b 8f39 1b25 9e39 21ea 3539
00000010: 9710 5eba 3514 1f3a d2d7 50b9 626b 1eb9
00000020: 18e5 a0ba f36a 733a

exp_avg_sq f4 [10]
9.65073e-06 1.2144947e-05 1.8404013e-05 1.4563653e-05 1.7307957e-05 1.7355325e-05 1.0486355e-05 2.092206e-05
2.0863301e-05 2.6863225e-05
00000000: 92e9 2137 26c2 4b37 5162 9a37 6a56 7437
00000010: 8e30 9137 4796 9137 8dee 2f37 c881 af37
00000020: 9903 af37 5658 e137

exp_avg f4 [32, 1, 3, 3]
2.4e-44 1.618e-42 9.38933e-40 1.6e-43 9.85e-43 1.44481e-39 6e-45 1.8e-44
5.18775e-40 6e-45 6e-45 1.9193254e-10 6e-45 -1.3825047e-11 -7.0310036e-10 3.2768982e-11
7.9581775e-10 6e-45 -2.0564466e-24 3.93753e-25 -1.1860878e-23 8.2652333e-23 2.1872816e-22 4.5681155e-22
-1.7797069e-08 -4.1397417e-08 2.3112482e-12 -1.1460637e-06 -2.5593981e-05 -1.0250036e-05 5.3900643e-05 2.4515488e-05
-9.890898e-05 4.6858175e-05 0.00019019224 0.00010149125 4.7567314e-06 2.0330143e-22 4.7567314e-06 4.7567314e-06
3.380214e-24 8.315442e-23 4.7567314e-06 3.5428927e-23 -5.6416605e-25 -7.300129e-05 -0.0021243333 -0.008015793
-0.000762805 -0.005605037 -0.0057651233 -0.0022190043 -0.0054581026 -0.00475318 8.219507e-05 -0.00014320275
-0.0024152978 7.925965e-06 -0.000715826 -0.0064202724 -0.0018002453 -0.0060519236 -0.009491822 0.0035914937
0.0019341132 0.0030189403 0.0054651713 0.0036819954 0.0032727316 0.0017736129 -0.001938644 -0.00025936618
0.0009315788 0.0005029197 -1.19439155e-05 0.00016932005 2.6512812e-06 -5.9489485e-13 0.000664227 -9.734399e-05
-5.1380093e-06 8.555853e-06 -0.0006335882 -0.00070907426 -2.5136836e-07 -1.4170478e-05 -8.592048e-05 -3.9671115e-05
0.00036782652 3.1189784e-06 7.138793e-10 6e-45 6e-45 9.358926e-11 6e-45 1.1775512e-19
4.3837198e-07 1.3476881e-10 4.3826142e-07 0.003338395 -0.0018144456 -0.0033962475 0.0016870059 -0.0005890699
-0.0009851188 -0.0013247302 -0.0001765265 -0.0010584951 -1.5379255e-05 0.00021473863 -0.000117743766 4.9346356e-05
-0.00019923989 -0.00030562517 2.1799631e-05 -4.1457046e-05 -9.2526716e-05 6e-45 6e-45 6e-45
6e-45 6e-45 6e-45 6e-45 6e-45 6e-45 0.002621674 -0.00030255
0.0013345625 0.00020858271 -0.0010590018 0.00091163133 -0.00030890552 -0.0025372228 -0.0014987867 0.00025221735
0.0035299754 0.009370121 0.00019680355 0.0062106554 0.01187287 0.0007872142 0.0080840895 0.0106967315
0.00030281485 -3.6988986e-05 0.0012323633 -0.00020788002 -0.00013913224 -5.5824796e-05 0.00048358587 -3.7581067e-05
-6.0253442e-05 6e-45 6e-45 -1.953288e-23 5.0310787e-18 1.0630241e-15 3.3981302e-16 -5.3917115e-09
-1.2460048e-08 6.3962946e-13 -0.0024496247 -0.0023461666 -0.00015749046 -0.0040325755 -0.0024930625 -2.0712256e-05
-0.0039042796 -0.004431014 -0.00036747323 -0.005224993 -0.0032224762 8.973289e-05 -0.004417982 -0.0027171196
9.4867e-05 -0.0048252423 -0.0047381124 -0.0037281667 6.616241e-05 3.4854012e-05 -9.168921e-05 4.904966e-05
-0.00013443103 2.5188132e-05 -0.0015712322 -0.0027710116 -4.3509786e-05 -0.0032821565 -0.006622664 -0.009052198
-0.0040822476 -0.007605849 -0.00229603 -0.0038871367 -0.0071301437 -0.002116984 5.3688917e-05 -7.333893e-05
-0.0024037536 2.52974e-07 -0.00025045534 -0.00016785481 0.00011495676 -5.9094313e-05 -0.00063841854 6e-45
6e-45 6e-45 6e-45 6e-45 6e-45 -6e-45 -6e-45 -6e-45
-1.682605e-09 -1.1759168e-38 6e-45 -4.14049e-09 -7.3370066e-10 1.81042e-20 -1.0207761e-09 -3.8701513e-09
-1.4827342e-10 -1.8028439e-06 -9.367545e-07 -1.3046798e-10 -1.6745564e-06 -2.9330073e-11 -2.1778321e-18 -6.577629e-08
-9.337412e-07 -1.819352e-06 -3.062709e-06 -2.2179013e-06 -3.0631452e-06 1.2253716e-20 2.0422857e-21 8.169143e-21
-6e-45 -6e-45 -6e-45 -6e-45 6e-45 -6e-45 -6e-45 -6e-45
6e-45 6e-45 -6e-45 6e-45 -1.0496494e-06 -0.0001330096 -0.0012874752 -2.2489823e-08
00000000: 1100 0000 8304 0000 5d39 0a00 7200 0000
00000010: bf02 0000 8bbb 0f00 0400 0000 0d00 0000
00000020: 22a6 0500 0400 0000 0400 0000 3508 532f
00000030: 0400 0000 7a36 73ad 4a44 41b0 981e 102e
00000040: b2c0 5a30 0400 0000 1f1c 1f98 a7b8 f316
00000050: 396c 6599 51d7 c71a 8b36 841b 1510 0a1c
00000060: 2be0 98b2 f1cc 31b3 bfa3 222c 73d2 99b5
00000070: a8b2 d6b7 92f7 2bb7 6013 6238 9ca6 cd37
00000080: 5b6d cfb8 9589 4438 576e 4739 b3d7 d438
00000090: 039c 9f36 bfc6 751b 039c 9f36 039c 9f36
000000a0: 05c4 8218 180e c91a 039c 9f36 e352 2b1a
000000b0: d799 2e97 4518 99b8 6638 0bbb ac54 03bc
000000c0: faf6 47ba 75aa b7bb 5ce9 bcbb b76c 11bb
000000d0: e2d9 b2bb 90c0 9bbb 2460 ac38 b228 16b9
000000e0: f949 1ebb c3f9 0437 45a6 3bba 2661 d2bb
000000f0: 35f6 ebba 374f c6bb 9683 1bbc 445f 6b3b
00000100: 1282 fd3a 6ad9 453b 2e15 b33b a24d 713b
00000110: 537b 563b 9378 e83a 191a feba 8afb 87b9
00000120: 3235 743a 5fd6 033a ba62 48b7 818b 3139
00000130: aaec 3136 b172 27ab 851f 2e3a 2825 ccb8
00000140: 2a67 acb6 1c8b 0f37 6217 26ba 2be1 39ba
00000150: cef3 86b4 bdbd 6db7 3530 b4b8 8964 26b8
00000160: d7d8 c039 a44f 5136 ca3a 4430 0400 0000
00000170: 0400 0000 12ce cd2e 0400 0000 4d05 0b20
00000180: 6359 eb34 0c2e 142f 314a eb34 f9c8 5a3b
00000190: b1d2 edba 9493 5ebb 861e dd3a d06b 1aba
000001a0: 1a1f 81ba 92a2 adba f919 39b9 34bd 8aba
000001b0: b302 81b7 762b 6139 34ed f6b8 3ff9 4e38
000001c0: 0deb 50b9 513c a0b9 5ade b637 2ae2 2db8
000001d0: e70a c2b8 0400 0000 0400 0000 0400 0000
000001e0: 0400 0000 0400 0000 0400 0000 0400 0000
000001f0: 0400 0000 0400 0000 64d0 2b3b 939f 9eb9
00000200: 7dec ae3a ffb6 5a39 34ce 8aba 8bfa 6e3a
00000210: 99f4 a1b9 8947 26bb f072 c4ba 0a3c 8439
00000220: 2957 673b 2385 193c 0d5d 4e39 c182 cb3b
00000230: 6d86 423c 0d5d 4e3a 2173 043c 5841 2f3c
00000240: 1fc3 9e39 9f24 1bb8 4087 a13a 5efa 59b9
00000250: 07e4 11b9 6b25 6ab8 cc89 fd39 5da0 1db8
00000260: a4b8 7cb8 0400 0000 0400 0000 12e9 bc99
00000270: 329d b922 ab32 9926 8de3 c325 ff41 b9b1
00000280: df0f 56b2 290a 342b e289 20bb 25c2 19bb
00000290: 0624 25b9 b223 84bb a662 23bb 3bbf adb7
000002a0: f1de 7fbb 0a32 91bb 6ca9 c0b9 6b36 abbb
000002b0: 2e30 53bb fa2e bc38 b8c4 90bb b411 32bb
000002c0: 55f3 c638 111d 9ebb 2b42 9bbb 4254 74bb
000002d0: acc0 8a38 3630 1238 4549 c0b8 acba 4d38
000002e0: 0ef6 0cb9 1a4b d337 cef1 cdba dc99 35bb
000002f0: 477e 36b8 7319 57bb ef02 d9bb ac4f 14bc
00000300: 60c4 85bb 7c3a f9bb fe78 16bb 55bf 7ebb
00000310: fba3 e9bb 19bd 0abb 0930 6138 8acd 99b8
00000320: 4b88 1dbb 7bd0 8734 8c4f 83b9 2f02 30b9
00000330: f114 f138 09dc 77b8 8b5b 27ba 0400 0000
00000340: 0400 0000 0400 0000 0400 0000 0400 0000
00000350: 0400 0000 0400 0080 0400 0080 0400 0080
00000360: 6741 e7b0 c70b 8080 0400 0000 2344 8eb1
00000370: 98ad 49b0 45fd aa1e 5e4b 8cb0 36fa 84b1
00000380: 4207 23af 3ff9 f1b5 4775 7bb5 7973 0faf
00000390: 52c1 e0b5 bafe 00ae 16b2 20a2 e640 8db3
000003a0: 35a6 7ab5 7530 f4b5 f188 4db6 41d7 14b6
000003b0: 6f90 4db6 5677 671e 8d4f 1a1d 8d4f 1a1e
000003c0: 0400 0080 0400 0080 0400 0080 0400 0080
000003d0: 0400 0000 0400 0080 0400 0080 0400 0080
000003e0: 0400 0000 0400 0000 0400 0080 0400 0000
000003f0: aee1 8cb5 7e78 0bb9 80c0 a8ba a52f c1b2

exp_avg_sq f4 [32, 1, 3, 3]
6.3629034e-07 2.9043933e-06 4.8975908e-05 5.3872924e-07 2.4867943e-06 4.143487e-05 2.1959448e-07 2.6224734e-06
3.396439e-05 3.9874723e-07 5.337535e-07 1.3834788e-06 1.3608379e-06 1.6312773e-06 1.9188424e-06 2.1445342e-06
1.9906238e-06 1.2674086e-06 1.0398968e-07 6.0106885e-08 1.708462e-07 2.5119984e-06 2.905907e-06 5.628721e-06
5.1973453e-05 6.335007e-05 5.7952373e-05 2.4537368e-07 6.8538844e-07 9.900972e-07 4.5493667e-08 2.04742e-08
4.836178e-07 7.9357966e-07 5.060616e-07 1.2797655e-06 1.1829704e-06 1.0190911e-06 1.5316409e-06 6.591145e-07
4.0634217e-07 5.7107627e-07 5.113086e-07 1.42563e-07 2.2271831e-07 6.4517975e-05 0.000170005 0.0005677798
0.00012339785 0.00053272484 0.00091003167 0.0005444139 0.000909229 0.0008726794 2.0884459e-06 6.0249073e-07
3.8978116e-05 4.7162953e-07 2.3989705e-05 0.00026023932 5.4060314e-05 0.00027210664 0.00080196373 0.0019525436
0.0010688585 0.00037831895 0.0015033262 0.0004347551 3.8000675e-05 0.0012117921 0.00028407967 1.9285526e-05
3.8813167e-05 1.7772769e-05 1.4409965e-06 2.6454472e-06 1.7884062e-08 9.716597e-09 3.762702e-05 3.748059e-06
3.3950153e-07 3.1039613e-06 4.5071956e-05 0.000162939 2.155572e-06 6.944811e-07 2.4365667e-05 7.687678e-05
5.218673e-06 1.0084921e-06 7.117226e-07 1.0612471e-07 1.2337742e-07 5.7411506e-07 2.5136572e-07 8.175077e-07
2.1089907e-06 1.93024e-06 3.572026e-06 0.0019175656 0.0018881302 0.0016980696 0.0009886345 0.0006640081
0.0005492042 0.00028581827 3.99174e-05 9.1348746e-05 5.59015e-06 1.2357483e-05 3.192772e-05 7.802739e-06
1.3100964e-05 2.3913291e-05 6.9282993e-07 2.3912142e-07 4.2151203e-07 1.5587858e-12 1.2172302e-12 4.4004583e-12
7.7360655e-13 5.8423795e-13 1.6885228e-11 2.7535903e-12 6.5811957e-12 1.7715818e-11 0.00021444862 0.00023106077
9.078687e-05 0.00014384763 0.00030569936 0.00024373864 9.549682e-06 0.00014163513 0.00023912343 5.1501197e-06
0.00013261489 0.00088175276 2.6955818e-06 0.00023464103 0.0011973843 3.51667e-05 0.0005218285 0.0012593301
0.00025943868 0.00011210438 4.187408e-05 2.3616927e-05 1.5867214e-06 2.9201098e-07 8.124153e-06 1.3234918e-06
2.0445984e-06 1.1689254e-07 1.4769364e-07 2.4466857e-07 1.4624528e-07 4.0035982e-07 7.6922856e-07 8.329968e-07
1.2441368e-06 1.0093864e-06 7.962851e-05 3.7397193e-05 1.407746e-06 0.00014282159 5.535762e-05 6.2282766e-07
0.0001743572 0.00010944921 6.700832e-06 0.0005829757 0.00031832093 0.00013805389 0.000605912 0.000486272
0.0003538611 0.00051716104 0.0005388146 0.00046368066 4.90092e-06 2.2420422e-06 2.2707811e-06 3.3041506e-05
3.9262577e-06 4.2690294e-07 0.000346182 0.0002019223 9.727561e-05 0.00061375333 0.00095906795 0.0012234309
0.00097407994 0.0011704252 0.00088101765 0.0010869545 0.00074456265 0.00020607411 2.1926864e-05 7.073101e-05
0.00030694247 2.1056543e-07 5.436326e-06 0.00016812388 2.0211571e-06 5.662234e-07 5.2974887e-05 2.907803e-06
1.2737716e-07 2.4214875e-08 3.452196e-08 2.6196934e-10 5.2594313e-08 6.8422317e-09 1.2343439e-08 5.443893e-07
2.4614667e-07 5.825751e-08 1.7844044e-08 3.5102954e-07 1.933341e-07 1.3588097e-07 3.4589686e-07 3.5624097e-07
2.0731405e-07 5.7294483e-06 3.11859e-06 8.2745845e-07 4.1450958e-06 1.9308561e-06 6.726008e-07 3.5413677e-06
4.628462e-06 4.987307e-06 1.8143148e-05 1.8327064e-05 1.869391e-05 4.7025874e-06 2.7439655e-06 1.580621e-06
1.3246492e-06 2.4993884e-07 1.0499308e-07 4.859864e-07 8.380996e-07 1.9423903e-06 1.9733841e-07 2.0453106e-07
2.4336052e-06 1.0386186e-07 2.66047e-07 2.8002105e-06 5.9252244e-07 1.1593793e-05 0.00015811894 5.063811e-07
00000000: 8acd 2a35 19e9 4236 7b6b 4d38 319d 1035
00000010: cde2 2636 5aca 2d38 acc9 6b34 c0fd 2f36
00000020: fc74 0e38 6713 d634 4347 0f35 f8af b935
00000030: 09a6 b635 43f2 da35 76c5 0036 d1ea 0f36
00000040: a896 0536 d41b aa35 ee50 df33 1c14 8133
00000050: d971 3734 ce93 2836 1a03 4336 58de bc36
00000060: 12fe 5938 cfda 8438 e311 7338 e7bb 8334
00000070: 89fb 3735 7be3 8435 d164 4333 3edf af32
00000080: f6d1 0135 6106 5535 4ad8 0735 68c4 ab35
00000090: 8ec6 9e35 b4c7 8835 c892 cd35 01ee 3035
000000a0: 3e27 da34 104c 1935 dc40 0935 6b13 1934
000000b0: 5824 6f34 d34d 8738 5f43 3239 0fd7 143a
000000c0: 5c64 0139 8fa6 0b3a 318f 6e3a 00b7 0e3a
000000d0: 5359 6e3a 86c4 643a 3a27 0c36 d9ba 2135
000000e0: 6f7c 2338 4534 fd34 803d c937 bb70 8839
000000f0: d2be 6238 89a9 8e39 e03a 523a 7eec ff3a
00000100: f118 8c3a 1c59 c639 420b c53a d7ef e339
00000110: ea62 1f38 ffd4 9e3a 87f0 9439 5ac7 a137
00000120: 52cb 2238 bb16 9537 4368 c135 7088 3136
00000130: 789f 9932 0cee 2632 b5d1 1d38 2a87 7b36
00000140: bc44 b634 a64d 5036 a50b 3d38 9bda 2a39
00000150: 72a8 1036 616c 3a35 df64 cc37 e838 a138
00000160: 0f1c af36 865b 8735 340d 3f35 ade6 e333
00000170: ba79 0434 e31c 1a35 71f3 8634 b472 5b35
00000180: 2f88 0d36 4589 0136 f0b6 6f36 d356 fb3a
00000190: 237b f73a c391 de3a 1295 813a d410 2e3a
000001a0: 78f8 0f3a e1d9 9539 fb6c 2738 7c92 bf38
000001b0: 0693 bb36 fc52 4f37 21ea 0538 82e8 0237
000001c0: 36cc 5b37 6799 c837 e9fa 3935 9960 8034
000001d0: 2c4c e234 2d61 db2b 574f ab2b ced3 9a2c
000001e0: 3ac0 592b c872 242b 2786 942d 46c4 412c
000001f0: 248e e72c 7ad4 9b2d 9ddd 6039 e748 7239
00000200: d464 be38 ced5 1639 4646 a039 1894 7f39
00000210: 9237 2037 e483 1439 35bd 7a39 31cf ac36
00000220: 8a0e 0b39 6d25 673a bee5 3436 f909 7639
00000230: 8df1 9c3a f57f 1338 51cb 083a 1b10 a53a
00000240: 4505 8839 9519 eb38 f3a1 2f38 f71c c637
00000250: 55f7 d435 afc5 9c34 f94c 0837 d5a2 b135
00000260: ef35 0936 5a06 fb33 b895 1e34 fe5a 8334
00000270: 9907 1d34 09f1 d634 fc7c 4e35 1b9b 5f35
00000280: 37fc a635 417a 8735 3bfe a638 eeda 1c38
00000290: c9f1 bc35 61c2 1539 cb2f 6838 6430 2735
000002a0: a8d3 3639 1988 e538 b5d7 e036 d6d2 183a
000002b0: 50e4 a639 8fc2 1039 11d6 1e3a 53f2 fe39
000002c0: 6f86 b939 1792 073a 3c3f 0d3a 2a1a f339
000002d0: 9572 a436 fe75 1636 b963 1836 0c96 0a38
000002e0: 4cbe 8336 1831 e534 c37f b539 1bbb 5339
000002f0: 7200 cc38 4ae4 203a f669 7b3a 875b a03a
00000300: 6659 7f3a f468 993a 18f4 663a 2478 8e3a
00000310: c12e 433a 9915 5839 95ef b737 6c55 9438
00000320: 1fed a039 c917 6234 af69 b636 694a 3039
00000330: 37a3 0736 93fe 1735 5a31 5e38 ad23 4336
00000340: 2bc5 0834 1301 d032 4c45 1433 e804 902f
00000350: 0fe4 6133 e818 eb31 050f 5432 2622 1235
00000360: 2426 8434 cf36 7a33 7847 9932 2275 bc34
00000370: 4697 4f34 ade6 1134 b4b3 b934 6341 bf34
00000380: 0d9a 5e34 963f c036 f848 5136 831e 5e35
00000390: 1a16 8b36 db93 0136 c68c 3435 3ca8 6d36
000003a0: 304e 9b36 a458 a736 1d32 9837 12bd 9937
000003b0: ded0 9c37 ebca 9d36 f824 3836 b925 d435
000003c0: 9aca b135 552f 8634 8e78 e133 bb74 0235
000003d0: c4f9 6035 035a 0236 f8e3 5334 129d 5b34
000003e0: 0551 2336 a90a df33 39d5 8e34 40eb 3b36
000003f0: d50d 1f35 f682 4237 bbcc 2539 3fee 0735

exp_avg f4 [32]
1.044322e-39 -5.8138705e-10 -4.1551438e-08 0.018383255 4.7567314e-06 -0.0062730904 -0.010498847 0.0044638864
0.001560886 0.01474397 4.3859944e-07 0.0011651388 -0.00014722247 6e-45 0.00043494476 0.01130443
0.0015713511 -1.2517157e-08 -0.003916562 -0.005518884 -0.0006297634 -0.006590775 -0.0034643032 6e-45
-4.404761e-09 -1.823198e-06 -3.0752603e-06 6e-45 -0.001123174 6e-45 0.00449485 0.004946689
00000000: 255f 0b00 7acf 1fb0 4a76 32b3 7b98 963c
00000010: 039c 9f36 7f8e cdbb 5b03 2cbc cb45 923b
00000020: a596 cc3a b190 713c a678 eb34 92b7 983a
00000030: bb5f 1ab9 0400 0000 4c09 e439 3736 393c
00000040: cbf5 cd3a 0a0b 57b2 8156 80bb c1d7 b4bb
00000050: b516 25ba 6ef7 d7bb 5d09 63bb 0400 0000
00000060: b058 97b1 9bb4 f4b5 9260 4eb6 0400 0000
00000070: 7737 93ba 0400 0000 8949 933b d617 a23b

exp_avg_sq f4 [32]
8.375914e-05 6.7501765e-06 0.00012007604 0.002579036 3.3116712e-06 0.0011189006 0.0015251506 0.0028937918
0.00028282072 0.0016184448 6.794935e-06 0.0032666726 5.1413816e-05 1.8770163e-11 0.00043923862 0.0018188813
0.00064489176 2.253715e-06 0.00020301358 0.0007547314 0.00065099157 0.0015121071 0.0004994003 2.6797525e-05
6.9857276e-07 8.084425e-06 3.477078e-05 5.8079236e-06 0.00027954727 4.031618e-06 0.0021086715 0.001374417
00000000: d9a7 af38 937f e236 55d1 fb38 0b05 293b
00000010: 143e 5e36 13a8 923a 90e7 c73a c5a5 3d3b
00000020: 8e47 9439 ff21 d43a 0c00 e436 ac15 563b
00000030: 2aa5 5738 a61a a52d 9c49 e639 8767 ee3a
00000040: f40d 293a 873e 1736 0be0 5439 2bd9 453a
00000050: 4ea7 2a3a e531 c63a 30ea 023a 3fcb e037
00000060: 8e85 3b35 57a2 0737 d7d6 1138 afe1 c236
00000070: 3390 9239 5647 8736 a331 0a3b c825 b43a
