23.04.27/Mnist/src/experiments/checkpoint/default/model_5.pt (torch, 609050 bytes, 18 tensors)

linear.weight f4 [10, 3136]
00000000: 08ac 603d 84d6 693d 73c9 443d 94b8 d63c
00000010: f881 233d e59e 383d 6b43 543d d023 143d
00000020: df61 d6bb cc76 6fbc 70d9 a93c ecb7 b33c
00000030: e1ce 2d3d 9cae bd3b f9e5 033d 1dd1 5d3d
00000040: dad0 993c fe2b e33b c0b0 ca3b 33b5 113d
00000050: 5e15 ce3d d989 403d dc3a 4e3d 9d07 f33c
00000060: f7a7 8f3c 43a6 b83c a0bb 803c e15e e03d
00000070: 4457 5b3d 146f 593d 0c03 cc3d 1c60 073c
00000080: d19e b23b 3390 373c 5e60 9b3d 5aa1 51b8
00000090: bd60 a53c d333 073d e2c0 e63c c649 f63b
000000a0: a6ea 853a a878 6c3d 5032 763d 8c64 9dbb
000000b0: e64f 653b f25f 743c 77dc e33c 0d33 8f3d
000000c0: 5b74 db3c 443c f8bc 3889 a8bd f0d2 86bd
000000d0: f1b8 d53c dc38 8dbd b188 2fbd 1f6e 32bd
000000e0: d0fc c6bd f917 6cbd e1b5 853d 7a73 9bbd
000000f0: 10ad b03c c71a a3bd 048d 0dbd bfb9 6abd
00000100: c195 3fbd c3dd 90bd 3075 2cbd 1e00 b9bd
00000110: 7094 9f3d 5550 993d b209 febc f1bb ae3d
00000120: 2ab1 93bd d0c6 8bbd 1e41 b6bd 1b4c be3d
00000130: 9fb1 2ebd f9f8 053d d94d bb3d 5139 753d
00000140: fd84 99bd 445a 43bd 1dc4 9e3d 2b23 d13d
00000150: 6053 7b3c 6b1f a6bd 6a19 8ebd 2d7a b9bd
00000160: 8934 00bd edb9 083d 6b68 b13d 5870 aa3b
00000170: 559a a3bd 09f1 06bd 66d3 05bc ede2 22bd
00000180: 95f4 d8bc bff3 58bd fcf1 d439 fd31 533d
00000190: dd60 973d 2015 af3c 5ee7 923d 60c2 193d
000001a0: e756 713d 0ed1 193c dfa1 243d 01fd 753d
000001b0: a5b8 813d c0a8 5e3a 1545 e43c b6af 6e3d
000001c0: abe4 a13d 8651 8f3d d371 683a 35aa bb3a
000001d0: ca5f 9d3d 8e91 853d cedf 6f3d b628 443d
000001e0: a0fb 8f3d 25e1 bd3c 16e6 203d 62c1 cc3d
000001f0: 0cbf ae3d b557 e23d 4b0d 253d 11c1 223d
00000200: 2879 303b 8705 593d 6c11 793d 7322 073d
00000210: dc21 573d f764 913c ef4f 483b 8813 5e3d
00000220: 6dce b33d 4103 203d 4995 783d 8758 c93d
00000230: 12ab 343d 5772 8b3d d6fb 8c3d 90f3 243d
00000240: da89 d23b 5524 0e3d c14e ad3d 722d 0abf
00000250: 7f83 2ebf 9e00 36bf d2bf 9fbd 0d6f d2be
00000260: bf2e 93be 8470 c4be ad45 90be 1a7d 19bf
00000270: 16c5 19bf ece5 65be d446 adbe 1b4e 9a3d
00000280: debc fcbd 0d2e 913d f417 d03d 1ab7 593e
00000290: 6a4c 00be a69c 1dbd 616a b73e 55fc 313e
000002a0: f143 f73d 3470 1b3e a36d b33e 60bb 6abd
000002b0: b544 483e 0479 683e 1205 b03e e94e 57bd
000002c0: f23c 5f3e 2bb6 5f3e 3546 f8be 4b22 63be
000002d0: 0726 7c3e ddb9 81be a074 643e df3d 953e
000002e0: f8cf 3c3e ccb2 85be 7bf8 ecbe 64f5 2dbf
000002f0: 5e12 00bf 5d77 bdbe 83d9 163d 433e b8be
00000300: ee95 1dbf e397 dfbf e1fd 59bf 7f45 c9be
00000310: 2afd 0cbd c4ac 17bd 329d adbc c4b7 053e
00000320: b425 423e 289f 28bd ce3b 8c3c cc5f 82bd
00000330: 9fa4 9cbc a34b 85bd a8cc 94bc ecaa 8abd
00000340: d8f5 9dbd d531 53bd 64c0 743c 63ce b8ba
00000350: 5572 ae3c ce0f e9bc dba8 a53d 135e 163d
00000360: 918b b4bd 79b5 b93d a776 ebbb 282a b7bd
00000370: c952 87bd 0755 853d 71f4 2b3c 1b9f 95bd
00000380: 6862 5c3d b185 ee3d a81b 20bc 2778 713d
00000390: 53f2 853d ec3a 2cbd 9498 acbd 6bd4 4abc
000003a0: efcb fb3c f948 643c d7ea d0bc 7245 84bc
000003b0: 301a 9ebd 1ddd 64bd 24de 7dbd 5ee8 c3bd
000003c0: bc8d 95bd 3348 adbd d68d cdbd a199 b0bc
000003d0: f880 f5bc a01b b9bd 04b2 d7bc 0c14 b8bd
000003e0: cec0 75bd 7de4 cfbc c046 5fbd e5e6 033d
000003f0: 28fd 69bd c0c5 59bd 5794 9e3d 6494 ad3b
0.05485156 0.057089344 0.04804368 0.02621106 0.03991887 0.04507341 0.051822107 0.036166966
-0.006542429 -0.014615726 0.020733565 0.021938287 0.042433623 0.0057886373 0.03220174 0.054154504
0.018776346 0.0069327345 0.006185621 0.035573196 0.10062669 0.04700646 0.0503491 0.029666716
0.017536147 0.022540217 0.015714467 0.10955597 0.05355002 0.053084448 0.09961519 0.00826266
0.0054510613 0.011203813 0.0758674 -4.9979753e-05 0.02018773 0.033008408 0.028168146 0.0075161187
0.0010217025 0.057732254 0.060106575 -0.004803246 0.003499025 0.014915453 0.027815087 0.06992159
0.026788881 -0.030302174 -0.082292974 -0.06583202 0.026089163 -0.06895611 -0.04285497 -0.04356205
-0.09716189 -0.05764005 0.06528831 -0.07590385 0.021566898 -0.07964092 -0.03455831 -0.057306048
-0.046773676 -0.07073548 -0.042103946 -0.090332255 0.07791984 0.07486025 -0.031010482 0.08531941
-0.07211526 -0.0682503 -0.08899139 0.0929186 -0.04264986 0.032708142 0.09145708 0.059869114
-0.074960686 -0.047693506 0.077522494 0.10211786 0.015339702 -0.08111461 -0.06938441 -0.09056506
-0.0313001 0.033380438 0.08662494 0.0052013807 -0.07988421 -0.032944713 -0.008168077 -0.039767195
-0.026483813 -0.05296683 0.00040616083 0.051561344 0.07391522 0.021372378 0.07173036 0.037538886
0.058920767 0.009388221 0.040193435 0.060055736 0.06334046 0.00084937736 0.027864972 0.05827304
0.07904943 0.06997971 0.0008867059 0.0014317693 0.07684286 0.06521903 0.058563046 0.047890387
0.070304155 0.023178646 0.039281927 0.09997822 0.08532533 0.11051885 0.04029588 0.039734904
0.0026927684 0.052983787 0.06080763 0.032991838 0.052522525 0.01774834 0.0030565222 0.054217845
0.08779607 0.039065603 0.060689244 0.098313384 0.044108458 0.06808918 0.068839714 0.04027134
0.0064251246 0.034702618 0.08462287 -0.53975594 -0.681694 -0.7109469 -0.07800259 -0.4110035
-0.28746602 -0.38367093 -0.28178158 -0.59956515 -0.60066354 -0.2245099 -0.338431 0.07534429
-0.12340711 0.070888616 0.10160819 0.21261254 -0.1252915 -0.03847947 0.35823348 0.17381413
0.12073506 0.15179521 0.35044584 -0.0573076 0.1955746 0.22702414 0.34378868 -0.05256549
0.21800593 0.21846835 -0.48491064 -0.2218105 0.24623881 -0.25337115 0.22310114 0.29148766
0.18438709 -0.26112974 -0.46283326 -0.6795256 -0.50028026 -0.3700513 0.03682853 -0.35985002
-0.615569 -1.7468227 -0.85153013 -0.39310834 -0.034421124 -0.037029997 -0.02119312 0.13058382
0.18959695 -0.04116741 0.01711836 -0.06365928 -0.019121466 -0.06508567 -0.018163994 -0.06770882
-0.077129066 -0.051561195 0.014938448 -0.0014099594 0.021294752 -0.02844992 0.08088847 0.03671081
-0.08815683 0.09067816 -0.0071857753 -0.089435875 -0.06607587 0.06510358 0.010495291 -0.073057376
0.053804785 0.11646593 -0.009772219 0.058952477 0.0654036 -0.04204838 -0.084275395 -0.012379746
0.030736892 0.013933414 -0.025502605 -0.016146395 -0.077198386 -0.055874933 -0.061979428 -0.09565805
-0.07302424 -0.084610365 -0.10036819 -0.021557631 -0.029968724 -0.09038472 -0.026330002 -0.08988199
-0.059998326 -0.025377506 -0.05451083 0.03220262 -0.057126194 -0.053167105 0.07743137 0.0052972306

linear.bias f4 [10]
00000000: 4311 c43d 3a2b 3e3f 5ad7 f8bd a037 18be
00000010: 3182 82bc f697 82ba 1f83 31be c021 6a3e
00000020: f1c0 3cbe 92da 47be
0.09573605 0.7428471 -0.1215045 -0.14864969 -0.01593122 -0.0009963501 -0.17335175 0.22864437
-0.18432976 -0.19516972

layer1.0.weight f4 [32, 1, 3, 3]
00000000: cbf7 e8be 082d 26bf 8919 a03e 408e ac3d
00000010: 4b22 01be 22ae 173e 058f 1abf 2f3a 42bf
00000020: 0001 283d 125f a3be 22b8 fdbe 2da3 a23c
00000030: f275 773c 348f f23b 642b 9c3e e526 8a3b
00000040: 53c5 c13d 86c1 e8be ccf0 13bf 7213 93be
00000050: 609c 0cbf c6a3 a6be 0e49 83bb 588a 93be
00000060: 3d95 803e e076 a63e 4bad 883e 5ecb 8dbf
00000070: 63e7 77bd 55de 8ebe 717b 10bf b9c1 b5be
00000080: f7a2 f6be 22ed 85bf 1fce 8cbe c7e7 05bf
00000090: 83b4 f53d 447f a2be 6961 223e a8a7 10bd
000000a0: b5d9 89be 6b7d e6bd 327e ee3d c6f8 9cbe
000000b0: 168b 94be a7cb 153e 7174 3dbf 5c4e b53e
000000c0: 4a44 6abf bf8e 913e 5eea d23e b444 8a3e
000000d0: f9de 0b3f f923 4bbd f92f b9be 54cb 12bf
000000e0: d0a2 6abf 5e67 4ebf 5df2 bebe dad6 c53e
000000f0: 5cd6 54bf e349 9b3c fb92 2c3f d308 123f
00000100: 6b62 2a3e 5ee2 cdbe a676 2b3f df58 6fbc
00000110: 302b 3abf 8a77 d13e 28c8 01bf f4bf 3abf
00000120: 688d 45be 87d0 da3e 108b 0cbf 3a43 0dbf
00000130: 5525 90bf d78b 13bf 8f8e 4b3e a0ee aabe
00000140: 2dd0 e8be cde3 9bbf 7039 ffbd abc2 d63e
00000150: 2019 fdbe acc2 98bf a313 71be 6476 e13e
00000160: 9a08 14bf 6d08 64bf ae5a cc3d f59c b3be
00000170: 99f5 0cbf 8ef9 89be 0dcb 3abf 45c5 cbbd
00000180: ea62 5d3e 21e1 a6be e667 743e 7be7 e03e
00000190: dc53 1d3e d21d 163f 9586 10be 55ac 9d3e
000001a0: 0bd8 b1bd 28bc e5be bccb 5fbf faf1 e4be
000001b0: b77a 8bbe 1f7c ccbe 9fb3 2a3e 131c a9bd
000001c0: 6808 8b3d 10c0 563e fc2b cbbe 75c5 cebe
000001d0: ccb9 13bf 8a38 e63d ee2c fbbd 5353 97bd
000001e0: 796e 94be 0947 a1be c4cb 843d ab3f 173e
000001f0: 70e0 82be d05a f03d 4f7d 363d f531 c23c
00000200: 61a3 6abf 6254 2abe 2de5 423f 5d4e a03d
00000210: 03c1 74bf 886f 9f3c 7a1c c73d 2312 89bf
00000220: bffd 92be 7edb 7b3e 1f79 24bf 9deb 353e
00000230: b81a 9a3e 5942 82bf 2f25 1e3d a156 9d3e
00000240: de0b fb3e 63f7 453e 673a 21bf 5a7f 23bf
00000250: 0a3e 10bf 0be5 4abf cc55 b4be 4525 2e3d
00000260: 6e5d 1bbf 26c2 8cbd 16e6 1bbe 14ca e6be
00000270: 5d94 25bf cec5 64bd ebef 5d3e d94e 20be
00000280: d24d 883e 1f8e 94be fbf8 fdbd e926 a7bd
00000290: 973e 3cbf a9e0 533e 63ee b63d a99d 62bf
000002a0: 9c92 563e e914 023f 950b 57bf 056a 0f3f
000002b0: 67db 2dbe cdd5 8cbf 03c8 da3d 6532 2a3e
000002c0: f287 023d 8a2c b23d 21a7 2c3e 68e3 a73d
000002d0: 0609 51be c6af aa3d 4ad5 6dbd 3675 8ebe
000002e0: 4a90 7fbf c240 9bbf cd93 533f 30c9 3d3e
000002f0: 58cd 23bf ea9e e2be 7718 91be 9303 0c3f
00000300: 8ad8 b83d 6eab 353f ef50 343e 4191 073f
00000310: d408 b7bd 339e 66bf ab32 82be 30cb 04bd
00000320: 1ab6 f23e d6b2 61bf 0d29 26bf 9944 b43e
00000330: 1a55 be3d 70ee 63bf 7286 e3be fcbc 763e
00000340: 70c4 92be d228 21bf 8205 73bf 2f56 6abf
00000350: fe4e a0be 38c0 37bf e711 4fbf 13b6 3d3c
00000360: c9c3 2cbc cca5 2bbf 2c26 febe 354a 9f3e
00000370: b4b3 5dbe c1f1 febd 1ec2 80be 7188 923e
00000380: d7e8 d7be e37c 8f3e e7b8 b83d 5e8a 8bbe
00000390: 90fb c23c 5748 01bf 6c90 3bbf 6e04 b7be
000003a0: ea73 553e bc0c de3e 7196 9f3e e34f 4b3e
000003b0: 310c f73e 9ae6 a9be 5eba 92bc 86b3 08bf
000003c0: a351 64be 256c cebe 311a 5ebf 3d52 51bd
000003d0: e105 693d 76b3 59bd 4ae8 983d 11a6 2dbf
000003e0: 158d 2f3e 1918 5fbe 6d5c bdbe db90 ea3d
000003f0: ec47 e3be dbd6 f4be 3a8a 3b3f 3411 07bf
-0.4550155 -0.6491246 0.31269482 0.084255695 -0.12610738 0.1481252 -0.6037448 -0.7587003
0.04101658 -0.3190847 -0.49554545 0.019853199 0.015103804 0.007402325 0.30501854 0.0042160624
0.09461465 -0.45460147 -0.577893 -0.28725773 -0.5492611 -0.32546824 -0.0040065115 -0.28816485
0.2511386 0.3251257 0.26694712 -1.1077688 -0.060523402 -0.27904 -0.56438357 -0.3549936
-0.48171207 -1.0462992 -0.27501008 -0.5230679 0.119973205 -0.3173772 0.15857472 -0.03531614
-0.2692391 -0.1125439 0.116451636 -0.3065855 -0.29012364 0.14628468 -0.740058 0.35411346
-0.9151045 0.2842922 0.41194433 0.2700554 0.54637104 -0.049594853 -0.36169413 -0.57341504
-0.9165468 -0.80626476 -0.37294284 0.3864048 -0.83139586 0.01895613 0.67411774 0.57044715
0.16639106 -0.40211767 0.6697792 -0.014608591 -0.7272215 0.40911514 -0.5069604 -0.7294915
-0.19292223 0.4273722 -0.5489969 -0.55180705 -1.1261393 -0.57635254 0.198786 -0.3338518
-0.45471326 -1.2178894 -0.12462127 0.41945395 -0.4943323 -1.1934409 -0.23542647 0.44035637
-0.57825625 -0.89075357 0.09978233 -0.35080686 -0.5506225 -0.26948208 -0.7296608 -0.099497356
0.21619764 -0.32593635 0.23867759 0.43926606 0.15364021 0.5863925 -0.14113839 0.3079554
-0.08683785 -0.44870114 -0.8742025 -0.44715863 -0.27242061 -0.39938447 0.16670083 -0.08257308
0.06788713 0.20971704 -0.39681995 -0.40385023 -0.5770538 0.11241253 -0.12264429 -0.0738894
-0.28990534 -0.31499508 0.06484178 0.14770381 -0.25561857 0.11736071 0.044553097 0.023705462
-0.91655546 -0.16633752 0.76130944 0.078274466 -0.9560701 0.019462362 0.09722228 -1.070866
-0.28709218 0.24595448 -0.64247316 0.1776566 0.3009851 -1.0176498 0.03860968 0.30730155
0.4903249 0.19332652 -0.6297974 -0.638662 -0.56344664 -0.7925574 -0.35221708 0.04251601
-0.6068944 -0.068729684 -0.1522449 -0.45076048 -0.6467951 -0.055852704 0.21673553 -0.15655078
0.26621872 -0.2901468 -0.12401005 -0.081617184 -0.73533005 0.2069117 0.089321874 -0.8852182
0.20954365 0.50813156 -0.8400205 0.5602115 -0.16978227 -1.1002747 0.106826805 0.16620786
0.03186793 0.086999014 0.1686063 0.08197671 -0.20413598 0.083343074 -0.058064736 -0.278238
-0.9982954 -1.2129138 0.826474 0.18533778 -0.63985205 -0.44261867 -0.28338978 0.54692954
0.090256765 0.70964706 0.17608999 0.52956015 -0.08937231 -0.9008514 -0.25429282 -0.032420337
0.47404557 -0.88163507 -0.6490639 0.35208586 0.092935756 -0.890357 -0.4443851 0.2409553
-0.28665495 -0.6295291 -0.9493028 -0.91537756 -0.31310266 -0.7177768 -0.8088669 0.011579054
-0.010544726 -0.6704986 -0.49638498 0.31111303 -0.21650583 -0.12448455 -0.251481 0.28619722
-0.4216983 0.28024969 0.09019642 -0.27254003 0.023801595 -0.50501007 -0.73267245 -0.35745567
0.20844999 0.4336909 0.31169465 0.19854693 0.4825149 -0.33183748 -0.017911132 -0.5339893
-0.22296767 -0.40316883 -0.86758715 -0.05110382 0.056890372 -0.053149663 0.074661806 -0.6783152
0.17143662 -0.21786536 -0.36984578 0.1145341 -0.4439081 -0.47820172 0.7325779 -0.52760625

layer1.0.bias f4 [32]
00000000: ccce 24be 3346 0ebe 7e91 8fbc efb6 403e
00000010: c56a 3bbe 92b2 1cbf 56b8 a8bd 3056 6cbe
00000020: a4d8 fb3d 86f8 433e 538a 7fbe 82be 873c
00000030: 0142 08be 4a8a b8be 5239 a9be 343e 86be
00000040: 3cdc 413d 8c21 fcbd 6cd6 c2be ec45 45bf
00000050: 5ce0 b8bd 13de bdbe c717 3abe fcb0 44bd
00000060: 991f a8be fc88 25bf 3018 47be 367c 84be
00000070: c9c1 b4bd 1286 1cbf f2c0 d2bd 0dcf d5be
-0.16094512 -0.13893966 -0.01752543 0.18819784 -0.18302448 -0.61209977 -0.08238284 -0.23079753
0.1229718 0.19137773 -0.2495511 0.016570333 -0.13306428 -0.36043006 -0.33051544 -0.26219332
0.047329172 -0.12311086 -0.38054216 -0.7705982 -0.09027168 -0.37083492 -0.18173133 -0.048020348
-0.32836607 -0.64662147 -0.1944282 -0.25876015 -0.08826024 -0.61142075 -0.10290708 -0.4175953

layer2.0.weight f4 [64, 32, 3, 3]
00000000: 397d e3bd 29f6 f3bd 3367 26bd f3c0 bbbd
00000010: cabc 16bb 4faf a8bd b739 73bd 9980 c2bd
00000020: 8161 f6bd 06a3 89bd 9639 4ebd e10f bbbd
00000030: 5af6 e2ba 5beb 9f3d e249 9fbd 7fe5 b8bd
00000040: 7759 6bbd 7795 b8bc 579a 8abb 5bba a6bd
00000050: 0f7d ebbc 5ac9 7bbd f895 263c 1dfa 3ebd
00000060: af27 97bd e3a8 8ebc f437 4dbd 4f0d a9bb
00000070: 7068 79bd 538e 023c ed98 c9bc 57c3 b0bd
00000080: 5673 d3bd d48e dcbc e307 4cbd 98f1 58bd
00000090: a5e7 d1bd 5715 0ebe 1195 93bd cfde 67bd
000000a0: 398f 6ebd 3c8e 0cbe 601b f23b e361 a2bd
000000b0: 255a 63bd 7af2 bebc 6adb 993d 2d9e 13be
000000c0: a3f4 09bc d205 9abc d20a 78bd 28eb 5fbd
000000d0: ff01 2fbc e687 03bd a6e4 ecbc 5cc1 6cbd
000000e0: 6c52 fdbd 11cf 2dbd 5272 c9bd ab3a d9bd
000000f0: f140 8bbc 8eff 93bd b510 32bd 1389 00be
00000100: 61f2 dfbd 509a 48bd 27b8 26bd 9525 a9bc
00000110: 3cd4 93bd 8a19 85bd 1188 b4bd d476 3fbe
00000120: fc43 15bc bf8a 213c 1227 11bd 177f 2ebd
00000130: c841 2fbd de0b 18bd 40a8 acbd 28c6 2bbd
00000140: 547d 29bd d525 9ebd 7e82 89bc 6619 cbbd
00000150: 84a6 9cbd 37af 20bd b27b e93b c291 c2bd
00000160: 5872 8ebd dec1 02bc af9b 063b 61fc b7bd
00000170: f969 abbd cb8f 6b3b f1d6 74bc 46ff d9bd
00000180: 3945 66bd 4eb0 ca3a af51 b5bb 89f2 6fbd
00000190: 4942 1ebd 76a1 07be 5d5f 08be 6ce7 fbbd
000001a0: 211a d5bd 35f0 35be 6d9d 8bbd 248e 0bbe
000001b0: 64a0 bcbd 5799 5abd 5219 44bd bff8 173c
000001c0: 29c7 cb3c db04 ae3d f86d 33bc 8398 c73c
000001d0: 877b 10be 2368 0f3d d8f5 163d caf6 41bd
000001e0: 47a2 dfbd 4e8a 94bd 6de4 48bd 5d2a 5e3d
000001f0: 41c0 3d3d e29f 00be d977 033c cab2 a1bd
00000200: 5fca debd 157f 53bd 9c71 9d3b 6ace 99bd
00000210: 0637 40bd b023 65bc 76fb a7bb ff34 5fbd
00000220: 309f fdbd e5f1 adbd e9d4 ffbd 213a a6bd
00000230: 86d3 e5bd 5d1c 9cbd 3a0f b5bd d37d 3ebd
00000240: 5fdb 91bd 5359 59bd 3b14 e7bc 0351 28bd
00000250: fb93 a0bd a883 093c a54b c1bd a611 c3bd
00000260: 3214 a7bd 72ee 00bc 162d e6bc eb1c 39bd
00000270: 8244 3ebd 009c 37bb 1b8d d3bd ae62 abbc
00000280: 4a29 8fbd d0a2 2abd 0bb1 79bc 70ca d4bd
00000290: 45d5 e53c 774f 953c 23a7 993d aa03 d63d
000002a0: ea5a 96bd ad4e ee3c 0456 d43c 2ef0 7abd
000002b0: f0fd 3abd 1b26 3ebd 53d8 f2bc 437c b43c
000002c0: 0873 11bc c095 b0bd f957 b1bb 502d 91bd
000002d0: 28fe 7d3c 6151 fabc 9062 8339 f986 47bd
000002e0: ce61 363c fa94 07bd 2a2d 963b 37d1 59bd
000002f0: 245c 5cbc 1c80 f9bd 3888 dfbd 4414 fabc
00000300: b0ae 983d 9e54 913d b0a7 3e3d 176a 53be
00000310: 2c2d 38be 8ae2 7cbe b403 4a3d 0e0e 1fbd
00000320: cd0a f83b 81a4 8b3d 1950 873d c409 803d
00000330: 76da 2dbd 373e 55be 9b17 5cbd f304 433b
00000340: da3c 85bc 1017 dcbd ed38 cdbd 599d a6bc
00000350: 1232 283c 2acf b2bd 1869 87bd 32ec 863b
00000360: 3793 e3bb 2300 c9bd d014 f8bc ad67 0dbb
00000370: 3457 28bd f4a6 f0bd 0b9e 8cbd 459b 33bc
00000380: a52c 13bc 6d1e 01bc 03bc 85bd fdfe f9bc
00000390: 18d7 6cbd 2b3a 72bd 039a b13d 511c 0bbd
000003a0: e2b6 b83c fd80 17bc 06ff f8bc 317a cabd
000003b0: cd8c 7ebd 3139 eabd 93a4 ad3d bc3c 89bd
000003c0: bc43 acbe c6a3 09be f335 04be 3ac1 c0bc
000003d0: 4dc0 19bd 3d84 8ebd 270d 40bd b6ec dbbd
000003e0: 7813 efbc 174c ebbb 9e7f 9cbc d031 bbbc
000003f0: 02d9 413c 114f d0bd eccf d1bd 8060 8cbd
-0.11107869 -0.11912186 -0.040625762 -0.091676615 -0.002300071 -0.082365625 -0.059381213 -0.09497184
-0.12030316 -0.067205474 -0.050347887 -0.09133888 -0.001731585 0.07808562 -0.07777764 -0.09028148
-0.057458367 -0.022532208 -0.0042298245 -0.08141013 -0.028746156 -0.06147132 0.010167591 -0.046625245
-0.07380616 -0.017414516 -0.05010219 -0.005159057 -0.060890615 0.007968503 -0.024609054 -0.08631008
-0.10324733 -0.026923575 -0.04981221 -0.052964777 -0.10249261 -0.13875328 -0.072061665 -0.05660897
-0.058242057 -0.13726133 0.0073885173 -0.07928827 -0.05550589 -0.023308981 0.07512553 -0.14415808
-0.008420142 -0.018801603 -0.060557194 -0.05466762 -0.010681628 -0.032112025 -0.028917622 -0.05780159
-0.12369236 -0.042433802 -0.09836258 -0.10606893 -0.01699874 -0.072264776 -0.043472964 -0.1255229
-0.10934902 -0.04897529 -0.040702965 -0.020647803 -0.07218215 -0.06499012 -0.08815015 -0.18697673
-0.009110447 0.00985974 -0.03543765 -0.04260167 -0.042787343 -0.037120692 -0.08430529 -0.041937023
-0.041379288 -0.0772206 -0.016785856 -0.09916954 -0.07648948 -0.039229598 0.0071253413 -0.09500457
-0.06955403 -0.007980792 0.0020539572 -0.08983684 -0.08369822 0.0035943862 -0.014943824 -0.10644393
-0.05621836 0.001546392 -0.005533419 -0.05858091 -0.038637433 -0.13245186 -0.13317628 -0.122999996
-0.10405374 -0.17767413 -0.06817136 -0.13628441 -0.092102796 -0.053368893 -0.04787571 0.009275614
0.02487524 0.0849702 -0.010951512 0.024364715 -0.14109622 0.035011422 0.03685555 -0.047354497
-0.10919624 -0.07252942 -0.04904597 0.05423962 0.046325926 -0.1256099 0.008024179 -0.078954294
-0.10878443 -0.051634867 0.004804803 -0.075100735 -0.046927474 -0.013985559 -0.005126412 -0.0544939
-0.12383878 -0.08493403 -0.12491781 -0.08116556 -0.112219855 -0.07622597 -0.08840795 -0.046506714
-0.0712192 -0.0530637 -0.028207889 -0.041092884 -0.07840725 0.008393206 -0.09438256 -0.095248505
-0.08158149 -0.00786935 -0.02809767 -0.045193594 -0.046452053 -0.0028016567 -0.10329648 -0.020921078
-0.06990297 -0.041659176 -0.015239964 -0.103901744 0.028055796 0.018226368 0.07502582 0.104499176
-0.07341559 0.02909025 0.025919922 -0.06126421 -0.04565233 -0.04642306 -0.029644167 0.022031909
-0.008877523 -0.086223125 -0.0054120985 -0.07088721 0.01550249 -0.030556383 0.00025059702 -0.048712704
0.011131717 -0.03310106 0.0045830207 -0.05317804 -0.013449702 -0.12182638 -0.109146535 -0.030527242
0.07455194 0.070962176 0.046546638 -0.20645939 -0.17985982 -0.24695793 0.049319938 -0.038831763
0.007569647 0.06818486 0.06607074 0.06251863 -0.04244467 -0.20824514 -0.05373345 0.0029757589
-0.016264368 -0.10746586 -0.10020623 -0.020338701 0.010265844 -0.0873092 -0.06611842 0.004117512
-0.0069450396 -0.09814479 -0.030283362 -0.0021576688 -0.04109879 -0.11750594 -0.06866082 -0.010962312
-0.008982812 -0.007880789 -0.06530001 -0.030517096 -0.057822317 -0.059137505 0.086719535 -0.03396255
0.022548143 -0.009247062 -0.030395042 -0.098865874 -0.062145997 -0.1143669 0.08478656 -0.06701037
-0.33645427 -0.13441381 -0.12911205 -0.023529638 -0.037536908 -0.06958816 -0.046887543 -0.107385084
-0.029184088 -0.0071807015 -0.019103821 -0.0228509 0.011831524 -0.10171331 -0.10244736 -0.068543434

layer2.0.bias f4 [64]
00000000: 0cc2 17bd 488f 6cbd 4578 e7bc e4fc 23be
00000010: c5da 2fbe 5e8b ecbc ed21 23be b9ec 8bbd
00000020: 8d04 6d3e 0df0 8bbe e932 39be bafe e1bd
00000030: d53b 68be bb97 62bd df72 8bbd 3280 24be
00000040: e366 5abe a496 9bbc e359 9ebd ad22 9bbd
00000050: d442 2bbd 2b91 c3bd e648 e1bd b6b7 02bd
00000060: de00 e7bd 17cd ebbd e040 00be cf7c 7dbd
00000070: b83b 7dbc 6bb9 b6bd 6646 34bd 3ae7 27be
00000080: f3ef a8bd 2746 8cbd 1327 56be e77c 92bc
00000090: 715e e5bd 612b b8be 36f7 c5bd a252 72bd
000000a0: 72e6 e0ba b377 87bd 94db 71be 78ce f6bd
000000b0: edcf edbd f021 94be aa8f 2fbe fb64 a6bc
000000c0: e4ee dfbd ab15 d5bd 9016 91bd 11ea 5cbc
000000d0: 7753 09be d9d1 cabd 8e9a 3ebe cee0 d0bd
000000e0: 1989 e1bb 03e2 bfbc 9f58 e5bd cde6 dcbd
000000f0: b14b 2ebd 66ce 3bbd 637b 81bd 1a68 cebe
-0.037050292 -0.05775383 -0.028255591 -0.16014439 -0.17173298 -0.02887505 -0.1593091 -0.06832261
0.23146267 -0.27331582 -0.18085827 -0.11034913 -0.22679074 -0.055320483 -0.06809019 -0.16064528
-0.2132831 -0.01899273 -0.07731988 -0.07574973 -0.04181178 -0.09549173 -0.110002324 -0.03191348
-0.11279462 -0.11513727 -0.12524748 -0.061886605 -0.015456133 -0.089220844 -0.04401245 -0.163968
-0.08248892 -0.06849318 -0.20913343 -0.017881824 -0.11199654 -0.35970595 -0.09666292 -0.059160836
-0.0017158522 -0.06614628 -0.23618919 -0.120510995 -0.11611924 -0.28932142 -0.17144647 -0.020311823
-0.10934237 -0.104045235 -0.070843816 -0.01348354 -0.13410746 -0.099033065 -0.18613645 -0.10199128
-0.0068827984 -0.0234232 -0.11198544 -0.10786209 -0.042552654 -0.045851134 -0.06322362 -0.40313798

exp_avg f4 [10, 3136]
00000000: 0400 0080 0400 0080 0400 0080 0400 0080
00000010: 0400 0080 0400 0080 0400 0080 0400 0080
00000020: 0400 0080 0400 0080 0400 0080 0400 0080
00000030: 0400 0080 0400 0080 0400 0080 0400 0080
00000040: 0400 0080 0400 0000 0400 0080 0400 0080
00000050: 0400 0080 0400 0080 0400 0080 0400 0080
00000060: 0676 7102 0400 0000 0400 0080 0400 0080
00000070: 0400 0080 0400 0080 0400 0000 d30f 0000
00000080: 0400 0000 0400 0080 0400 0080 0400 0080
00000090: 0400 0080 0400 0000 0400 0000 0400 0080
000000a0: 0400 0080 0400 0080 0400 0080 0400 0080
000000b0: 0400 0080 0400 0080 0400 0080 0400 0080
000000c0: 0400 0080 0000 0000 0400 0000 0400 0000
000000d0: 0400 0080 0400 0000 0400 0000 0400 0000
000000e0: 0400 0000 0400 0000 0400 0080 0400 0000
000000f0: 0400 0080 0400 0000 0400 0000 0400 0000
00000100: 0400 0000 0400 0000 0400 0000 0400 0000
00000110: 0400 0080 0400 0080 0000 0000 0400 0080
00000120: 0400 0000 9234 a582 0400 0000 0400 0080
00000130: 0400 0000 0000 0000 0400 0080 0400 0080
00000140: 0400 0000 0400 0000 0400 0080 0400 0080
00000150: 0000 0000 0400 0000 0400 0000 0400 0000
00000160: 0400 0000 0400 0080 0400 0080 0000 0000
00000170: 0400 0000 0400 0000 0400 0080 0400 0000
00000180: 0400 0000 0400 0000 0400 0080 0400 0080
00000190: 0400 0080 0400 0080 0400 0080 0400 0080
000001a0: 0400 0080 0400 0080 0400 0080 0400 0080
000001b0: 0400 0000 0400 0080 0400 0000 0400 0080
000001c0: 0400 0080 0400 0080 0400 0000 0400 0000
000001d0: 0400 0000 0400 0000 0400 0080 0400 0080
000001e0: 0400 0080 0400 0080 0400 0000 0400 0000
000001f0: 0400 0000 0400 0080 0400 0080 0400 0080
00000200: 0400 0080 0400 0000 0400 0080 0400 0000
00000210: 0400 0080 0400 0080 0400 0080 0400 0080
00000220: 0400 0080 0400 0000 0400 0080 0400 0080
00000230: 0400 0080 0400 0080 0400 0080 0400 0080
00000240: 0400 0080 0400 0080 0400 0080 a30c f730
00000250: b37c e0b6 461b 1ab8 b8d1 b538 a60b 9335
00000260: ddc2 2b38 7010 f1b0 15d8 d230 7970 6637
00000270: 2583 8c39 e4a9 d337 0380 b637 02c2 74b7
00000280: 604d 8130 f35a f5b5 2732 cc36 2ea3 ad39
00000290: e3d7 f9b7 6cb3 8c37 476e 0db9 e706 73b1
000002a0: d200 9935 865e 3bb6 a240 8f38 ad27 0138
000002b0: 9dc6 1b39 6cf4 31b9 51ec d5b3 b446 0034
000002c0: 116a b638 d914 5139 329f 4237 c924 7f39
000002d0: ef98 b4b8 8e78 2cb3 f99d 5b2d ce69 bc39
000002e0: ea62 83b5 c376 e039 54c6 4c39 2e16 0b36
000002f0: 1d90 88b1 0c08 4898 45cb 2231 15ea 4334
00000300: b289 b935 9573 8134 7b0f 4831 627a 2827
00000310: 0400 0000 0400 0000 0400 0000 0400 0000
00000320: 0400 0000 0400 0080 0400 0000 0400 0000
00000330: 0400 0000 0400 0080 0400 0080 0400 0000
00000340: 0400 0000 0400 0000 0400 0000 0400 0080
00000350: 0400 0000 0400 0000 0400 0080 0400 0000
00000360: 0400 0000 0400 0000 0400 0000 0400 0000
00000370: 0400 0000 0400 0080 0400 0000 0400 0000
00000380: 0400 0000 0400 0000 0400 0080 0400 0080
00000390: 0400 0080 0400 0000 0400 0000 0400 0000
000003a0: 0400 0000 0400 0000 0400 0080 0400 0080
000003b0: 0400 0000 0400 0000 0400 0000 0400 0000
000003c0: 0400 0000 0400 0000 0400 0000 0400 0000
000003d0: 0400 0000 0400 0000 0400 0000 0400 0000
000003e0: 0400 0000 0400 0080 0400 0000 0400 0080
000003f0: 0400 0000 0400 0000 0400 0080 0400 0080
-6e-45 -6e-45 -6e-45 -6e-45 -6e-45 -6e-45 -6e-45 -6e-45
-6e-45 -6e-45 -6e-45 -6e-45 -6e-45 -6e-45 -6e-45 -6e-45
-6e-45 6e-45 -6e-45 -6e-45 -6e-45 -6e-45 -6e-45 -6e-45
1.7739755e-37 6e-45 -6e-45 -6e-45 -6e-45 -6e-45 6e-45 5.677e-42
6e-45 -6e-45 -6e-45 -6e-45 -6e-45 6e-45 6e-45 -6e-45
-6e-45 -6e-45 -6e-45 -6e-45 -6e-45 -6e-45 -6e-45 -6e-45
-6e-45 0.0 6e-45 6e-45 -6e-45 6e-45 6e-45 6e-45
6e-45 6e-45 -6e-45 6e-45 -6e-45 6e-45 6e-45 6e-45
6e-45 6e-45 6e-45 6e-45 -6e-45 -6e-45 0.0 -6e-45
6e-45 -2.4274745e-37 6e-45 -6e-45 6e-45 0.0 -6e-45 -6e-45
6e-45 6e-45 -6e-45 -6e-45 0.0 6e-45 6e-45 6e-45
6e-45 -6e-45 -6e-45 0.0 6e-45 6e-45 -6e-45 6e-45
6e-45 6e-45 -6e-45 -6e-45 -6e-45 -6e-45 -6e-45 -6e-45
-6e-45 -6e-45 -6e-45 -6e-45 6e-45 -6e-45 6e-45 -6e-45
-6e-45 -6e-45 6e-45 6e-45 6e-45 6e-45 -6e-45 -6e-45
-6e-45 -6e-45 6e-45 6e-45 6e-45 -6e-45 -6e-45 -6e-45
-6e-45 6e-45 -6e-45 6e-45 -6e-45 -6e-45 -6e-45 -6e-45
-6e-45 6e-45 -6e-45 -6e-45 -6e-45 -6e-45 -6e-45 -6e-45
-6e-45 -6e-45 -6e-45 1.7975207e-09 -6.690237e-06 -3.674186e-05 8.669816e-05 1.0955744e-06
4.0951058e-05 -1.753973e-09 1.5340925e-09 1.3735255e-05 0.0002680059 2.5232272e-05 2.17557e-05 -1.4588704e-05
9.407977e-10 -1.8280392e-06 6.0855123e-06 0.0003311871 -2.9783643e-05 1.677285e-05 -0.0001348789 -3.5365078e-09
1.1399627e-06 -2.7920191e-06 6.83081e-05 3.0792948e-05 0.00014855941 -0.0001697109 -9.961571e-08 1.194665e-07
8.698193e-05 0.0001993956 1.1600367e-05 0.00024332399 -8.611555e-05 -4.0156515e-08 1.2483786e-11 0.00035936985
-9.789048e-07 0.00042813094 0.00019528839 2.0725524e-06 -3.9745047e-09 -2.5853457e-24 2.3689648e-09 1.8245949e-07
1.3823649e-06 2.411222e-07 2.911263e-09 2.3381027e-15 6e-45 6e-45 6e-45 6e-45
6e-45 -6e-45 6e-45 6e-45 6e-45 -6e-45 -6e-45 6e-45
6e-45 6e-45 6e-45 -6e-45 6e-45 6e-45 -6e-45 6e-45
6e-45 6e-45 6e-45 6e-45 6e-45 -6e-45 6e-45 6e-45
6e-45 6e-45 -6e-45 -6e-45 -6e-45 6e-45 6e-45 6e-45
6e-45 6e-45 -6e-45 -6e-45 6e-45 6e-45 6e-45 6e-45
6e-45 6e-45 6e-45 6e-45 6e-45 6e-45 6e-45 6e-45
6e-45 -6e-45 6e-45 -6e-45 6e-45 6e-45 -6e-45 -6e-45

exp_avg_sq f4 [10, 3136]
00000000: 9217 8032 f39a 8f32 de3e a932 045e 1733
00000010: 3b17 2e33 40d2 d232 e929 5f32 91a9 8532
00000020: 77c8 ab32 7e5d dd32 3335 0733 4b2f 6033
00000030: a022 6e33 94ce e332 55c7 8132 c32b a432
00000040: 9f3c 8532 7839 b132 5532 e932 6bb7 1733
00000050: cde0 c532 4ac3 8932 7dea 7632 467c 6632
00000060: 8114 0133 af9d f832 7437 0133 67d9 c832
00000070: fe6a 5c32 2496 6832 abbd 3833 44ea 3933
00000080: dfdf b232 2a9d e232 84c7 a432 3762 5432
00000090: 91a3 f731 47bb 9b32 00d1 f332 7c9a f432
000000a0: 6465 9c32 fb80 8532 ee25 6032 e5d6 3832
000000b0: a723 4032 8f76 6c32 ab3f 8a32 1ed3 8c32
000000c0: 674f 8232 0000 0000 e9ff 082c e67c f22c
000000d0: ebee 432e 4466 ce2d 34dd bd2d dcbc e52e
000000e0: 3052 3328 9db6 912b c663 1c2c c292 ae2e
000000f0: 81e1 442c 45f5 242d 3b27 472c be81 a41e
00000100: d911 452c 1c38 7e2e 7bdc 752f 6b13 7030
00000110: 4bd6 932e b082 f52a 0000 0000 4621 ef2b
00000120: dbfc 392e f439 562f 54bc 132f 4008 ce2e
00000130: f74f 0b2c 0000 0000 a952 4f2e 2ca9 862e
00000140: 77be 5a2f 8181 782d cc02 d12b 8fdb b12d
00000150: 0000 0000 24e0 4628 4bca e02d bfc5 972e
00000160: 1dfe 0b2d 1e57 552e 67ff 1529 0000 0000
00000170: 207d 972b d01d 902c 53a6 f62b 7365 662d
00000180: a0cc c72c 3736 a62c 3682 9131 bf4a cd31
00000190: dc97 5732 31c0 0a33 d9d5 c432 3267 0b32
000001a0: aea0 9431 4085 c331 fb8f 6132 fb73 4c33
000001b0: ee1c c433 9b2a c533 c9fc 4d33 b63d 5032
000001c0: 67a1 fe31 ced8 2c33 c727 9b33 2605 ce33
000001d0: 7238 dd33 0945 4533 a38f 7f32 44d8 8032
000001e0: 6a85 8333 f402 a533 5d3c 4d33 dbfd ab33
000001f0: d379 5a33 7703 6332 8b9e b032 d1da 9f33
00000200: e147 a533 55e2 9a33 b6da d333 84c9 5e33
00000210: 57e3 1132 cce5 4a32 1639 4933 e29d b233
00000220: 9a3e dd33 03f9 b833 6dae 8632 89d0 a131
00000230: 1a64 a531 a09a 4c32 5471 4d32 59d4 3a32
00000240: d880 f231 77c9 a531 d959 9131 e4c2 8e32
00000250: f94f 1334 de5b bf35 e65c 4836 8677 ef35
00000260: 8f22 0d35 f63b 8b32 8849 2232 c838 5e35
00000270: 12d0 db36 c38e 0e37 7a3a 1e37 45b3 4a36
00000280: 9176 2b33 5d73 5933 8d1a fd36 4d5c af37
00000290: 2196 1a37 750b aa37 86cb 8c37 e06c 1334
000002a0: abca ac33 3da2 c037 a6e2 3138 4309 ed36
000002b0: 35e6 2438 2c97 0638 2b2c b734 80f7 d533
000002c0: ed89 0038 73d7 2d38 879e be36 ca97 1b38
000002d0: dd33 8537 88d0 4f34 8168 0f32 a919 ed36
000002e0: 01c3 6d37 61d1 ac36 feb2 c136 7aa8 8735
000002f0: 8e40 0f33 cdf2 5431 1bd2 7033 0185 0134
00000300: 24ec 8d34 f309 0035 b6fc d732 3a5e 0532
00000310: fe53 6f2f 0015 5f2f 0c5e e72f 529a b72f
00000320: d078 772f 516e 9b2f c73b 8730 2f36 b92d
00000330: 8b70 842e d257 1330 c10d 5730 edc1 522e
00000340: c7a0 602d 6577 f02e 1353 3f2c bec8 1f2e
00000350: 396f b32f f6fd 8f2e a343 2e30 4a7a 032e
00000360: b1fa 722e b33c 0a2e ce12 952e c73e ab2f
00000370: 0ff9 b42f ce4d 5d30 9b25 872e 8914 332e
00000380: 80d6 8c2d 8001 2d30 888a ac2f 39bf cb2e
00000390: 5535 bd2c a555 e62e c2ef ed2d 4251 402d
000003a0: 7d76 2a31 cab1 c72f 3f99 dc2e 8904 812f
000003b0: ad5f d22d 1db9 952e 8d16 532d 8115 022d
000003c0: e0e2 932d fe74 922e 9a3f bf2e 1293 802c
000003d0: 0410 f52e 7b9f 892e 0130 632e 6668 832e
000003e0: 7201 092e 76fd 9e2e f4d7 be2d 38f5 0331
000003f0: 0140 772e 4023 ba2e be10 bf2f b033 2131
1.491188e-08 1.6717854e-08 1.9702778e-08 3.5242934e-08 4.053366e-08 2.4542828e-08 1.2989838e-08 1.5560348e-08
1.9998181e-08 2.5770301e-08 3.148052e-08 5.2197077e-08 5.5445184e-08 2.6520219e-08 1.5108222e-08 1.9112013e-08
1.5510805e-08 2.0631646e-08 2.7147658e-08 3.5324245e-08 2.3036046e-08 1.6037706e-08 1.4372401e-08 1.34160185e-08
3.00538e-08 2.8942706e-08 3.0085587e-08 2.3381928e-08 1.2830013e-08 1.3538315e-08 4.301334e-08 4.3286732e-08
2.0823732e-08 2.6381333e-08 1.9182842e-08 1.2362356e-08 7.2072415e-09 1.8129539e-08 2.8383965e-08 2.847559e-08
1.8206897e-08 1.5541891e-08 1.304714e-08 1.0759071e-08 1.1183977e-08 1.3763965e-08 1.6094267e-08 1.639415e-08
1.51701e-08 0.0 1.9468821e-12 6.89192e-12 4.455007e-11 2.3464904e-11 2.1585046e-11 1.04472625e-10
9.954318e-15 1.0353555e-12 2.2224319e-12 7.938673e-11 2.7978455e-12 9.3767815e-12 2.8301378e-12 1.7417836e-20
2.8005291e-12 5.780275e-11 2.236095e-10 8.7339086e-10 6.722852e-11 4.3611425e-13 0.0 1.6991207e-12
4.228871e-11 1.9483776e-10 1.343648e-10 9.369261e-11 1.9797477e-12 0.0 4.7139768e-11 6.1236655e-11
1.9894651e-10 1.41259235e-11 1.485112e-12 2.0220074e-11 0.0 1.1039811e-14 2.5555688e-11 6.901812e-11
7.95766e-12 4.850797e-11 3.3306172e-14 0.0 1.0763924e-12 4.096036e-12 1.7525516e-12 1.3096513e-11
5.678638e-12 4.724023e-12 4.2348587e-09 5.974783e-09 1.2549176e-08 3.2305426e-08 2.291465e-08 8.114329e-09
4.325634e-09 5.6903957e-09 1.3129461e-08 4.7602935e-08 9.1322235e-08 9.181277e-08 4.796019e-08 1.2121225e-08
7.4107223e-09 4.0244053e-08 7.2249854e-08 9.593559e-08 1.0301382e-07 4.5930424e-08 1.4875613e-08 1.4999507e-08
6.124431e-08 7.6839484e-08 4.7785182e-08 8.008984e-08 5.086788e-08 1.3213927e-08 2.0561194e-08 7.443817e-08
7.696486e-08 7.2123534e-08 9.8652364e-08 5.187168e-08 8.491802e-09 1.1810197e-08 4.685088e-08 8.3174896e-08
1.03025016e-07 8.613463e-08 1.5678973e-08 4.7094244e-09 4.8135123e-09 1.19095205e-08 1.1958338e-08 1.0874907e-08
7.057775e-09 4.825036e-09 4.23027e-09 1.6619602e-08 1.3719536e-07 1.4257346e-06 2.9856396e-06 1.7841674e-06
5.257688e-07 1.6208997e-08 9.44636e-09 8.278407e-07 6.550931e-06 8.497099e-06 9.431149e-06 3.0204694e-06
3.9921876e-08 5.0629172e-08 7.5430785e-06 2.0904607e-05 9.21407e-06 2.0270914e-05 1.6784074e-05 1.373005e-07
8.046239e-08 2.2963732e-05 4.241117e-05 7.0642286e-06 3.9315044e-05 3.208888e-05 3.4118543e-07 9.9636054e-08
3.064603e-05 4.1447067e-05 5.6808963e-06 3.7096244e-05 1.5878986e-05 1.935424e-07 8.347457e-09 7.0661376e-06
1.4171704e-05 5.1503744e-06 5.7726857e-06 1.0107317e-06 3.3353494e-08 3.0988077e-09 5.6070444e-08 1.2062448e-07
2.6435112e-07 4.7698194e-07 2.5144214e-08 7.7630435e-09 2.1766763e-10 2.0289193e-10 4.208548e-10 3.3397157e-10
2.250744e-10 2.827272e-10 9.839533e-10 2.1056127e-11 6.022657e-11 5.360309e-10 7.823609e-10 4.7920713e-11
1.2768626e-11 1.0935145e-10 2.7188848e-12 3.633071e-11 3.263894e-10 6.5479996e-11 6.339695e-10 2.9894566e-11
5.5247088e-11 3.143148e-11 6.779076e-11 3.1149325e-10 3.2918776e-10 8.05099e-10 6.145769e-11 4.0718127e-11
1.6011414e-11 6.2939165e-10 3.138505e-10 9.265339e-11 5.377624e-12 1.04744026e-10 2.7050254e-11 1.0931979e-11
2.4805609e-09 3.6324216e-10 1.0031664e-10 2.3468186e-10 2.3916725e-11 6.808618e-11 1.1998969e-11 7.394419e-12
1.6812718e-11 6.660093e-11 8.696972e-11 3.654307e-12 1.1144155e-10 6.258368e-11 5.165646e-11 5.975735e-11
3.1151477e-11 7.230032e-11 2.1696402e-11 1.92024e-09 5.6218145e-11 8.4645624e-11 3.4754594e-10 2.3457964e-09

exp_avg f4 [10]
00000000: 92a0 9739 0294 81b9 deb0 31ba 54ef 92ba
00000010: affa dc39 4887 1539 d21a b838 33c2 863a
00000020: e395 ec3a 6f84 e2ba
0.000289206 -0.00024715072 -0.00067783694 -0.0011210241 0.00042148444 0.00014260144 8.7787994e-05 0.0010281265
0.0018050041 -0.00172819

exp_avg_sq f4 [10]
00000000: cb6e 6137 a0e1 a637 7e8f e137 4335 d337
00000010: 4f78 d937 9cfe e837 bac8 8f37 7cd2 e437
00000020: be3c 3738 b94a 2038
1.3436841e-05 1.9893807e-05 2.6888909e-05 2.5177962e-05 2.5924439e-05 2.7775117e-05 1.7140399e-05 2.7277732e-05
4.368717e-05 3.8216564e-05

exp_avg f4 [32, 1, 3, 3]
00000000: 198b 8f38 74ae 20b9 673d 163a 85bb a138
00000010: 10a5 1eb9 1cf2 233a cfc4 3538 bba4 eb37
00000020: 29bd d639 f9d2 e936 42b7 6938 e53e 083a
00000030: 4b50 a9b8 d4fd 5a39 05c4 0e3a 0c66 07b8
00000040: c9de b139 5001 2539 53df 53ba bc20 ac38
00000050: 3c58 8539 3179 a6ba c048 12ba 57fc b5ba
00000060: 264c 05bb d563 61bb 72f6 73bb 721e 34b8
00000070: 3f38 acb6 5be9 d1b8 8736 08b8 9f35 18b7
00000080: a604 1b37 7b59 5337 5502 6a38 ea57 3cb8
00000090: bd24 f738 4060 0e37 e643 1938 b0fd 0139
000000a0: 1016 0fb4 745d 4136 39e3 0239 f0d1 da35
000000b0: baf9 26b2 8bcd 5aba d0f8 d7ba 4388 28bb
000000c0: 8581 ccba 1348 49bb 631a a9bb ee5c 11bb
000000d0: d2c6 26bb 3887 59bb b090 b3b8 07e5 be38
000000e0: f736 9eba 9dc3 7337 2b6e 75ba 5638 46bb
000000f0: 530c c0b8 541e feba 780d a5bb 5339 6f3b
00000100: f309 443b 952a 903a a19c ae3b bc63 0a3b
00000110: 61fa 8839 fdee 943b 24e4 9236 ae41 4fba
00000120: fced 98ba 4a2d 16ba c320 2bb9 7bbb f2b8
00000130: 4bda f235 29ec 1cb7 8fbc 83b9 efe8 c037
00000140: 6ea0 a6b8 5f9f f3b7 0009 6139 f7b4 0b39
00000150: bd3b 8539 2fc7 66b6 c875 6c37 e944 3a39
00000160: dd0f c739 9d6d 5cba 6349 ea34 f13a afab
00000170: f33a ed2d 29ca 87b6 0799 012d af1f 3cb7
00000180: da58 3db8 b3d1 53b7 274f 5bb8 61dc bdbb
00000190: 8fc6 e6bb 4985 0ebc c461 f1ba 86f7 82bb
000001a0: c28c cebb fc0a f3ba e20d 97b8 b495 ceba
000001b0: 57aa 19b6 fac2 7139 9a6b d639 3420 f838
000001c0: 6a35 ce39 f6f3 d839 a009 1136 aa6a d336
000001d0: 5e88 70b8 0400 0000 0400 0000 0400 0000
000001e0: 0400 0000 0400 0000 0400 0000 0400 0000
000001f0: 0400 0000 0400 0000 681b 0d3b 0e53 8d3a
00000200: 54a2 c6b8 64bc e43a b6b0 d53a 710b 2639
00000210: 3290 0f39 7a66 5cba 19de 38ba 57bd 7cb9
00000220: ba06 de39 8d3c a73a 875e 72b8 7a1e 8439
00000230: d72f 1a3b e7d8 9ab9 8753 dd3a 32a6 003b
00000240: 685b 0b3b ae87 2f3b 03b3 023a f2dd af38
00000250: 1be8 b639 7f82 d7b6 5278 7737 a423 8a38
00000260: bd1b 4eb8 45fe 0934 6608 a735 9805 e436
00000270: cb65 1a33 0837 c7b8 2540 d5b8 d5b8 99b8
00000280: c168 f4b9 5629 22b9 6f0e bc3a aba5 613a
00000290: ebd5 96b7 0d41 c13a 3722 943a 12c2 6ab8
000002a0: e734 f03a a76e de3a 7853 f9b8 fb6f b23b
000002b0: efe0 6b3b 8fd6 9d3a 1edb ad3b a048 a33b
000002c0: bc1b 433b 0929 513b f29e 983b 8a58 ce3b
000002d0: da96 17bb 9b2a a9ba 4237 a9ba 654d 80b9
000002e0: d4aa d738 cc71 8ab7 29b1 a0ba b7f2 fdb8
000002f0: f64a 923a 4f84 9bba 712a 10ba 59cf 48bb
00000300: 997a cbba f006 02bb 6059 71bb 9662 a3ba
00000310: e982 a1bb 726f 8dbb 8312 bab9 3046 acb9
00000320: 364d eeba 7ce8 34b8 cff5 cbb8 7c98 e3ba
00000330: f5de 12b8 560f 59b8 8d51 9bba 4410 b9b7
00000340: 35bd 00b9 f81f 6b35 26bf 4a37 ba3b 12b6
00000350: 0c34 f1b5 e0c9 9436 84e5 9035 2275 4ab7
00000360: 3827 f136 b9bc c9ae b241 0400 6bc9 6b37
00000370: b30e 3936 fd0d daaf df76 1937 b741 7737
00000380: 00d1 10b1 255d 0bb8 8a83 71b7 9b00 26b6
00000390: b058 deb7 0bfd 60b6 2467 4f34 91a8 4235
000003a0: 0a45 25b7 ef45 dbb7 c834 813b 64ea eb39
000003b0: dfcc 5ebb 4488 de3a 6eb2 773a a51a aeba
000003c0: fa20 0a38 74e3 a537 57a5 8db8 8590 bbb5
000003d0: 84e5 0038 add4 9138 5adf 97b4 fb26 28af
000003e0: 0185 9738 f4fe a5ad 80d2 1133 d31d 9638
000003f0: de2a 91b8 ec00 383a 42df 453b 8ce4 9cb6
6.84468e-05 -0.00015323778 0.00057311956 7.7120065e-05 -0.00015129545 0.00062540337 4.3337055e-05 2.8090892e-05
0.00040958196 6.9685016e-06 5.57222e-05 0.00051973603 -8.073504e-05 0.00020884658 0.00054460793 -3.2281547e-05
0.0003392606 0.00015736115 -0.0008082289 8.2076964e-05 0.00025433477 -0.0012700913 -0.00055802986 -0.0013884407
-0.0020339577 -0.003439178 -0.003722575 -4.29437e-05 -5.1325474e-06 -0.000100093624 -3.247571e-05 -9.072391e-06
9.239802e-06 1.2597414e-05 5.579212e-05 -4.490457e-05 0.00011784721 8.4862695e-06 3.6541278e-05 0.00012396905
-1.3325939e-07 2.8813638e-06 0.00012482413 1.6303366e-06 -9.719253e-09 -0.00083466683 -0.001647735 -0.0025715984
-0.0015602565 -0.0030713126 -0.0051606162 -0.0022180635 -0.0025448096 -0.003319217 -8.562335e-05 9.102566e-05
-0.0012070824 1.4529473e-05 -0.00093624246 -0.0030245981 -9.157569e-05 -0.0019387701 -0.005037006 0.0036502674
0.0029913157 0.0010999019 0.00532873 0.0021116575 0.00026126488 0.004545091 4.377698e-06 -0.00079062104
-0.0011667605 -0.00057287945 -0.00016320036 -0.0001157438 1.8093937e-06 -9.35331e-06 -0.00025126754 2.2996652e-05
-7.945379e-05 -2.904207e-05 0.00021461025 0.00013323488 0.00025412245 -3.438861e-06 1.4094119e-05 0.00017764013
0.00037968057 -0.00084086676 4.3639292e-07 -1.2450857e-12 2.696996e-11 -4.046848e-06 7.36678e-12 -1.121305e-05
-4.514386e-05 -1.2625404e-05 -5.2287385e-05 -0.0057940935 -0.007042713 -0.00869877 -0.0018415977 -0.0039967922
-0.0063034007 -0.0018542702 -7.202827e-05 -0.0015761168 -2.2897927e-06 0.00023056185 0.0004089743 0.0001183156
0.00039331178 0.00041380496 2.1612286e-06 6.3007074e-06 -5.734746e-05 6e-45 6e-45 6e-45
6e-45 6e-45 6e-45 6e-45 6e-45 6e-45 0.0021531228 0.0010782199
-9.471612e-05 0.0017451164 0.0016303274 0.00015835256 0.0001369126 -0.0008407604 -0.0007052138 -0.00024103127
0.0004234815 0.0012759134 -5.778533e-05 0.0002519971 0.002352705 -0.00029534774 0.0016885855 0.001963031
0.00212642 0.0026783752 0.0004985781 8.385991e-05 0.00034886677 -6.422691e-06 1.47503615e-05 6.5869914e-05
-4.914006e-05 1.2851622e-07 1.2444914e-06 6.7955807e-06 3.59485e-08 -9.49931e-05 -0.00010168579 -7.330036e-05
-0.00046617354 -0.00015464923 0.0014347563 0.00086077553 -1.7981007e-05 0.0014744118 0.0011301701 -5.597069e-05
0.0018326313 0.0016970233 -0.000118887925 0.005445478 0.0035992225 0.0012042093 0.005305662 0.004983023
0.002977117 0.0031915328 0.0046576196 0.006297176 -0.0023130686 -0.0012906374 -0.0012910145 -0.00024471726
0.00010283818 -1.6503873e-05 -0.0012259829 -0.00012109189 0.0011161256 -0.0011864993 -0.00054994883 -0.0030641167
-0.0015524208 -0.001984056 -0.0036826953 -0.0012465294 -0.004928936 -0.004316264 -0.00035490477 -0.0003285869
-0.001818097 -4.3131862e-05 -9.72558e-05 -0.001736417 -3.5016757e-05 -5.1751114e-05 -0.0011849866 -2.2061293e-05
-0.00012277516 8.759084e-07 1.20846435e-05 -2.179046e-06 -1.7971047e-06 4.434245e-06 1.0795634e-06 -1.206741e-05
7.1869254e-06 -9.1739456e-11 3.90909e-40 1.4053988e-05 2.7575704e-06 -3.9663908e-10 9.1471875e-06 1.4737648e-05
-2.107356e-09 -3.322693e-05 -1.4395346e-05 -2.473628e-06 -2.650576e-05 -3.3525891e-06 1.93159e-07 7.251593e-07
-9.850841e-06 -2.61394e-05 0.0039430596 0.00044997327 -0.0033996624 0.0016977866 0.00094488903 -0.0013283087
3.2932476e-05 1.9775449e-05 -6.754201e-05 -1.3974646e-06 3.073133e-05 6.953753e-05 -2.828845e-07 -1.529336e-10
7.225015e-05 -1.887155e-11 3.3951892e-08 7.1581126e-05 -6.9221234e-05 0.00070191803 0.0030192886 -4.6757687e-06

exp_avg_sq f4 [32, 1, 3, 3]
00000000: 0b10 2437 42a0 8537 57d4 8638 7ff0 1237
00000010: ff75 3637 493e 6938 0170 8835 df71 8636
00000020: 7122 4338 5199 e236 b6e4 2537 e40d b837
00000030: ecf6 a737 c0c1 cc37 3ceb ea37 188b 0438
00000040: 77f5 ef37 4e75 9937 f746 6435 5657 7135
00000050: aa8e bc35 5ea0 c936 ead4 e836 d88e 5c37
00000060: f046 1938 c890 4538 f443 7538 c7bb 9634
00000070: b954 0f35 8b2f 0036 7d11 a333 e4a2 0234
00000080: a032 db34 ec5a 5b34 655a cf34 c396 0a36
00000090: 5d71 c237 58ed ab37 c95f fd37 53f7 5537
000000a0: 1921 0937 cfaa 4037 961f 2437 b36f 4036
000000b0: 9652 9636 14f6 2d38 4c36 a838 625d 8839
000000c0: 7db2 8738 0808 6d39 1659 cb39 ef82 7c39
000000d0: 4c6b cb39 e841 c139 8672 1136 e49b 7f35
000000e0: 0a01 5237 c5fc 9335 aced d236 405a bc38
000000f0: 7574 8b37 0739 c138 b0c2 9239 5d75 823a
00000100: caf7 093a c0be 3e39 b142 6d3a 7e21 8539
00000110: 641c f237 135e 443a f4f0 5239 a152 a637
00000120: cba2 2037 b9bd 2637 db4c c736 bbce ff34
00000130: a114 2733 9a79 1834 a798 3837 603d 0e36
00000140: bf64 b035 8b4a f235 9862 0537 6bff 4938
00000150: f77c 8036 48d4 aa34 bed3 6b37 3b4c bd37
00000160: cef5 ee35 8adb 8a36 8ad8 5337 c9cc 0e36
00000170: 110f 2636 810f 3537 ed35 a936 ac05 7737
00000180: 4630 fc37 bb9d 0238 ffad 4b38 613e 583a
00000190: fc48 673a 27fe 7c3a f9c9 dc39 95db ab39
000001a0: 7d9f c539 2276 f438 19be 1338 78e7 0839
000001b0: 069b 8937 18a5 d037 7617 5338 324c 4e37
000001c0: 65d2 8637 1006 fc37 3b1c 3136 2e3d ff35
000001d0: 9d12 4336 83e6 092e 4c5e d72d 71a5 c22e
000001e0: 4fe0 882d dabd 4e2d deb8 ba2f af99 732e
000001f0: c78d 112f 32e8 c32f 8450 1539 8c72 eb38
00000200: 5646 2038 3713 f838 5ce9 2639 9737 dc38
00000210: ed3d 1f38 cdf8 cd38 9f4c fa38 7acd b836
00000220: 3639 0039 3b46 0c3a 9eb8 b236 3bde 5e39
00000230: 4d8e 503a 809a 1938 adbb e939 e5ec 843a
00000240: 768d ca38 0288 3538 67fd 8b37 cd5b 8637
00000250: 6f32 df35 1447 0d35 7ec7 9436 a897 b135
00000260: f11f a635 fbfc 1636 3056 3636 cba2 6b36
00000270: f204 1336 2188 c336 b00a 2637 4af7 e136
00000280: 8111 4537 38ac 2a37 878f d338 4e8a 7c38
00000290: 7815 1c37 e097 0439 cf94 6e38 f012 a836
000002a0: 15e1 1539 817a a138 7231 3537 25ff 7a39
000002b0: 35e5 f738 f2b8 4438 3220 6c39 046e 2c39
000002c0: 675f ec38 3ba4 3f39 36c4 4739 36f3 3239
000002d0: 9288 2f37 2a1c f436 0b04 6437 4de2 9d37
000002e0: 5a1e d135 953e 4e35 49d2 2439 3d49 8938
000002f0: 95d5 0038 791d 9b39 a588 193a 5294 5a3a
00000300: 06c7 223a a674 5f3a 6bf1 293a 8072 633a
00000310: a528 2d3a 1c87 9539 951c e337 f958 8c38
00000320: 2565 1239 1db6 fd35 67ad 2d37 99f3 c338
00000330: 4fd0 ef35 4c2b 0936 f52c 4a38 ab72 b537
00000340: 776a b535 20e9 ed34 5c8e 1035 5d89 b031
00000350: 83b5 8a35 38ea 0a34 abdc 8334 d926 2737
00000360: 58f3 a536 4848 9d35 39b3 c034 21a8 eb36
00000370: d74e 8236 c26c 3736 dc1d e936 1114 ef36
00000380: 36ec 8b36 0a2b 7738 a80c 0f38 74e6 3837
00000390: 757f 4c38 939f 0038 1a5f 4837 f7a6 2d38
000003a0: 9eee 6138 938d 6238 a1f8 2939 95a0 3139
000003b0: c730 3039 ef50 9538 7019 3238 173e b937
000003c0: ee72 cc37 8c34 a536 a814 fa35 ed4f e836
000003d0: 576e 5737 8c40 c637 a340 6436 4b0f 8036
000003e0: ffc1 c237 e5c5 0336 bbcf 9936 1034 f237
000003f0: 3fd0 8536 452d 2e37 6dee 8038 c411 5535
9.778897e-06 1.5929461e-05 6.429169e-05 8.758273e-06 1.08755185e-05 5.5609537e-05 1.0165387e-06 4.0067675e-06
4.65237e-05 6.7531732e-06 9.888017e-06 2.1940978e-05 2.0022933e-05 2.4408917e-05 2.8004513e-05 3.1600794e-05
2.8605324e-05 1.8293646e-05 8.5039886e-07 8.9906587e-07 1.4048612e-06 6.008936e-06 6.9389253e-06 1.314628e-05
3.654411e-05 4.7103298e-05 5.8475838e-05 2.8076303e-07 5.339494e-07 1.910116e-06 7.59346e-08 1.2166453e-07
4.0828763e-07 2.0429042e-07 3.8622525e-07 2.0651357e-06 2.3179391e-05 2.049531e-05 3.0204554e-05 1.2753374e-05
8.1735425e-06 1.1483861e-05 9.782516e-06 2.8675247e-06 4.4799626e-06 4.1475592e-05 8.020978e-05 0.00026009517
6.470548e-05 0.00022605073 0.0003878555 0.0002408137 0.0003879912 0.00036860933 2.1673345e-06 9.5221753e-07
1.2517217e-05 1.1025919e-06 6.2861563e-06 8.981349e-05 1.662432e-05 9.213579e-05 0.00027992344 0.000995319
0.00052630587 0.00018190872 0.00090507703 0.0002539269 2.8861868e-05 0.0007490825 0.00020116923 1.982722e-05
9.574646e-06 9.938544e-06 5.9396093e-06 4.7647868e-07 3.890148e-08 1.4200342e-07 1.1002797e-05 2.1195374e-06
1.3142343e-06 1.80521e-06 7.950373e-06 4.816001e-05 3.829245e-06 3.1819422e-07 1.4056392e-05 2.2566053e-05
1.780392e-06 4.138278e-06 1.2626997e-05 2.127885e-06 2.4744697e-06 1.07920505e-05 5.0428703e-06 1.4723668e-05
3.006322e-05 3.1141313e-05 4.8561018e-05 0.0008249041 0.0008822826 0.0009650909 0.0004211215 0.00032779263
0.00037693596 0.000116568306 3.5224573e-05 0.000130562 1.6403861e-05 2.487241e-05 5.032817e-05 1.2296297e-05
1.6072017e-05 3.0043564e-05 2.6391488e-06 1.9016786e-06 2.9068099e-06 3.135493e-11 2.4484546e-11 8.851487e-11
1.5561023e-11 1.17519e-11 3.396456e-10 5.53883e-11 1.3238043e-10 3.5635278e-10 0.00014239742 0.00011227009
3.8212478e-05 0.000118291406 0.00015917927 0.00010500772 3.7966227e-05 9.8215045e-05 0.00011935201 5.507548e-06
0.00012228344 0.00053510413 5.3263057e-06 0.00021254357 0.0007955775 3.6621932e-05 0.00044581052 0.0010141401
9.65846e-05 4.328043e-05 1.668809e-05 1.6016793e-05 1.6629473e-06 5.2630025e-07 4.4339677e-06 1.3231665e-06
1.237726e-06 2.2498996e-06 2.717028e-06 3.5112487e-06 2.1907586e-06 5.8273004e-06 9.896859e-06 6.734311e-06
1.17461905e-05 1.0172887e-05 0.00010087998 6.021029e-05 9.303323e-06 0.00012645079 5.688221e-05 5.008995e-06
0.00014293597 7.6998964e-05 1.0799953e-05 0.00023936907 0.00011820571 4.6902285e-05 0.00022518708 0.00016444182
0.00011271127 0.0001827636 0.00019051213 0.00017066006 1.0462611e-05 7.2750454e-06 1.35908e-05 1.8821238e-05
1.5580547e-06 7.683205e-07 0.00015718596 6.546311e-05 3.0716492e-05 0.00029585863 0.00058568484 0.00083381415
0.00062094664 0.0008524157 0.00064828125 0.00086764246 0.0006605483 0.0002852016 2.7073818e-05 6.692293e-05
0.00013961324 1.8902971e-06 1.0351977e-05 9.343698e-05 1.7867513e-06 2.0439793e-06 4.8202422e-05 2.1630278e-05
1.3516536e-06 4.431431e-07 5.385134e-07 5.1378906e-09 1.0334628e-06 1.293746e-07 2.4561209e-07 9.963021e-06
4.945712e-06 1.1718448e-06 3.5893189e-07 7.0231185e-06 3.88348e-06 2.733243e-06 6.947417e-06 7.125091e-06
4.1700214e-06 5.8929472e-05 3.4105644e-05 1.1020911e-05 4.8756094e-05 3.0666193e-05 1.19430715e-05 4.1401912e-05
5.386641e-05 5.401445e-05 0.00016209717 0.00016939857 0.00016802839 7.119949e-05 4.2462198e-05 2.2082631e-05
2.4372213e-05 4.9235005e-06 1.8632463e-06 6.9234434e-06 1.2840689e-05 2.3633496e-05 3.401227e-06 3.8164776e-06
2.3216939e-05 1.963571e-06 4.5839383e-06 2.8872892e-05 3.987952e-06 1.0381748e-05 6.147926e-05 7.9374536e-07

exp_avg f4 [32]
00000000: a0dc 7d3a 63b3 183a c739 a8bb f474 83bb
00000010: 2954 0639 34fb f6ba bfe0 72bb 0e8e 953b
00000020: 7ec8 9bbb 92b4 62bb 6ecc 73b8 e26b 76bc
00000030: 968b 543a 0400 0000 fe05 be3a 8442 843b
00000040: f025 673a ce91 c0b9 9818 0c3b c0e3 d33b
00000050: 31f1 46bb 8ac8 57ba 2c45 b8ba 6a88 2fba
00000060: a14d 9037 d879 06b8 5c2d cfba 7084 9938
00000070: fde9 c43b c06e 4313 cec0 47ba 9c42 263b
0.000968406 0.00058250705 -0.0051338407 -0.0040117446 0.00012810588 -0.0018843175 -0.0037060229 0.0045640534
-0.004754125 -0.0034592492 -5.8126105e-05 -0.01504037 0.0008107958 6e-45 0.0014497635 0.0040362496
0.0008817604 -0.00036729727 0.0021376964 0.006466359 -0.0030356164 -0.0008231482 -0.0014058701 -0.00066960475
1.7202286e-05 -3.2061565e-05 -0.0015806365 7.320277e-05 0.006009339 2.4667064e-27 -0.00076199777 0.0025369292

exp_avg_sq f4 [32]
00000000: 246c 0939 cb73 7138 cbd3 0439 fde2 223a
00000010: 0612 8938 cbe5 033a c428 023a 55e1 cc3a
00000020: cab3 0b3a a226 233a 4bfc c938 38a3 033b
00000030: 1d7e ac38 f490 cf2f aac2 6e39 493c b83a
00000040: 9ea8 b639 dc2b e737 46e6 4339 0fa8 9d39
00000050: e4be 003a e6cb 883a b2ac 4b39 0346 b239
00000060: 24e9 6a37 0785 ad38 ee0d ac39 f85e 9f38
00000070: bf7b 4b39 e711 aa38 8fd7 af3a 9399 813a
0.00013105624 5.7566718e-05 0.000126674 0.00062136335 6.536026e-05 0.0005031495 0.0004965181 0.0015631119
0.000532922 0.0006223713 9.63142e-05 0.00200863 8.2250896e-05 3.7756076e-10 0.00022769967 0.0014056052
0.00034839375 2.755777e-05 0.00018682433 0.00030070587 0.00049112574 0.0010436743 0.00019423923 0.00034002968
1.4001769e-05 8.274061e-05 0.00032816775 7.5994e-05 0.00019405688 8.109566e-05 0.0013415682 0.0009887688
