23.04.27/Mnist/src/experiments/checkpoint/default/model_5.pt (torch, 609050 bytes, 18 tensors)

linear.weight f4 [10, 3136]
000000 72 05 92 3c aa 95 8f 3d 33 86 29 be 4a 0a 48 bd
       0.017824862 0.07010968 -0.16555099 -0.048837937
000010 24 7d fa 3e e1 72 1c 3f e4 60 aa 3e 95 35 1f be
       0.489236 0.6111279 0.33277047 -0.15547784
000020 e4 34 54 bf 92 42 7a bf 93 7a cf 3e d8 bc 48 3a
       -0.82893205 -0.9775783 0.40523204 0.00076575344
000030 e0 d2 2b bd 1b 0c 19 bf 57 c9 ce be e7 31 aa be
       -0.041949153 -0.59784096 -0.40387985 -0.33241197
000040 a2 f7 d5 be da 0d 36 3d 38 eb 37 3d 36 e4 39 bf
       -0.4179049 0.044446804 0.044902056 -0.7261385
000050 53 0a 1e 3e 6a 94 ec be f1 01 09 bf 86 9e 0d bf
       0.15433626 -0.4620698 -0.5351859 -0.5532001
000060 ac c0 0c be 04 2d 18 3f 99 e5 c9 be 4c 58 14 be
       -0.13745373 0.5944369 -0.39432982 -0.14486808
000070 f8 49 89 3e f6 39 28 3e 2d 43 67 3e 59 97 50 3e
       0.26814246 0.1642836 0.2258422 0.20370235
000080 a9 93 20 3f 3d 47 54 3e 7d b3 3a 3e 29 57 13 3c
       0.6272531 0.207303 0.18232532 0.008992949
000090 10 8e 89 3d 34 09 40 3e 5d 73 69 3d 99 e4 dd bd
       0.067165494 0.1875351 0.056994785 -0.10834617
0000a0 2e 88 e3 be a4 b1 b9 be 5e 1e 70 3d 93 10 9b be
       -0.44439834 -0.36268342 0.05862271 -0.30286083
0000b0 d3 42 88 be 9f 42 25 3d 38 9f c1 3d 4c aa 0e be
       -0.26613483 0.040346738 0.09454197 -0.1393215
0000c0 71 50 1e 3d 67 ab 01 bc 4a 91 1d bd 15 d7 89 3b
       0.038650934 -0.007914401 -0.038468637 0.004206548
0000d0 12 c2 a1 bc 31 70 ce bb cf e3 d0 3c e2 89 9f bd
       -0.01974586 -0.0062999954 0.025499253 -0.07789971
0000e0 29 71 45 3c 21 d6 11 bd 5f 30 9b 3d 7b 88 cd 3d
       0.012050905 -0.0356046 0.075775854 0.10035797
0000f0 1b e1 17 bc c8 8f 67 3d 64 1a b6 3c fd d0 2b 3d
       -0.009269978 0.056533605 0.02222938 0.041947354
000100 d6 26 22 bd 03 0a 1a bd b6 79 90 3e da 84 36 3e
       -0.039587818 -0.037607204 0.28217858 0.17824116
000110 86 79 2b 3d db c5 36 3d 4b a0 53 3d e1 eb 1f 3e
       0.04186394 0.044622283 0.05166654 0.15617324
000120 92 1f 53 bd 73 4d f2 be 98 98 0f bf 87 2e 07 3c
       -0.05154378 -0.47324714 -0.56092215 0.008250839
000130 ab c9 17 3c b4 27 a0 3a b2 cb 03 bd 16 82 a1 3e
       0.00926439 0.0012218864 -0.03217668 0.3154456
000140 fd d0 df 3e 95 40 8a 3d 7a d4 88 3c 68 13 28 3c
       0.43714133 0.06750599 0.01670288 0.010258533
000150 17 f4 7a bb 7f b8 50 3e e0 ba 89 be 45 92 9b bd
       -0.0038292462 0.2038288 -0.26900387 -0.07596258
000160 39 62 07 bd 46 a4 4c ba e8 34 6b bc c8 5d 3f 3c
       -0.033052657 -0.0007806461 -0.014355876 0.011680074
000170 a4 9a c9 bc 89 f5 87 3d 50 79 50 3d 60 3f 86 3b
       -0.024609871 0.06638629 0.050896943 0.0040969104
000180 8e 01 a5 3c 42 a6 46 bd 11 07 df 3c 94 80 bd 3d
       0.020142343 -0.0484984 0.02722505 0.0925304
000190 ad 23 4e 3d fd ef a7 3d e8 a9 ad 3d 80 c9 63 3d
       0.05032699 0.08200071 0.08479673 0.055612087
0001a0 6c 80 be 3d e7 5c 24 3d 99 fd a1 3c 98 3b cb 3c
       0.09301838 0.04012766 0.019774245 0.02480869
0001b0 63 e3 d5 3c 36 b8 b1 3c ec de 48 bd d0 2f 99 3c
       0.026109403 0.021694284 -0.04904072 0.018699557
0001c0 74 3c b9 3d 46 dc ec 3c f6 04 94 3d 0c d0 99 3d
       0.09044734 0.028913628 0.07227509 0.07510385
0001d0 28 ff c0 3d 68 e1 a2 3d 78 25 c4 bd ca 4e a3 3d
       0.09423667 0.07953149 -0.09577459 0.07974012
0001e0 47 17 18 3d a1 a0 81 3d 51 b3 9c bd 94 07 07 3d
       0.037131574 0.06329466 -0.076513894 0.03296621
0001f0 fc 6a e5 3c 7d 66 c5 bc 99 8b 7a 3d a3 29 fc 3c
       0.028005116 -0.024096722 0.061168287 0.030781573
000200 85 3e 34 bd 43 6a a9 3c 76 2a 9a 3d 9a 12 c8 3d
       -0.044004936 0.020680552 0.0752763 0.09769173
000210 e7 ec 81 bd 57 7a 53 3d 74 12 ca 3d ae 31 80 3d
       -0.06344014 0.051630344 0.09866801 0.06259476
000220 9c 35 a7 3d 75 26 97 3d 44 d2 c9 bc 3a 46 bc 3d
       0.08164522 0.07380382 -0.024636395 0.09193082
000230 b7 9d 10 3d 8f cc 70 3d 4d 7a 5c 3d 22 37 95 bd
       0.03530666 0.058788832 0.053827573 -0.072859064
000240 d2 4d 82 bd 09 b7 03 3d b2 1d a0 3c f9 04 65 3b
       -0.06362499 0.032156978 0.01954541 0.003494559
000250 12 94 5d 3c e1 9f a2 bc a9 0d b7 bc 00 39 08 bd
       0.013524072 -0.019851627 -0.02234538 -0.033257484
000260 a3 8f 9b bd 7b 25 4a bd b4 28 08 bb 96 a5 a0 bd
       -0.07595756 -0.04935215 -0.0020776214 -0.07844083
000270 f2 87 b4 bd 52 4b 56 bd b5 7e ae bd 20 85 98 bd
       -0.08814992 -0.052317925 -0.08520261 -0.074472666
000280 90 0e f4 bb 73 3a 17 bd cc 58 57 bd 73 55 8a bc
       -0.007448025 -0.036920976 -0.052574918 -0.016886448
000290 83 ba d8 bb f6 58 6d bb a0 11 5d 3c f6 90 9f bd
       -0.006614031 -0.0036216355 0.013492972 -0.07791321
0002a0 ba 72 73 3b 91 2a d0 bc 71 cb 7d bd 0f 6c 8b bd
       0.003714724 -0.025410922 -0.061961595 -0.0680772
0002b0 0b 4b f4 bc 8a 20 9a bd 92 88 81 bd 49 48 1f bd
       -0.02982094 -0.075257376 -0.06324877 -0.038887296
0002c0 0d 89 10 bd b1 7f 71 bd 5d 04 b6 bc 37 51 ba bd
       -0.03528695 -0.058959667 -0.022218877 -0.09097522
0002d0 4d e7 3d bd 2e 03 65 bb c6 8d 03 bd bc 2b 55 3c
       -0.046363164 -0.0034944522 -0.032117628 0.013010915
0002e0 6f 33 87 bd 77 9b 82 bd 8c 7a 79 bd f2 39 1d 3b
       -0.06601607 -0.06377309 -0.060907885 0.0023990837
0002f0 45 d3 26 bd e2 f0 77 bd 3f be cb bc 60 cb 0d bd
       -0.040728826 -0.060532458 -0.02487099 -0.03461778
000300 bd 41 b1 bd 0b e5 8c 3a 8c 34 dd 3b b3 7b 33 bd
       -0.08655117 0.0010749412 0.006750649 -0.04381914
000310 a7 16 0f bc 4e 2c 24 bd 94 87 1b 3c a5 e3 74 3d
       -0.008733428 -0.040081315 0.009492774 0.05978741
000320 0c e3 7b bc b3 75 8c bd 11 32 2f bc 48 6c fc bc
       -0.015373956 -0.06858387 -0.010693089 -0.030813351
000330 61 40 80 bd c0 e9 11 be 6b fb 54 be 44 c5 34 be
       -0.06262279 -0.14249325 -0.20799033 -0.17653376
000340 bd 0e 11 be 16 01 0c bd 09 48 c1 bc 0d e9 04 bd
       -0.14165778 -0.034180723 -0.02359392 -0.032448817
000350 a6 40 50 bd c4 ab c9 bd ee bd fe bc 7e a3 a2 bd
       -0.050842904 -0.09847215 -0.031096425 -0.0794134
000360 41 a9 df bd a8 94 c3 bc e7 00 94 bd ec c1 03 be
       -0.109209545 -0.023874596 -0.072267346 -0.12866944
000370 3b d5 64 bd 4a 20 74 bd c0 4e 38 be 29 c3 ec bd
       -0.055867415 -0.059601106 -0.1799879 -0.11560661
000380 50 34 87 bc 15 4c 61 bb 40 a2 b2 bd 91 de 2b bd
       -0.016504437 -0.0034377624 -0.08722353 -0.041960303
000390 fd a4 92 bd bc 58 b0 bd 20 4c a1 bc b9 73 fd ba
       -0.07160375 -0.08610675 -0.01968962 -0.0019336856
0003a0 53 86 c5 ba 21 60 00 3c 28 27 da 37 7d 14 87 bc
       -0.0015069939 0.007835419 2.6005859e-05 -0.016489262
0003b0 62 0d 7f bd 82 c6 14 bc 80 fe ec bc 4d 93 85 bc
       -0.062268622 -0.009080531 -0.028929949 -0.01630559
0003c0 3d 4a ed bc 02 3e 92 bd 01 20 39 bd c0 3a 4b 3c
       -0.028966064 -0.07140733 -0.045196537 0.012404144
0003d0 a7 41 49 bd 21 01 8a be 4c e0 52 be b8 62 b8 3c
       -0.049134877 -0.26953986 -0.20593375 0.02250801
0003e0 c8 f0 3d 3e d1 09 8e 3e 47 d8 32 bd 19 db e3 3d
       0.18548882 0.27741864 -0.04366329 0.11125774
0003f0 76 23 cb 3e fd 69 96 3d 1a c2 17 3e 79 e1 17 3e
       0.39675492 0.073444344 0.14820138 0.14832105

linear.bias f4 [10]
000000 17 40 84 3e a0 e8 3a 3f 79 23 ea 3d eb d7 01 3e
       0.25830147 0.7301121 0.11432547 0.12680022
000010 2a ed 6f be 8d 5e 73 3a 07 f8 0a bd fe f2 8a be
       -0.23430315 0.00092838035 -0.033927944 -0.27138513
000020 de 8a cc bd c3 73 8e be
       -0.09987424 -0.27822694

layer1.0.weight f4 [32, 1, 3, 3]
000000 a4 83 f3 3d 91 96 d2 be 79 0b 65 bf 94 c8 f4 be
       0.11890343 -0.41130498 -0.8947063 -0.4780928
000010 95 00 53 bf 5f f4 be 3d c8 62 b2 bf 52 9e 05 bf
       -0.82422763 0.09323954 -1.3936396 -0.521947
000020 af 33 ef 3e 4d 53 3f be e7 7e 30 3e a6 d4 9a be
       0.4671912 -0.1868412 0.1723591 -0.30240363
000030 49 89 a7 bc 74 f4 87 bd 5b 17 82 3e de 40 c5 bd
       -0.020451205 -0.066384226 0.25408444 -0.09631513
000040 a0 c9 bc be b4 af a7 bd 8a b7 3d ba 45 a2 0e 3f
       -0.36872578 -0.081878096 -0.0007237127 0.55716354
000050 94 d6 0b bf ec 25 c0 3e d7 7e 9b be e0 be ce bf
       -0.54624295 0.37528932 -0.3037021 -1.6152
000060 0f 55 8b bf b6 2e 18 bf 7a 97 a6 bd 89 3a 37 be
       -1.0885333 -0.59446275 -0.081343606 -0.17893423
000070 a5 61 cf bd ca ec d6 be 47 ea 15 be 69 52 74 be
       -0.10126046 -0.4197753 -0.14640151 -0.23859562
000080 cd ca 89 3e 67 e7 c3 be 6c b3 a4 bd 64 11 f0 be
       0.26912537 -0.38262483 -0.080420345 -0.46888268
000090 9c 60 e8 bd 63 62 9b bd f8 d3 7c be e6 bc 43 be
       -0.11346552 -0.07587125 -0.24690235 -0.19115028
0000a0 74 72 fe 3d 1b 7d 29 3e ce df 64 be 4b 93 23 be
       0.12424174 0.1655163 -0.22351 -0.15974157
0000b0 df 4a 78 be 02 47 51 bf 88 36 33 3e 94 75 65 3d
       -0.24247311 -0.81748974 0.17501271 0.056020334
0000c0 6e 7c 4a 3e d3 db a2 3e ef 63 dc be 5c 80 87 3e
       0.19774029 0.31808338 -0.43044993 0.26465118
0000d0 15 af 2c bf c0 14 65 bf 88 5b 51 be 45 e8 e8 be
       -0.67454654 -0.89484787 -0.20445073 -0.45489708
0000e0 2a b3 0a be 29 c2 3a bf 35 25 a6 3e 93 3a fe 3e
       -0.13544908 -0.72952515 0.32450262 0.49654064
0000f0 46 6c bf 3d 6a 29 a1 bd 7c d8 cf 3d 67 20 5a 3e
       0.093468234 -0.07869227 0.10148713 0.21301423
000100 5c 43 39 3e 0d ce 34 3e 1a db 77 bf d7 c2 8a be
       0.18092102 0.17656727 -0.968187 -0.27101776
000110 eb 57 08 3f 3f f4 37 bf 34 25 8c bf 0d c9 c5 be
       0.5325915 -0.71857065 -1.0948853 -0.38629952
000120 eb a3 19 bd e5 53 a1 be cd 0b 0c 3d ba 66 fa bd
       -0.03750984 -0.3150932 0.03419094 -0.12226625
000130 13 70 2d 3e e7 0e c2 3c 4b db c9 bd 2e 8e f5 be
       0.16937284 0.023688747 -0.0985628 -0.47960037
000140 f7 26 03 be 24 e3 48 be cc bb 95 3e 83 a4 bc 3e
       -0.12807833 -0.19617897 0.2924484 0.36844262
000150 48 e3 05 bf ee 1b 4c be 8a 83 9e 3e 73 80 ff be
       -0.5229993 -0.1993253 0.3095973 -0.49902686
000160 bc 49 ae 3e a9 d5 a2 3e fe 1b cd 3e f3 7b 3e bf
       0.3404063 0.31803635 0.4006042 -0.7440788
000170 b6 63 a7 be dd 4d 73 3e f9 43 34 bf 44 3b ff be
       -0.3269326 0.23760171 -0.7041622 -0.49849904
000180 db 60 26 3e 86 df b3 3e 7d 22 65 3d 73 f5 df bb
       0.16247885 0.35131472 0.055941094 -0.0068346797
000190 d9 2a 0c 3f 5a d0 a9 be 9a 4a 19 3e 0c 2e e9 3e
       0.5475288 -0.33166772 0.14969864 0.45542943
0001a0 a9 af 5f 3d 5b 84 10 bf b7 0a 0c 3e 24 98 81 3e
       0.054610882 -0.5645196 0.13675962 0.25311387
0001b0 21 75 46 3e fd 11 48 be 90 f5 8c be f3 2f 93 be
       0.19380619 -0.19538112 -0.275311 -0.2874752
0001c0 bf 3e 0e be e8 92 2a be db 9f da be ea 94 4a 3e
       -0.13891123 -0.16657603 -0.42700085 0.19783369
0001d0 f7 51 34 bd fc 74 53 bf 7f 96 9c be 35 06 b0 3e
       -0.04402348 -0.8260038 -0.3058357 0.34379736
0001e0 63 b8 32 be c9 63 26 3f 3b 51 98 3e f4 bb 05 3f
       -0.1745315 0.6499601 0.29749474 0.5223992
0001f0 c5 44 07 3e e9 d6 b2 be e8 60 1d 3f 04 41 8c be
       0.13209827 -0.34929588 0.6147599 -0.27393353
000200 69 d5 b0 bf ab ba b0 3e ad 24 4e be 32 54 7e bf
       -1.3815128 0.34517416 -0.20131178 -0.9934722
000210 63 2d df bd 88 bb 97 bf b8 63 8e bd 1b 54 1a 3f
       -0.10897329 -1.1854105 -0.069526136 0.60284585
000220 7e 3f cc be ae b6 18 bf ac ec dd 3e 70 59 8e 3c
       -0.3989219 -0.5965375 0.4334463 0.017376631
000230 cc bc 13 bf 19 09 8d 3e 52 7f 4c 3e 72 7a 8b be
       -0.57709956 0.27546003 0.19970444 -0.27241856
000240 28 cd 21 bc b4 3a 84 bf fd 8b 76 be 85 da 6e 3d
       -0.009875573 -1.0330415 -0.24076839 0.058313865
000250 62 e5 c9 bd 3a 53 10 be a9 59 1f 3f 8d 14 ea 3e
       -0.098582044 -0.14094248 0.62246186 0.45718804
000260 df 5e 49 3e 64 ff 8a bf 79 70 09 3f e0 b5 42 bf
       0.19665097 -1.0859189 0.53687245 -0.7605877
000270 70 96 c2 be 91 86 1f 3e dc b9 f4 be cb eb 41 3e
       -0.380054 0.15578677 -0.4779805 0.18937604
000280 e0 05 1d be b7 60 4e bf e8 0d 1b bf fa cb 74 be
       -0.15334272 -0.80616325 -0.60568094 -0.23905936
000290 ad c6 8d be 13 f9 74 bd 6e c5 83 be 97 8d eb be
       -0.2769064 -0.05980785 -0.25736564 -0.46006462
0002a0 b8 71 d9 3d 1e 67 2a 3c 3e 4a 39 bd 3d 5f 79 bd
       0.10617393 0.010400562 -0.04523682 -0.060881842
0002b0 1f 8c ea bd 58 ce fc 3e 8d ad 0e 3e 29 41 8c 3e
       -0.11452507 0.49376178 0.13933392 0.27393463
0002c0 55 ce f3 bd 03 3f 24 3f a5 09 ec bd 05 2c 81 bf
       -0.11904589 0.6415865 -0.11525277 -1.0091559
0002d0 4f 15 13 bf 80 97 be 3e aa 71 b7 bc 40 03 16 bf
       -0.5745439 0.3722496 -0.022393066 -0.5859871
0002e0 33 b8 48 3e 8e 7c 02 3e 24 e4 5b bf 9e c6 f6 be
       0.19601516 0.12742826 -0.8589499 -0.48198408
0002f0 c8 d9 71 3e c0 85 6f be 20 0c ea be cb 74 26 3f
       0.23618233 -0.23390865 -0.45712376 0.6502196
000300 78 9c ea be f6 b4 b2 be ad 7a 22 bf 84 d3 d8 bd
       -0.458225 -0.34903687 -0.6346844 -0.105872184
000310 5a 06 e0 be cf 07 8f be 98 07 7a 3e dc f5 8b 3e
       -0.43754846 -0.27935645 0.2441696 0.27336013
000320 2d 52 12 be 13 68 9c bd fc 4a 18 3e 1b 69 46 be
       -0.1428916 -0.07637038 0.14872354 -0.19376032
000330 c4 c3 e1 3e 15 b6 c6 3e 08 40 04 3e cb 2a 96 be
       0.4409467 0.38810793 0.12915051 -0.29329523
000340 84 0b 2f 3e 9f ee 8c be 98 f8 51 3a 60 f3 aa be
       0.17094237 -0.27525803 0.00080097606 -0.33388805
000350 01 c4 16 3e 7a 3b a4 be ff ee e3 3d 18 b3 1e be
       0.14723207 -0.32076627 0.11129569 -0.15498006
000360 28 ea fe be f5 5d 30 3d df 92 aa 3d 71 69 9d be
       -0.49788022 0.043058354 0.08328795 -0.30744508
000370 93 1e a7 be a0 4a c6 bd d6 12 6b 3e c3 6c ca 3b
       -0.32640514 -0.09682202 0.22956404 0.006177516
000380 0b 62 2a 3d 5e af 94 bf db a0 77 be a6 19 0d 3f
       0.041597407 -1.1616018 -0.24182455 0.5511726
000390 d0 82 3a be 49 e5 39 bf 34 25 83 bf 09 81 eb 3e
       -0.18213964 -0.72615486 -1.0245728 0.45996884
0003a0 97 5a 1a 3f b9 d7 92 be 6f 19 63 3e fd 80 eb be
       0.6029448 -0.28680208 0.22177671 -0.45996848
0003b0 56 12 0b bf 00 f0 0d bf f1 77 be be 3d 17 09 3f
       -0.54324853 -0.55444336 -0.37200883 0.53551084
0003c0 37 73 78 3d 42 37 9e 3d 8b f4 c6 be 88 f0 2c be
       0.060656752 0.07725383 -0.38858446 -0.1688863
0003d0 9c c2 8e bf 5f e2 29 3e 83 6f 7a bd 44 ba fb 3e
       -1.115314 0.1659026 -0.061141502 0.49165547
0003e0 0e a4 d2 3e 08 97 7f be c2 82 d4 be 92 ba 24 bf
       0.4114079 -0.24959958 -0.4150601 -0.64347184
0003f0 cd 2c 17 bf ac 18 17 bf f0 cd 11 bf 0b d6 59 bf
       -0.59052736 -0.5902202 -0.5695486 -0.8509223

layer1.0.bias f4 [32]
000000 66 d9 1e be 4d be cc be b1 f2 07 bd f8 df 0b bd
       -0.15512618 -0.39988938 -0.033190433 -0.03414914
000010 f0 d9 92 be ef 4c 5a be 99 14 42 be 22 e6 8b be
       -0.28681898 -0.2131841 -0.1895317 -0.27324015
000020 9e fb 35 be ae 2b d4 be 6a df 91 be ec 17 7c be
       -0.17771766 -0.41439575 -0.28490764 -0.246185
000030 7a 99 c5 be ee a2 d8 be 02 f6 36 bd 12 c7 04 bf
       -0.38593656 -0.42311805 -0.044668205 -0.5186626
000040 6e 5e 05 be 72 9e 6f be 5b 91 f6 bd d4 4a 32 bf
       -0.13024303 -0.23400286 -0.12039443 -0.6964543
000050 53 44 0c be fd 80 8e bb 97 75 31 bf 94 12 33 be
       -0.13697939 -0.0043488727 -0.6932005 -0.17487556
000060 d2 fb 9d be 41 eb f4 bb 63 0b 4f be 32 cf 46 be
       -0.30856186 -0.0074743335 -0.20219187 -0.19414976
000070 89 1d db bc 12 88 54 bd d5 c3 d1 be 34 8c 24 bd
       -0.026747482 -0.05188758 -0.4096972 -0.04017277

layer2.0.weight f4 [64, 32, 3, 3]
000000 2a b3 8e be 0f ba 01 3e f1 d5 05 be 96 54 e6 bd
       -0.27871066 0.12668632 -0.13069893 -0.11246602
000010 ca 92 04 be f9 72 3a 3e 2d d6 6b be 3c 48 75 3d
       -0.1294662 0.18207921 -0.2303092 0.05988334
000020 73 fd 52 3d c5 f1 53 bc 0b 52 72 3d 0d ca ea bc
       0.05151124 -0.01293606 0.059160274 -0.028660798
000030 02 9d 8b bd e2 51 aa 3b 65 b4 2b 3b 8b 94 e9 bc
       -0.06817056 0.0051977495 0.0026200053 -0.028513214
000040 9d a4 64 3d d3 de 0b 3d c3 70 cb 3c 0a 57 c6 be
       0.05582105 0.03414805 0.024834042 -0.3873828
000050 2d 6e 2a bf c5 c5 73 bd c9 52 12 3f da c8 11 be
       -0.66574365 -0.05951478 0.5715757 -0.14236775
000060 4d cd 28 bf 58 3e be 3d d3 5b 34 bf c2 98 89 bd
       -0.65938264 0.09289235 -0.7045261 -0.06718589
000070 02 3a ef bc 1e 0a c4 3d 04 19 3e bd 8a b6 a4 bb
       -0.029202465 0.09572242 -0.046410576 -0.005026643
000080 15 dd 34 bb cb e5 59 3c 15 ec 2c 3b 46 99 22 3e
       -0.0027597595 0.013299416 0.0026385833 0.15878782
000090 19 5a a2 bc 40 91 36 3d 3e b5 4e bd 51 c9 55 bd
       -0.019818353 0.044572115 -0.050465815 -0.052193943
0000a0 3e 57 ca 3d be 50 36 bd 44 75 33 bd 01 84 e1 3d
       0.098799214 -0.044510596 -0.043813005 0.11011506
0000b0 ac 0c 0c bc 3f 75 3d 3d 03 27 37 bd ad 3e ed bd
       -0.008547943 0.046254393 -0.04471494 -0.1158422
0000c0 09 46 98 be 8d 5a 76 3b af fb 24 bd 94 db d0 be
       -0.29740933 0.0037590594 -0.040279087 -0.40792525
0000d0 f0 86 3a be 9d c6 e8 bd be 40 36 bc be 33 12 be
       -0.18215537 -0.113660075 -0.011123834 -0.1427755
0000e0 2a a0 b2 bd dd ae 4c 3d 42 4b 92 3e 82 7d 83 bd
       -0.08721955 0.04997145 0.28573042 -0.06420423
0000f0 b1 6c 62 bf e4 92 5d bf 17 d4 11 bf 53 68 0d 3e
       -0.884471 -0.8655226 -0.5696425 0.13809328
000100 25 1a 17 3e a5 b6 04 3e 49 77 93 bd 78 07 bd bd
       0.14756067 0.12960298 -0.07200486 -0.0922994
000110 2e c5 b6 3c 96 62 11 be d7 03 b4 3d 3c 78 91 3e
       0.02231082 -0.14197764 0.08789795 0.28412044
000120 e5 16 1e bc 18 b6 2d be c9 4c 4b 3d 13 20 9a 3d
       -0.009649013 -0.16963995 0.049633775 0.07525649
000130 9d d4 8b 3c 8f ab 2f 3e b9 da 1e be 5f d5 02 be
       0.017069155 0.17155288 -0.15513124 -0.12776707
000140 73 08 0b be 9e 31 b5 be ad 50 bd 3e ec e1 81 bd
       -0.13577442 -0.35389417 0.36975613 -0.06341919
000150 c5 96 e8 be ab 45 d5 3c fe a2 48 bc 71 44 43 bf
       -0.45427528 0.026034197 -0.012245892 -0.7627631
000160 ea 80 69 be e4 bf 26 bf 73 58 28 3e 04 16 4e be
       -0.22803083 -0.6513655 0.1643999 -0.20125586
000170 86 65 c0 be 16 d5 c3 be 4d 9c a0 be d0 51 d0 bb
       -0.37577456 -0.3824851 -0.31369248 -0.006357409
000180 6f 1b f8 bd 8a 4a 89 bd 77 de 47 3d 89 f9 33 bd
       -0.121146075 -0.0670367 0.048796143 -0.043939147
000190 50 a1 b4 bc 6b 52 8f be 40 b3 62 be 02 43 92 3e
       -0.022049576 -0.27992567 -0.22138691 0.28566748
0001a0 dd a8 6f 3e 42 94 31 bf 09 19 b6 be 6d c8 0d bf
       0.2340426 -0.6936685 -0.35565975 -0.5538395
0001b0 a6 d7 5e bd 05 78 97 3d 91 35 0e bd 8c 27 4a bd
       -0.054404877 0.07395939 -0.034719054 -0.04935412
0001c0 e6 af c4 3c dc 8a e1 bd fe d9 1a 3d f8 80 fe bd
       0.024009656 -0.110128134 0.03780555 -0.124269426
0001d0 9b 5d 44 3d 24 81 90 3e 20 2b 58 be 89 de 4c 3e
       0.04794083 0.28223526 -0.21110201 0.20006765
0001e0 bb 9d 81 be 6f f2 cf 3e 0a 86 91 be 30 bb 40 be
       -0.2531565 0.4061465 -0.28422576 -0.18821406
0001f0 14 1b 35 bf 78 50 63 bf 77 13 6a be 68 9f 38 3e
       -0.7074444 -0.8879466 -0.22858988 0.18029559
000200 ab 2d 3e bf 36 54 0d 3e 64 a9 46 3f c8 63 17 bd
       -0.74288434 0.13801655 0.7760222 -0.036960393
000210 9c 16 ca be 12 78 0b bf a5 10 1c bf 6d 41 e2 3b
       -0.39470375 -0.5448009 -0.609629 0.006904772
000220 96 e6 b7 3e 68 39 53 be 9c 9e 09 3e 7e da 89 bd
       0.3591811 -0.20627367 0.13439411 -0.06731127
000230 36 e1 f3 be 5c 3c 07 bf 83 21 1e bf 86 18 83 bf
       -0.4763276 -0.52826476 -0.61769885 -1.0241859
000240 40 af e7 3e 6e d6 e0 3e 6c a8 0a be 2a 60 f7 3c
       0.45250893 0.43913597 -0.1354081 0.030197222
000250 d2 2a eb bb 89 6c c0 be 93 89 29 3f 51 2b a2 3d
       -0.0071767354 -0.37582806 0.66225547 0.07918418
000260 46 a7 44 bf 96 00 ea 3e 51 7a 0c be ae 9b 2d bd
       -0.7681774 0.45703572 -0.13718535 -0.042384796
000270 8e ed 43 be e1 a4 16 be cb 6d fc bd c2 e4 46 bd
       -0.19133589 -0.14711334 -0.12325629 -0.048558004
000280 d2 95 48 3d 90 00 d9 bd ce 8e 4c 3e d9 35 15 be
       0.048971005 -0.105958104 0.1997635 -0.14571323
000290 e5 ef 2e be 01 25 9d bd 44 5f cb bd 2b 3a ef bd
       -0.170837 -0.076730736 -0.0993028 -0.116810165
0002a0 55 a2 21 3e 5f 66 39 3d ef 22 a6 bb 2e ac 75 bd
       0.15784581 0.045263644 -0.0050700824 -0.059978656
0002b0 7e 44 03 bf e1 d1 cd bc 55 6e c9 be 45 26 c8 bd
       -0.51276386 -0.025124492 -0.3934199 -0.09772924
0002c0 44 f7 c8 be 47 b6 44 bf b3 5d 55 bf 8b fd aa be
       -0.3925115 -0.76840633 -0.833461 -0.33396563
0002d0 1f 3c 73 3e 85 47 b8 3e d6 1a 82 3b 7d f6 bd 3e
       0.23753403 0.35992065 0.0039704842 0.37102118
0002e0 64 0e 6d 3e e0 79 b2 3e 65 3c 61 be a1 17 76 be
       0.23150021 0.34858608 -0.21995695 -0.24032451
0002f0 f5 79 14 be c7 fc 21 3e ab 3b 4a 3e 49 38 a2 bd
       -0.14499648 0.15819083 0.19749324 -0.07920892
000300 f1 7f 35 bc 64 96 15 3e 0f 63 81 bd ce 93 3d be
       -0.011077867 0.1460815 -0.06317722 -0.18513414
000310 c6 87 9f be 4c 7a a5 3e 57 88 e5 bd 75 cf e3 bd
       -0.31158274 0.32319868 -0.112076454 -0.11123554
000320 37 ce fe bd 9c 79 05 bf 05 76 9a 3d da 5f fe bd
       -0.12441676 -0.52138686 0.07542042 -0.12420626
000330 42 7c 1c bf 89 ef 20 bf 68 ba 7d bf 26 e4 64 3b
       -0.611271 -0.628655 -0.9911256 0.0034926026
000340 b8 ff 88 3d 3d 42 05 bb 3d bf 2c bc 0f 3c 8e 3d
       0.066893995 -0.002033367 -0.010543642 0.06945049
000350 42 14 81 bc 21 73 80 3c 56 a7 06 bd 2e f2 84 3d
       -0.01575673 0.015679898 -0.032874428 0.064915046
000360 e7 7e 99 3e 52 52 a7 bd ec 19 9c bd a9 0b 8b bd
       0.2997963 -0.08169998 -0.07622132 -0.067893334
000370 9b 0b 8b bd 36 ca 38 bd 6d 12 3f be f1 b3 d1 3c
       -0.06789323 -0.04511472 -0.18659373 0.025598498
000380 4c 9a 42 be 56 ca f8 3e ed e7 76 be 9e 20 4d bf
       -0.19004172 0.4859187 -0.2411191 -0.80127895
000390 4d 5a ae bd 49 07 88 bc 75 19 4d bd 0b 13 e1 3e
       -0.08513317 -0.016605036 -0.050073106 0.4395984
0003a0 ce c6 62 3e 88 0e c8 3e b1 ce 0f 3c 77 18 df 3c
       0.2214615 0.39073586 0.008777306 0.027233345
0003b0 f8 48 dd 3c 34 16 8f be 6d c7 0e 3e 58 ca 59 be
       0.027012333 -0.27946627 0.13943262 -0.21268594
0003c0 a4 21 8a 3d 53 09 30 be 4d 9f 80 be 45 81 f3 3e
       0.06744698 -0.17191057 -0.25121537 0.47559562
0003d0 69 51 8f 3c e1 3b b6 3e cf f3 cf be de d7 0e 3f
       0.017494874 0.3559256 -0.406157 0.5579814
0003e0 d1 7b 12 3f 3c ce 93 bf 41 95 80 bf 96 3b 1c be
       0.5722018 -1.1547313 -1.0045549 -0.15257105
0003f0 3d a2 2a bf e1 4c 81 3e a6 23 2f 3e c4 ff 5c be
       -0.66653806 0.25253966 0.17103443 -0.21581942

layer2.0.bias f4 [64]
000000 69 04 0c be 84 10 fd bd 37 2f 49 be 19 5d 67 bd
       -0.13673557 -0.12356666 -0.19646917 -0.05648527
000010 6a 89 1e be 42 ad 40 bc c8 77 db bc f8 9a 9d bc
       -0.15482107 -0.011760058 -0.026790515 -0.019238934
000020 54 78 96 be f7 4e b0 bd bf 1b 62 bd 40 a7 91 bd
       -0.29388678 -0.08608811 -0.055202242 -0.071119785
000030 47 66 aa bd 83 a6 a5 bd 80 b0 d2 bc c5 24 86 be
       -0.08320289 -0.080884 -0.025718927 -0.26199928
000040 4c 5c c9 be 14 1c 9a bd e3 98 4c be 11 8f 12 bc
       -0.3932823 -0.07524887 -0.19980197 -0.0089452425
000050 c1 aa bd be 9c 9c 03 bd 6a 35 a3 bd 07 1d e7 bd
       -0.37044337 -0.032131776 -0.07969172 -0.112848334
000060 46 fd 8c be 04 7e 1f bd ef 33 dd bd bf 95 4d bd
       -0.27536982 -0.038938537 -0.10800921 -0.050191637
000070 09 f9 c5 bd f2 f6 c9 bc aa b2 d7 be 27 8c b6 be
       -0.0966664 -0.024653886 -0.42128497 -0.35653803
000080 48 fd 31 bd 2a 6c 81 bd bf 46 a5 bd 4f 3e 44 bd
       -0.04345444 -0.06319459 -0.08070134 -0.047910985
000090 c6 10 6f be ee 52 0e be 66 4d 15 bd 5b b4 da be
       -0.23346242 -0.13898823 -0.036450766 -0.42715725
0000a0 c9 09 34 bd 1e a9 01 bd f5 ef 66 bd ac 6a 12 bd
       -0.043954644 -0.031655423 -0.056381185 -0.03574626
0000b0 7e e6 04 bd 17 37 f3 be c5 e1 22 be fa 54 97 bd
       -0.032446377 -0.47502968 -0.15906437 -0.07389255
0000c0 97 22 23 be 1d f2 f8 bc 5b d6 b2 bd 36 1b 49 bd
       -0.15931164 -0.030388886 -0.08732291 -0.049098216
0000d0 72 ca 32 bd 4a 41 0a bc 90 88 8d be bd 9d 0a bd
       -0.0436501 -0.008438418 -0.2764325 -0.033841837
0000e0 2b eb 26 bd 58 8b 14 be da e3 a2 be 5d 51 94 bc
       -0.040751617 -0.1450628 -0.31814462 -0.018105203
0000f0 0f 76 cb bd 8f 19 dd bc 7c 52 9d bd 48 85 c1 bd
       -0.09934627 -0.026989726 -0.07681748 -0.094492495

exp_avg f4 [10, 3136]
000000 8b 6d a5 b1 98 82 99 32 08 a0 d0 36 c8 61 ec 39
       -4.8145856e-09 1.7870931e-08 6.217513e-06 0.0004508628
000010 f4 f3 c9 39 24 ce 81 39 b4 bd 3b b6 c7 84 da 38
       0.00038519467 0.00024758384 -2.7975593e-06 0.00010419782
000020 73 92 38 3a 5d f7 2f 38 09 12 73 3a 18 d6 37 39
       0.00070408656 4.1953626e-05 0.0009272402 0.00017531996
000030 2b aa 14 3a b4 0d 4b 39 c3 69 39 37 9c 76 09 38
       0.0005671109 0.00019364693 1.1051484e-05 3.277381e-05
000040 1c cc 23 39 5c 20 bc 39 ef e7 02 39 10 4d 5f 39
       0.00015620928 0.00035882264 0.00012484168 0.00021295645
000050 6e 9a 2a b6 ab 8c 47 38 5f d1 61 38 3a b4 9e 37
       -2.5421864e-06 4.7576304e-05 5.3839172e-05 1.8918992e-05
000060 dd 48 c9 39 58 bd 02 b6 5d 6a ee 37 b6 6b 4e 39
       0.00038391995 -1.9481722e-06 2.842134e-05 0.00019685816
000070 28 3e 1e 3a 7b 4d 20 3a 23 6a cf 37 78 81 e9 37
       0.00060364837 0.0006115061 2.4725747e-05 2.7836053e-05
000080 f2 6c 0e 36 1e bd 1a 39 96 1a b3 39 c8 24 74 37
       2.1223063e-06 0.00014757036 0.0003416135 1.4552097e-05
000090 76 89 b4 3a 8f 98 be 3a 9b 2b b1 3a 5c 75 81 3a
       0.0013773877 0.0014541316 0.0013517024 0.0009876895
0000a0 0d c8 d1 39 97 55 24 38 30 cd 51 35 6c 6d 31 38
       0.00040012636 3.918036e-05 7.8157154e-07 4.2301996e-05
0000b0 58 bb 83 38 0a e2 a0 38 86 4c 58 37 94 b7 b3 b7
       6.281462e-05 7.6714976e-05 1.289242e-05 -2.1423948e-05
0000c0 cc 7e 17 b7 04 00 00 00 04 00 00 00 04 00 00 80
       -9.029824e-06 6e-45 6e-45 -6e-45
0000d0 04 00 00 80 04 00 00 80 04 00 00 00 04 00 00 00
       -6e-45 -6e-45 6e-45 6e-45
0000e0 04 00 00 00 04 00 00 00 04 00 00 80 04 00 00 80
       6e-45 6e-45 -6e-45 -6e-45
0000f0 04 00 00 80 04 00 00 80 04 00 00 00 04 00 00 00
       -6e-45 -6e-45 6e-45 6e-45
000100 04 00 00 00 de 00 00 00 1a 7b 91 89 04 00 00 80
       6e-45 3.11e-43 -3.5023244e-33 -6e-45
000110 04 00 00 00 04 00 00 00 04 00 00 80 04 00 00 80
       6e-45 6e-45 -6e-45 -6e-45
000120 04 00 00 00 ee 6c 2f 04 0e 00 00 00 04 00 00 80
       6e-45 2.062117e-36 2e-44 -6e-45
000130 04 00 00 80 04 00 00 00 04 00 00 80 0f 00 00 80
       -6e-45 6e-45 -6e-45 -2.1e-44
000140 04 00 00 80 a1 38 01 00 04 00 00 80 04 00 00 80
       -6e-45 1.1215e-40 -6e-45 -6e-45
000150 04 00 00 00 04 00 00 80 02 1f 24 00 fb f2 3a 88
       6e-45 -6e-45 3.317201e-39 -5.625796e-34
000160 04 00 00 00 04 00 00 80 04 00 00 00 04 00 00 80
       6e-45 -6e-45 6e-45 -6e-45
000170 04 00 00 00 04 00 00 00 04 00 00 00 04 00 00 00
       6e-45 6e-45 6e-45 6e-45
000180 04 00 00 00 04 00 00 00 04 00 00 80 04 00 00 80
       6e-45 6e-45 -6e-45 -6e-45
000190 04 00 00 80 04 00 00 00 04 00 00 80 04 00 00 00
       -6e-45 6e-45 -6e-45 6e-45
0001a0 04 00 00 80 04 00 00 80 04 00 00 80 04 00 00 00
       -6e-45 -6e-45 -6e-45 6e-45
0001b0 04 00 00 00 04 00 00 00 04 00 00 00 04 00 00 80
       6e-45 6e-45 6e-45 -6e-45
0001c0 04 00 00 80 04 00 00 80 04 00 00 00 04 00 00 00
       -6e-45 -6e-45 6e-45 6e-45
0001d0 04 00 00 80 04 00 00 80 04 00 00 00 04 00 00 80
       -6e-45 -6e-45 6e-45 -6e-45
0001e0 04 00 00 80 04 00 00 80 04 00 00 00 04 00 00 80
       -6e-45 -6e-45 6e-45 -6e-45
0001f0 04 00 00 80 04 00 00 00 04 00 00 80 04 00 00 80
       -6e-45 6e-45 -6e-45 -6e-45
000200 04 00 00 00 04 00 00 80 04 00 00 80 04 00 00 80
       6e-45 -6e-45 -6e-45 -6e-45
000210 04 00 00 00 04 00 00 80 04 00 00 00 04 00 00 80
       6e-45 -6e-45 6e-45 -6e-45
000220 04 00 00 00 04 00 00 00 04 00 00 00 04 00 00 80
       6e-45 6e-45 6e-45 -6e-45
000230 04 00 00 80 04 00 00 80 04 00 00 00 04 00 00 00
       -6e-45 -6e-45 6e-45 6e-45
000240 04 00 00 00 04 00 00 80 04 00 00 80 04 00 00 80
       6e-45 -6e-45 -6e-45 -6e-45
000250 04 00 00 00 04 00 00 80 04 00 00 80 04 00 00 00
       6e-45 -6e-45 -6e-45 6e-45
000260 04 00 00 00 04 00 00 00 04 00 00 80 04 00 00 00
       6e-45 6e-45 -6e-45 6e-45
000270 04 00 00 00 04 00 00 00 04 00 00 00 04 00 00 00
       6e-45 6e-45 6e-45 6e-45
000280 04 00 00 00 04 00 00 00 04 00 00 00 04 00 00 00
       6e-45 6e-45 6e-45 6e-45
000290 04 00 00 00 04 00 00 00 04 00 00 00 04 00 00 00
       6e-45 6e-45 6e-45 6e-45
0002a0 04 00 00 00 04 00 00 00 04 00 00 00 04 00 00 00
       6e-45 6e-45 6e-45 6e-45
0002b0 04 00 00 00 04 00 00 00 04 00 00 00 04 00 00 00
       6e-45 6e-45 6e-45 6e-45
0002c0 04 00 00 00 04 00 00 00 04 00 00 80 04 00 00 00
       6e-45 6e-45 -6e-45 6e-45
0002d0 04 00 00 00 04 00 00 00 04 00 00 00 04 00 00 00
       6e-45 6e-45 6e-45 6e-45
0002e0 04 00 00 00 04 00 00 00 04 00 00 00 04 00 00 00
       6e-45 6e-45 6e-45 6e-45
0002f0 04 00 00 00 04 00 00 80 04 00 00 00 04 00 00 00
       6e-45 -6e-45 6e-45 6e-45
000300 04 00 00 00 04 00 00 00 04 00 00 00 04 00 00 00
       6e-45 6e-45 6e-45 6e-45
000310 04 00 00 80 b8 5b 5d 15 d8 81 96 22 97 e0 d7 a2
       -6e-45 4.4702948e-26 4.079506e-18 -5.851366e-18
000320 80 1a 34 19 a5 99 23 19 04 00 00 00 04 00 00 00
       9.3111335e-24 8.457931e-24 6e-45 6e-45
000330 6d 30 07 1c a1 d6 3a 27 c6 90 83 31 ba 95 57 20
       4.473034e-22 2.5929036e-15 3.8290606e-09 1.8260749e-19
000340 c5 5e 25 a2 04 00 00 80 04 00 00 00 c6 05 43 19
       -2.241184e-18 -6e-45 6e-45 1.008243e-23
000350 74 74 8d 13 a5 07 88 18 b3 93 0d 1d 04 00 00 00
       3.5708236e-27 3.5162895e-24 1.8737553e-21 6e-45
000360 04 00 00 00 04 00 00 00 69 39 bf 18 e5 4f 51 18
       6e-45 6e-45 4.9430312e-24 2.7052953e-24
000370 45 bb 44 9f bf 21 07 05 4a 51 5c 12 04 00 00 00
       -4.165952e-20 6.353868e-36 6.9519956e-28 6e-45
000380 04 00 00 00 86 7d ff 1a 41 b0 00 14 50 d4 10 9d
       6e-45 1.0566832e-22 6.4971085e-27 -1.9168004e-21
000390 ed 59 07 99 04 00 00 00 04 00 00 00 04 00 00 80
       -6.997497e-24 6e-45 6e-45 -6e-45
0003a0 04 00 00 80 04 00 00 80 04 00 00 00 04 00 00 00
       -6e-45 -6e-45 6e-45 6e-45
0003b0 04 00 00 00 04 00 00 00 04 00 00 00 04 00 00 00
       6e-45 6e-45 6e-45 6e-45
0003c0 04 00 00 00 04 00 00 00 04 00 00 00 04 00 00 00
       6e-45 6e-45 6e-45 6e-45
0003d0 04 00 00 00 5f 11 05 34 89 0d 03 3a ec e4 fd 3a
       6e-45 1.239291e-07 0.00049992703 0.0019370592
0003e0 c1 37 45 3b 89 60 8d 3a 6d 22 66 38 4a d7 b7 b5
       0.0030093046 0.0010786216 5.4868335e-05 -1.369722e-06
0003f0 3e 60 e9 39 54 86 87 3a 59 6e ee 39 5e c4 14 39
       0.0004451293 0.0010339716 0.00045477113 0.00014187532

exp_avg_sq f4 [10, 3136]
000000 0e 02 d0 33 cb e7 ce 33 16 c3 10 34 6b c2 c4 34
       9.6861285e-08 9.6347854e-08 1.3482017e-07 3.6649303e-07
000010 2f a1 bb 35 28 1d ab 35 5d 10 c3 34 8e 67 34 34
       1.3979496e-06 1.2748978e-06 3.6333486e-07 1.680148e-07
000020 4c cc ed 34 d0 67 89 35 de 7e 2f 36 3d f4 76 36
       4.4293336e-07 1.0237509e-06 2.6150879e-06 3.6799022e-06
000030 b9 4c 79 36 5f bb c5 35 46 17 d5 34 26 12 1e 36
       3.714855e-06 1.4732176e-06 3.9691275e-07 2.3554398e-06
000040 95 e3 4a 36 a3 a5 03 37 9b 56 bf 36 8c 99 25 36
       3.0232816e-06 7.846774e-06 5.702326e-06 2.4676292e-06
000050 22 de f6 35 bf 71 0c 36 f9 7d 88 36 50 d5 17 36
       1.8393077e-06 2.0927835e-06 4.067781e-06 2.2624918e-06
000060 17 31 97 36 5c 60 73 36 4b 52 4b 35 19 79 40 35
       4.5058655e-06 3.626591e-06 7.5743145e-07 7.1701794e-07
000070 b1 d9 fc 36 e2 e8 84 37 8a b8 be 36 77 93 73 36
       7.535528e-06 1.584407e-05 5.6839244e-06 3.6295658e-06
000080 28 46 5f 36 d9 4e 2e 36 22 37 a6 35 95 80 ee 36
       3.3270426e-06 2.5973916e-06 1.238401e-06 7.1079216e-06
000090 2d 33 ff 37 bd ff 17 38 43 08 14 38 19 92 89 37
       3.04222e-05 3.623938e-05 3.5293644e-05 1.6399705e-05
0000a0 f5 43 98 36 6b 26 a6 35 0b 5b 97 34 66 15 31 36
       4.5378642e-06 1.2379145e-06 2.8192184e-07 2.638751e-06
0000b0 af 9b d7 36 2d 72 0d 37 02 ad 8e 36 12 a9 a1 35
       6.4256233e-06 8.4308385e-06 4.2520705e-06 1.2044641e-06
0000c0 11 2a 81 34 39 4e 51 31 94 fd 9d 31 63 ec 00 32
       2.405873e-07 3.0457967e-09 4.59813e-09 7.504329e-09
0000d0 95 b0 46 32 72 12 0f 32 e6 e4 ae 31 08 64 e9 31
       1.1565267e-08 8.3278895e-09 5.0900892e-09 6.7925647e-09
0000e0 6d 3b 10 30 6c 79 a4 31 5a 20 18 32 5a c4 04 32
       5.2471344e-10 4.7868323e-09 8.85492e-09 7.728056e-09
0000f0 0b b2 41 32 76 fc 1e 32 76 17 65 31 e2 80 aa 30
       1.1274561e-08 9.254213e-09 3.3337222e-09 1.2405759e-09
000100 f4 ca a7 31 8b 9e 90 31 8d 61 58 32 85 7a 18 32
       4.883413e-09 4.208976e-09 1.2595035e-08 8.875422e-09
000110 66 24 0a 32 a4 90 23 32 2e 54 de 30 fe c7 96 31
       8.040933e-09 9.520736e-09 1.6176551e-09 4.388311e-09
000120 13 0f 11 32 13 c8 4f 32 61 6a 12 32 8f 8b 1c 32
       8.443538e-09 1.2094477e-08 8.522506e-09 9.112127e-09
000130 f3 a5 22 32 0c da 7e 30 49 31 3d 32 99 d2 02 33
       9.4673736e-09 9.2714525e-10 1.1012454e-08 3.045952e-08
000140 e3 36 ce 31 2f 48 0b 31 73 f5 84 32 d4 34 e8 31
       6.001629e-09 2.0268194e-09 1.547844e-08 6.7580945e-09
000150 52 62 81 2f 8d a8 04 32 d4 4f 02 33 55 8b fc 32
       2.3534824e-10 7.721735e-09 3.0340587e-08 2.9400022e-08
000160 37 97 96 32 e9 ff fb 31 05 d6 31 31 1b 3a 28 2f
       1.7531063e-08 7.334155e-09 2.5878546e-09 1.5300154e-10
000170 74 a5 0c 2f f1 7c ba 2f b1 7f 0c 30 3d 40 a2 30
       1.2791707e-10 3.392198e-10 5.1113164e-10 1.1805309e-09
000180 fc d7 e0 2f 35 bc c6 30 77 e4 9d 2d 68 6c 60 2d
       4.089883e-10 1.4459888e-09 1.7950292e-11 1.2756997e-11
000190 a4 91 9a 2e cd 95 0c 30 95 50 87 2e 4b 53 b7 2e
       7.02898e-11 5.1144583e-10 6.1534035e-11 8.336672e-11
0001a0 90 bf b9 2d d8 be 5f 2d 79 6d f7 2e 3d b0 f8 2f
       2.1117136e-11 1.2718458e-11 1.1251706e-10 4.5236162e-10
0001b0 91 a2 11 31 31 77 4b 30 1d a1 96 2a 39 a9 73 2e
       2.1192685e-09 7.402035e-10 2.6757147e-13 5.5402103e-11
0001c0 18 7a 7d 2e d0 ab cc 30 fc a7 0d 31 cc 4d e8 2f
       5.763398e-11 1.4891786e-09 2.0613689e-09 4.2255832e-10
0001d0 67 ed 9e 2d 69 7a 4b 31 df dc 9e 2d 66 57 a2 2f
       1.8067948e-11 2.960997e-09 1.8060607e-11 2.952973e-10
0001e0 3d ab 25 31 4a 71 de 2f 31 08 3a 31 c5 b0 0c 31
       2.4107998e-09 4.0462061e-10 2.7071219e-09 2.0473163e-09
0001f0 f7 82 4c 31 d3 69 88 2e 92 f1 03 30 da c1 96 31
       2.9760352e-09 6.203362e-11 4.8000814e-10 4.387613e-09
000200 5a 33 c9 2b 23 3a 8d 2f c6 48 fe 31 cd 31 22 31
       1.4296162e-12 2.568906e-10 7.4006463e-09 2.3602411e-09
000210 96 26 10 2e ab ad 74 2f dd 5e 05 31 0d 46 ba 2f
       3.277608e-11 2.225337e-10 1.940797e-09 3.3882977e-10
000220 2d 46 b5 2f 55 04 bd 30 54 7a 39 2c 2a 43 94 2d
       3.297357e-10 1.3752791e-09 2.6357987e-12 1.6855479e-11
000230 ab 62 6b 2e cc 36 20 2f 0b 0f b2 2c 48 15 ea 2e
       5.352045e-11 1.4571383e-10 5.0607344e-12 1.0644868e-10
000240 56 53 15 2c 1b 75 5f 2e 7f 36 14 2e 96 4e 66 34
       2.1220434e-12 5.080834e-11 3.3699706e-11 2.1449009e-07
000250 a7 1c 84 34 8e 62 a6 34 6a ce cd 34 7f 34 a6 34
       2.4607763e-07 3.0991617e-07 3.8334412e-07 3.0958105e-07
000260 7a 71 7d 34 53 67 67 34 f3 6b 79 34 c1 19 d7 34
       2.3603744e-07 2.155114e-07 2.3229204e-07 4.006561e-07
000270 0e df 1f 35 23 57 43 35 20 5d 11 35 a8 a8 9c 34
       5.9556703e-07 7.276996e-07 5.4152224e-07 2.9179978e-07
000280 ac 52 73 34 b1 07 7c 34 d2 dc fc 34 76 36 3c 35
       2.2661214e-07 2.3472127e-07 4.7099326e-07 7.011471e-07
000290 60 ad 59 35 e4 b3 0d 35 9e fa 9c 34 af 66 6e 34
       8.1091093e-07 5.278837e-07 2.9239612e-07 2.2202833e-07
0002a0 bb 83 75 34 4f 0e ef 34 ab 9d 3b 35 cd a7 7f 35
       2.2865326e-07 4.452763e-07 6.9892366e-07 9.5239085e-07
0002b0 77 fc 29 35 ba 52 88 34 8f 94 57 34 6d 98 76 34
       6.332479e-07 2.5392166e-07 2.007748e-07 2.2965988e-07
0002c0 14 58 dd 34 cf a7 27 35 b3 20 5a 35 50 04 0c 35
       4.1228543e-07 6.245654e-07 8.125891e-07 5.216034e-07
0002d0 2d dc 9f 34 a1 47 63 34 48 ed 73 34 72 ee ca 34
       2.9776257e-07 2.1167081e-07 2.2717461e-07 3.7798924e-07
0002e0 1b 9f 2c 35 e5 61 2f 35 83 55 d4 34 30 eb 9f 34
       6.430652e-07 6.5335036e-07 3.9550295e-07 2.978718e-07
0002f0 5f ed 6d 34 b2 90 65 34 73 14 8a 34 f0 1b b6 34
       2.21587e-07 2.1379927e-07 2.5719382e-07 3.392047e-07
000300 b3 be bd 34 69 9d 89 34 4a 20 79 34 53 68 67 34
       3.5342745e-07 2.563277e-07 2.3201679e-07 2.1551504e-07
000310 8a fe 0a 34 c1 27 0f 34 e1 08 15 34 92 35 22 34
       1.2944852e-07 1.3332375e-07 1.3879936e-07 1.5106914e-07
000320 62 71 07 34 f9 1c 0d 34 e4 3a 08 34 44 86 11 34
       1.2614103e-07 1.3142188e-07 1.2687411e-07 1.3553023e-07
000330 f5 3d 52 34 4b 7e 76 34 44 eb 94 34 b2 9a 55 34
       1.9580314e-07 2.295648e-07 2.7738326e-07 1.9893449e-07
000340 28 e4 2c 34 84 29 12 34 19 fe 10 34 88 5f 72 34
       1.6101751e-07 1.3612413e-07 1.3503485e-07 2.257276e-07
000350 52 8a 94 34 ea 2d 8b 34 df e0 1f 34 5d e3 2e 34
       2.766779e-07 2.5924174e-07 1.4889837e-07 1.6287727e-07
000360 63 c1 21 34 8f 6d 0c 34 34 1e 7e 34 c6 31 bf 34
       1.5064647e-07 1.3078373e-07 2.3666581e-07 3.5612737e-07
000370 72 84 b7 34 a2 36 5c 34 e8 36 21 34 f2 22 0d 34
       3.4182773e-07 2.0508972e-07 1.5014268e-07 1.3144361e-07
000380 ce 82 0b 34 69 15 4d 34 66 e2 a5 34 86 0f ad 34
       1.299297e-07 1.9099902e-07 3.0898372e-07 3.2235056e-07
000390 93 8b 65 34 2a be 20 34 68 3d 08 34 03 37 0c 34
       2.1378064e-07 1.4970342e-07 1.2688326e-07 1.3058529e-07
0003a0 e8 9c 59 34 df d0 c2 34 70 62 b1 34 ee c4 6c 34
       2.0266782e-07 3.628729e-07 3.3040442e-07 2.2050855e-07
0003b0 96 a6 46 34 0f 5e 12 34 67 f1 0b 34 3c a9 1d 34
       1.850079e-07 1.3631528e-07 1.3033205e-07 1.4683332e-07
0003c0 74 48 68 34 39 7e 8a 34 08 1f 3d 34 c6 d1 1b 34
       2.1633042e-07 2.5796342e-07 1.7613286e-07 1.4511815e-07
0003d0 f3 ba 10 34 2c 48 fa 33 79 fc 7c 36 bb e6 e4 37
       1.3479057e-07 1.165466e-07 3.7697885e-06 2.728716e-05
0003e0 7b 91 61 38 8b 3a 19 38 23 ad fe 36 da 60 ea 34
       5.377967e-05 3.6532565e-05 7.5899457e-06 4.3656365e-07
0003f0 e7 50 17 35 83 53 66 37 20 b0 26 38 38 84 27 38
       5.636961e-07 1.3728512e-05 3.9741513e-05 3.993904e-05

exp_avg f4 [10]
000000 53 90 a0 3a 50 ad 70 b9 c9 3e cd 3a fe 2b b4 ba
       0.0012250043 -0.00022952748 0.001565897 -0.0013746021
000010 b3 66 87 ba ec 80 90 ba d8 37 2c ba eb da 6d 38
       -0.0010330289 -0.001102475 -0.00065696007 5.6709086e-05
000020 6a a7 8c 3a d1 80 f9 39
       0.0010731046 0.00047588957

exp_avg_sq f4 [10]
000000 f7 61 aa 37 1e ea d6 37 11 fd 0d 38 b5 6b 0a 38
       2.0311198e-05 2.5619807e-05 3.3852706e-05 3.3002074e-05
000010 2d 68 0a 38 5c b6 0f 38 0d fd b2 37 17 35 17 38
       3.2998785e-05 3.4263692e-05 2.133709e-05 3.605065e-05
000020 3a e4 89 38 1b 84 46 38
       6.5751796e-05 4.732991e-05

exp_avg f4 [32, 1, 3, 3]
000000 1e 50 c4 37 d0 af da 36 28 57 fa 39 f7 50 58 b6
       2.3402328e-05 6.5173735e-06 0.00047748652 -3.2233636e-06
000010 a3 a8 53 b7 00 e3 68 3a b8 99 54 37 1b d5 96 b9
       -1.2615844e-05 0.00088839233 1.2671975e-05 -0.00028769005
000020 27 3a 24 39 04 00 00 00 04 00 00 00 04 00 00 00
       0.00015661922 6e-45 6e-45 6e-45
000030 04 00 00 00 04 00 00 00 04 00 00 00 04 00 00 00
       6e-45 6e-45 6e-45 6e-45
000040 04 00 00 00 04 00 00 00 73 ac 00 ba f9 7c 9f ba
       6e-45 6e-45 -0.00049085094 -0.0012167982
000050 a1 ad 33 ba 40 4d 95 3a 88 88 e5 b9 68 0d de 37
       -0.0006854181 0.001139082 -0.00043780007 2.6470705e-05
000060 ef 7f 71 39 3a 3f e3 38 65 b5 4a 38 55 76 60 32
       0.0002303121 0.0001083598 4.832949e-05 1.3065422e-08
000070 3c c5 61 b2 d1 d2 f9 b6 31 f6 8e 34 d7 4f 7e 37
       -1.314157e-08 -7.4453205e-06 2.662869e-07 1.5158169e-05
000080 2e 1b 06 b8 81 ea 5b b4 2e 0d 17 b3 66 79 e2 b6
       -3.1973403e-05 -2.0481276e-07 -3.5169414e-08 -6.7494575e-06
000090 00 00 00 00 04 00 00 80 04 00 00 00 04 00 00 00
       0.0 -6e-45 6e-45 6e-45
0000a0 04 00 00 00 04 00 00 00 00 00 00 00 04 00 00 00
       6e-45 6e-45 0.0 6e-45
0000b0 04 00 00 00 27 98 06 3a 3b fd ad 3a df 87 86 3a
       6e-45 0.0005134367 0.0013274321 0.0010263881
0000c0 41 d1 73 3a d7 85 87 3a e3 f3 b9 39 34 1a 19 3a
       0.00093008956 0.001033957 0.0003546766 0.00058403914
0000d0 a7 8e 0f 39 6e ec 07 b7 f5 e8 3c 39 e6 ff fc 38
       0.00013690685 -8.101675e-06 0.0001801586 0.00012063961
0000e0 28 fe 33 3a 1a 72 c5 b5 f2 af 01 bb 04 69 8d ba
       0.00068661803 -1.4710852e-06 -0.001978871 -0.0010788743
0000f0 fc 9d ff ba 00 2e 17 bb 85 5b 03 bb eb 8f 84 3a
       -0.0019502039 -0.002306819 -0.0020043564 0.0010113692
000100 40 82 ef 39 9e 95 16 bb 2e f0 78 39 23 c6 98 38
       0.00045682676 -0.0022977362 0.00023740597 7.284831e-05
000110 ec d9 35 bb ee a6 e1 36 a3 6d b0 b8 ed 94 fc ba
       -0.00277483 6.7249557e-06 -8.4127554e-05 -0.0019270458
000120 44 22 91 27 2b a8 0e b0 53 69 13 b2 13 cc 15 a1
       4.0282736e-15 -5.189828e-10 -8.580474e-09 -5.0753254e-19
000130 3b f5 1a b2 92 c7 2c b2 04 00 00 00 04 00 00 80
       -9.019739e-09 -1.0057095e-08 6e-45 -6e-45
000140 04 00 00 80 37 e9 51 bb ee d7 d3 bb c9 f8 96 bb
       -6e-45 -0.0032029876 -0.00646495 -0.004607294
000150 e8 05 0b bb 0d ac a8 bb cb 4c 39 3b 19 0e 78 b9
       -0.0021213237 -0.005147463 0.0028274532 -0.00023656375
000160 9f c4 24 bb 4c 5c a2 3b d4 0d 7d ba 44 05 af b9
       -0.002514161 0.0049548503 -0.00096532446 -0.00033382524
000170 8f 55 4b 38 f6 db a3 b8 24 c5 d0 38 ae be c1 36
       4.8478654e-05 -7.8134166e-05 9.954933e-05 5.7740463e-06
000180 4e 7e 13 ba 77 56 c9 ba bc 77 6f ba 83 2b 77 3a
       -0.0005626426 -0.0015360852 -0.0009134968 0.0009428786
000190 b6 ca 1b ba 11 24 6c ba 29 5f 51 3a e5 97 98 ba
       -0.0005942987 -0.000900806 0.0007986897 -0.0011641948
0001a0 3a 88 5d ba 1d 05 d8 ba 51 6d 19 bb 86 a9 bf 38
       -0.00084507803 -0.0016481016 -0.0023411105 9.139166e-05
0001b0 04 00 00 00 04 00 00 00 04 00 00 00 04 00 00 00
       6e-45 6e-45 6e-45 6e-45
0001c0 04 00 00 00 04 00 00 80 04 00 00 00 04 00 00 00
       6e-45 -6e-45 6e-45 6e-45
0001d0 04 00 00 00 ee 27 77 3a 4c d1 df 3a 47 c2 12 3b
       6e-45 0.0009428252 0.0017075925 0.002239363
0001e0 ad af 45 3b 53 88 0a 3b a3 c9 77 3b 91 7c 6a 3b
       0.0030164525 0.0021138384 0.0037809394 0.0035779814
0001f0 fd 9b bd 3a 17 71 71 3b ee 2f f2 bb e8 ca 85 bb
       0.0014466044 0.0036841088 -0.0073909676 -0.004083026
000200 ec bf 09 b9 aa 44 45 bb e5 57 61 bb ed 11 99 b9
       -0.00013136835 -0.0030100741 -0.0034384665 -0.0002919579
000210 08 63 26 ba 0e e2 9b 39 92 76 0f 39 f3 61 40 3b
       -0.0006347154 0.00029732328 0.00013681714 0.0029355257
000220 53 11 32 3b 6f 9b 7a b9 8c a2 7a 3b 1a ed 4e 3b
       0.002717097 -0.00023899761 0.0038243858 0.003157443
000230 ad 70 b3 39 55 7c 57 3b 7f 66 69 3b d6 2f 34 b6
       0.0003422549 0.0032880504 0.003561407 -2.6849934e-06
000240 bf 07 c7 3b 4d 14 7d 3a 78 20 a3 ba 1a 85 cb 3b
       0.0060739215 0.0009654209 -0.001244559 0.0062109353
000250 f6 14 5d 3b 8f 78 c5 ba 22 01 8b 3b 7c 0a 7b b9
       0.0033734418 -0.0015065836 0.0042420784 -0.00023941131
000260 7d 38 32 3b 32 1c 0f 37 4b 01 56 39 50 f8 58 38
       0.0027194314 8.530029e-06 0.00020409112 5.1729672e-05
000270 48 6f a2 38 06 c4 da 38 e5 ca 0b 34 d8 a6 31 39
       7.74549e-05 0.00010431562 1.3019196e-07 0.0001694219
000280 3e 63 a3 b4 9a 9e 42 b6 0b 00 00 00 04 00 00 80
       -3.0433324e-07 -2.900057e-06 1.5e-44 -6e-45
000290 28 00 00 80 22 16 00 00 7d 03 00 80 59 00 00 00
       -5.6e-44 7.94e-42 -1.251e-42 1.25e-43
0002a0 81 23 0e 00 b6 84 06 00 86 89 00 00 1d 88 2f 3b
       1.298433e-39 5.9862e-40 4.9334e-41 0.002678401
0002b0 70 f8 e8 39 6d 2e ca ba e8 cf f8 3b 2e de 72 3b
       0.0004443559 -0.0015425213 0.0075931437 0.00370587
0002c0 bf 83 a3 b8 ce 99 2b 3c 36 b9 da 3b d0 64 30 3a
       -7.796985e-05 0.010473682 0.006674911 0.00067288894
0002d0 51 e4 bc b9 10 f6 1a bb fe 28 24 bb d9 6a ad b9
       -0.00036028263 -0.00236452 -0.0025048847 -0.0003307674
0002e0 cb e3 a2 ba cb 8c fb ba f5 9c 0b b8 ed 1d ed 39
       -0.0012427507 -0.001919174 -3.328636e-05 0.0004522646
0002f0 56 78 2d 3b c4 d1 9f b9 fd 21 9f 39 a9 9d 90 ba
       0.002646943 -0.0003048313 0.00030352167 -0.0011033315
000300 66 c0 41 b8 72 8b 3b 38 7a 8b b5 b9 89 5d 3b b8
       -4.619397e-05 4.4714143e-05 -0.00034626928 -4.4671386e-05
000310 98 04 d3 36 e3 b2 c1 b9 06 7f 06 bc 67 5d 16 bc
       6.288825e-06 -0.0003694511 -0.008208996 -0.009177542
000320 a1 9f 1a bc 87 a9 47 bc 3c f8 1d bc df 5b dd bb
       -0.009437473 -0.012186415 -0.009641703 -0.0067553367
000330 f4 82 39 bc de aa 03 bc ea 33 99 bb 04 00 00 00
       -0.011322726 -0.008036343 -0.004675378 6e-45
000340 a0 be e0 89 04 00 00 00 04 00 00 00 04 00 00 00
       -5.41053e-33 6e-45 6e-45 6e-45
000350 a9 06 16 8a 00 00 00 00 04 00 00 80 4b 9d 16 89
       -7.22349e-33 0.0 -6e-45 -1.8129552e-33
000360 d0 52 fe 31 52 be 82 33 ff c5 6f 34 7a 47 f3 9e
       7.4017876e-09 6.088216e-08 2.233064e-07 -2.5758188e-20
000370 2f 56 cf 2d a7 25 49 33 8d 54 77 34 ac 15 75 34
       2.3571449e-11 4.6833204e-08 2.3034427e-07 2.2825287e-07
000380 d7 3f 79 34 2b 7d 99 b9 ae 30 17 3a ec ad f3 b9
       2.3213157e-07 -0.00029275691 0.0005767447 -0.00046478154
000390 bc 93 fb ba 33 ac 65 b8 f0 c4 0d ba 8a 2e a4 bb
       -0.0019193809 -5.4758228e-05 -0.0005408069 -0.0050104307
0003a0 63 3a 46 bb f1 27 19 bb 39 33 84 b7 70 29 92 36
       -0.0030247204 -0.0023369754 -1.5759479e-05 4.355963e-06
0003b0 80 65 85 36 3c 17 43 37 47 a4 ed 38 58 9b 60 3a
       3.975525e-06 1.1628315e-05 0.0001133164 0.000856807
0003c0 7a b5 93 39 b5 a1 36 3a 44 4f 28 3a 1f 3e ca b9
       0.00028173235 0.0006966845 0.0006420503 -0.00038574726
0003d0 d2 ca 25 b9 c0 31 bd 39 8f 70 f2 b9 9a 8f 04 ba
       -0.00015811183 0.00036085956 -0.000462417 -0.00050567987
0003e0 97 21 d4 38 ea c3 43 b9 9b fc ac b7 63 bb 6e 39
       0.00010115204 -0.00018669633 -2.0621626e-05 0.00022767256
0003f0 f9 6c 9d 37 98 a6 73 39 3b 08 ca 3a 92 6d 84 38
       1.8766603e-05 0.00023236347 0.001541383 6.3146595e-05
