23.04.27/Mnist/src/experiments/checkpoint/default/model_10.pt (torch, 609525 bytes, 18 tensors)

linear.weight f4 [10, 3136]
0.2940062 0.19966108 0.22395986 0.05414337 0.86869717 0.56643987 0.31250796 -0.3367829
-1.6365589 -1.450396 0.6149565 0.21657984 -0.3780721 -1.0061165 -0.79273796 -1.1492434
-0.9442333 0.33169118 -0.3634471 -1.1642331 0.14046764 -0.5574125 -0.804857 -1.0154846
0.115517996 0.77414894 -0.5424028 -0.38043994 0.42713135 -0.13459902 0.3147286 0.2546949
0.91376203 0.011882809 0.5765101 -0.071161546 0.040314957 0.43283984 0.07250955 -0.23429254
-0.57552356 -0.61544096 0.13948554 -0.70601004 -0.3781814 0.04276636 -0.4500854 -0.8142658
0.28600162 -0.007914401 -0.038468637 0.004206548 -0.01974586 -0.0062999954 0.025499253 -0.07789971
0.012050905 -0.0356046 0.075775854 0.10035797 -0.009269978 0.056533605 0.02222938 0.041947354
-0.039587818 -0.037607204 0.28217858 0.17824116 0.04186394 0.044622283 0.05166654 0.15617324
-0.05154378 -0.47324714 -0.56092215 0.008250839 0.00926439 0.0012218864 -0.03217668 0.3154456
0.43714133 0.06750599 0.01670288 0.010258533 -0.0038292462 0.2038288 -0.26900387 -0.07596258
-0.033052657 -0.0007806461 -0.014355876 0.011680074 -0.024609871 0.06638629 0.050896943 0.0040969104
0.020142343 -0.0484984 0.02722505 0.0925304 0.05032699 0.08200071 0.08479673 0.055612087
0.09301838 0.04012766 0.019774245 0.02480869 0.026109403 0.021694284 -0.04904072 0.018699557
0.09044734 0.028913628 0.07227509 0.07510385 0.09423667 0.07953149 -0.09577459 0.07974012
0.037131574 0.06329466 -0.076513894 0.03296621 0.028005116 -0.024096722 0.061168287 0.030781573
-0.044004936 0.020680552 0.0752763 0.09769173 -0.06344014 0.051630344 0.09866801 0.06259476
0.08164522 0.07380382 -0.024636395 0.09193082 0.03530666 0.058788832 0.053827573 -0.072859064
-0.06362499 0.032156978 0.01954541 0.003494559 0.013524072 -0.019851627 -0.02234538 -0.033257484
-0.07595756 -0.04935215 -0.0020776214 -0.07844083 -0.08814992 -0.052317925 -0.08520261 -0.074472666
-0.007448025 -0.036920976 -0.052574918 -0.016886448 -0.006614031 -0.0036216355 0.013492972 -0.07791321
0.003714724 -0.025410922 -0.061961595 -0.0680772 -0.02982094 -0.075257376 -0.06324877 -0.038887296
-0.03528695 -0.058959667 -0.022218877 -0.09097522 -0.046363164 -0.0034944522 -0.032117628 0.013010915
-0.06601607 -0.06377309 -0.060907885 0.0023990837 -0.040728826 -0.060532458 -0.02487099 -0.03461778
-0.08655117 0.0010749412 0.006750649 -0.04381914 -0.008733428 -0.040081587 0.008637003 0.059221234
-0.016558962 -0.06891865 -0.010693089 -0.030813351 -0.06261065 -0.14248998 -0.20803508 -0.18074001
-0.14166018 -0.034180723 -0.02359392 -0.032448817 -0.050842904 -0.09847215 -0.031096425 -0.0794134
-0.109209545 -0.023874596 -0.072267346 -0.12866944 -0.055852592 -0.059595242 -0.17999925 -0.11560661
-0.016504537 -0.003438525 -0.08722395 -0.041958164 -0.07160375 -0.08610675 -0.01968962 -0.0019336856
-0.0015069939 0.007835419 2.6005859e-05 -0.016489262 -0.062268622 -0.009080531 -0.028929949 -0.01630559
-0.028966064 -0.07140733 -0.045196537 0.012404144 -0.049134877 0.0258533 -0.1981071 0.11941559
0.2746728 0.31689173 -0.21048294 -0.17164522 0.28521198 0.22114068 0.16907066 0.29105094
00000000: fb87 963e f473 4c3e bc55 653e 70c5 5d3d
00000010: f062 5e3f 3402 113f 0b01 a03e cf6e acbe
00000020: c37a d1bf 93a6 b9bf ca6d 1d3f 1bc7 5d3e
00000030: ab92 c1be 6dc8 80bf e0f0 4abf 681a 93bf
00000040: 46b9 71bf 6dd3 a93e bd15 babe 9705 95bf
00000050: c0d6 0f3e 96b2 0ebf 1c0b 4ebf 66fb 81bf
00000060: b394 ec3d a02e 463f e9da 0abf 06c9 c2be
00000070: f6b0 da3e 53d4 09be 1b24 a13e 5f67 823e
00000080: 4fec 693f 1db0 423c 2a96 133f 25bd 91bd
00000090: 4c21 253d 2f9d dd3e e37f 943d 62ea 6fbe
000000a0: 8355 13bf 8a8d 1dbf 4cd5 0e3e 13bd 34bf
000000b0: fea0 c1be c72b 2f3d 9871 e6be b973 50bf
000000c0: ce6e 923e 67ab 01bc 4a91 1dbd 15d7 893b
000000d0: 12c2 a1bc 3170 cebb cfe3 d03c e289 9fbd
000000e0: 2971 453c 21d6 11bd 5f30 9b3d 7b88 cd3d
000000f0: 1be1 17bc c88f 673d 641a b63c fdd0 2b3d
00000100: d626 22bd 030a 1abd b679 903e da84 363e
00000110: 8679 2b3d dbc5 363d 4ba0 533d e1eb 1f3e
00000120: 921f 53bd 734d f2be 9898 0fbf 872e 073c
00000130: abc9 173c b427 a03a b2cb 03bd 1682 a13e
00000140: fdd0 df3e 9540 8a3d 7ad4 883c 6813 283c
00000150: 17f4 7abb 7fb8 503e e0ba 89be 4592 9bbd
00000160: 3962 07bd 46a4 4cba e834 6bbc c85d 3f3c
00000170: a49a c9bc 89f5 873d 5079 503d 603f 863b
00000180: 8e01 a53c 42a6 46bd 1107 df3c 9480 bd3d
00000190: ad23 4e3d fdef a73d e8a9 ad3d 80c9 633d
000001a0: 6c80 be3d e75c 243d 99fd a13c 983b cb3c
000001b0: 63e3 d53c 36b8 b13c ecde 48bd d02f 993c
000001c0: 743c b93d 46dc ec3c f604 943d 0cd0 993d
000001d0: 28ff c03d 68e1 a23d 7825 c4bd ca4e a33d
000001e0: 4717 183d a1a0 813d 51b3 9cbd 9407 073d
000001f0: fc6a e53c 7d66 c5bc 998b 7a3d a329 fc3c
00000200: 853e 34bd 436a a93c 762a 9a3d 9a12 c83d
00000210: e7ec 81bd 577a 533d 7412 ca3d ae31 803d
00000220: 9c35 a73d 7526 973d 44d2 c9bc 3a46 bc3d
00000230: b79d 103d 8fcc 703d 4d7a 5c3d 2237 95bd
00000240: d24d 82bd 09b7 033d b21d a03c f904 653b
00000250: 1294 5d3c e19f a2bc a90d b7bc 0039 08bd
00000260: a38f 9bbd 7b25 4abd b428 08bb 96a5 a0bd
00000270: f287 b4bd 524b 56bd b57e aebd 2085 98bd
00000280: 900e f4bb 733a 17bd cc58 57bd 7355 8abc
00000290: 83ba d8bb f658 6dbb a011 5d3c f690 9fbd
000002a0: ba72 733b 912a d0bc 71cb 7dbd 0f6c 8bbd
000002b0: 0b4b f4bc 8a20 9abd 9288 81bd 4948 1fbd
000002c0: 0d89 10bd b17f 71bd 5d04 b6bc 3751 babd
000002d0: 4de7 3dbd 2e03 65bb c68d 03bd bc2b 553c
000002e0: 6f33 87bd 779b 82bd 8c7a 79bd f239 1d3b
000002f0: 45d3 26bd e2f0 77bd 3fbe cbbc 60cb 0dbd
00000300: bd41 b1bd 0be5 8c3a 8c34 dd3b b37b 33bd
00000310: a716 0fbc 972c 24bd 3782 0d3c f791 723d
00000320: a9a6 87bc 3925 8dbd 1132 2fbc 486c fcbc
00000330: 033a 80bd e5e8 11be 2607 55be e913 39be
00000340: 5e0f 11be 1601 0cbd 0948 c1bc 0de9 04bd
00000350: a640 50bd c4ab c9bd eebd febc 7ea3 a2bd
00000360: 41a9 dfbd a894 c3bc e700 94bd ecc1 03be
00000370: b0c5 64bd 241a 74bd b951 38be 29c3 ecbd
00000380: 8634 87bc e058 61bb 78a2 b2bd 53dc 2bbd
00000390: fda4 92bd bc58 b0bd 204c a1bc b973 fdba
000003a0: 5386 c5ba 2160 003c 2827 da37 7d14 87bc
000003b0: 620d 7fbd 82c6 14bc 80fe ecbc 4d93 85bc
000003c0: 3d4a edbc 023e 92bd 0120 39bd c03a 4b3c
000003d0: a741 49bd 4dca d33c 96dc 4abe 2990 f43d
000003e0: eaa1 8c3e a23f a23e d788 57be c4c3 2fbe
000003f0: 4e07 923e b472 623e dc20 2d3e a104 953e

linear.bias f4 [10]
0.5574628 1.2241914 0.21120729 0.13813879 -0.49913114 -0.077249646 -0.04277091 -0.40165064
-0.1532825 -0.4412595
00000000: e2b5 0e3f 4eb2 9c3f b946 583e 4174 0d3e
00000010: 1e8e ffbe 1035 9ebd 8d30 2fbd 27a5 cdbe
00000020: 16f6 1cbe c4ec e1be

layer1.0.weight f4 [32, 1, 3, 3]
0.6173714 -0.46835697 -1.3379095 -0.44887677 -0.8157207 -0.12546298 -1.9571973 -0.65981096
0.3971414 -0.1868412 0.1723591 -0.30240363 -0.020451205 -0.066384226 0.25408444 -0.09631513
-0.36872578 -0.081878096 0.021270443 0.7819952 -0.5928392 0.29670003 -0.045576155 -2.4880345
-0.8863747 -1.2074934 0.006688302 -0.27066663 -0.19747466 -0.6445156 -0.22857311 -0.1964391
0.28796303 -0.89859027 -0.48681748 -1.0054904 -0.11346552 -0.07587125 -0.24690235 -0.19115028
0.12424174 0.1655163 -0.22351 -0.15974157 -0.24247311 -1.1097537 -0.03360335 -0.17791922
0.0865064 0.24430244 -0.6348728 0.17183664 -0.72705555 -0.9315798 -0.32590592 -0.56666434
-0.4020356 -1.0891589 0.2904414 0.2884281 -0.04984711 -0.1037656 -0.21462016 0.22113939
0.17518602 0.26008528 -1.0111475 -0.2211015 0.65034163 0.41171587 -1.222971 -0.33749107
-0.037510373 -0.3150465 0.02963894 -0.12533508 0.15852313 0.01340355 -0.0985628 -0.47960037
-0.12807833 0.03301427 0.44357666 0.3226422 -0.549392 -0.17825302 0.24169596 -0.3824219
0.4112719 0.44607946 0.4631938 -0.7447681 0.285906 0.20689377 -1.1943638 -0.758329
0.06834944 0.3684062 -0.17268148 -0.16888085 0.3287518 -1.2782594 -0.04483177 0.72201926
0.08789453 -0.91152567 -0.2561309 0.19955832 0.19380619 -0.19538112 -0.275311 -0.2874752
-0.13891123 -0.16657603 -0.42700085 0.19783369 -0.04402348 -0.9251776 -0.6454188 0.16521981
-0.31839925 0.67903894 0.43724313 0.4826793 0.2128078 -0.46928585 0.56208384 -0.2969699
-1.2267394 0.17729339 0.006755818 -2.1467323 -0.17840345 -1.1054369 -0.29596445 0.66765463
-0.32807496 -0.80275244 0.3852581 0.018197633 -0.5949278 0.47774827 0.22625345 -0.61934483
0.24542779 -1.0691923 -0.1619377 0.03878425 -0.3175255 -0.23656477 0.5705852 0.4883916
0.18949088 -1.5264443 1.0622032 -0.7387533 -0.40049678 0.5109511 -0.4776846 0.09017798
-0.111951396 -0.6462935 -0.60568094 -0.23905936 -0.2769064 -0.05980785 -0.25736564 -0.46006462
0.10617393 0.010400562 -0.04523682 -0.17004 0.033724863 0.6325325 0.17350142 0.38488293
-0.019381506 0.6594171 -0.15172924 -0.67519367 -0.8737628 0.6531724 -0.014832735 -1.2518709
0.36382186 0.11898882 -0.5705149 -0.5609659 0.22657585 -0.55800515 -1.0213046 0.74714464
-1.0956961 -0.5319373 -0.31257167 -0.42659906 -1.1129128 -0.9817852 0.36173916 0.18652377
-0.3531273 -0.35109308 -0.10528489 -0.34136057 0.3364217 0.35814473 0.18391395 -0.29329523
0.17094167 -0.27525803 0.00080097606 -0.33388805 0.14723077 -0.32076627 0.11129569 -0.15498719
-0.49788052 0.02309266 0.0635614 -0.30744508 -0.32640514 -0.09796669 0.19817384 -0.016681034
0.018455815 -1.4042193 0.21765098 0.44534612 -0.5056612 -1.1866456 -1.4986904 0.30884993
0.62885517 -0.6312198 -0.11367292 -1.1121198 -0.5018636 -0.5883296 -0.69494426 0.9524795
-0.063326165 -0.20510744 -0.9575024 -0.27313846 -1.2493373 0.039803155 -0.046697106 0.53241587
0.52572036 -0.16338621 -0.4196935 -0.9855834 -0.873335 -0.6260137 -1.1225873 -1.3443816
00000000: 0d0c 1e3f 7ccc efbe 9e40 abbf 2dd3 e5be
00000010: 12d3 50bf 5e79 00be 7185 fabf 5fe9 28bf
00000020: 1e56 cb3e 4d53 3fbe e77e 303e a6d4 9abe
00000030: 4989 a7bc 74f4 87bd 5b17 823e de40 c5bd
00000040: a0c9 bcbe b4af a7bd 5a3f ae3c d630 483f
00000050: 4fc4 17bf 11e9 973e 10ae 3abd f53b 1fc0
00000060: 74e9 62bf 258f 9abf 8b29 db3b d194 8abe
00000070: cc36 4abe f9fe 24bf 120f 6abe 5527 49be
00000080: e46f 933e 030a 66bf 2440 f9be e9b3 80bf
00000090: 9c60 e8bd 6362 9bbd f8d3 7cbe e6bc 43be
000000a0: 7472 fe3d 1b7d 293e cedf 64be 4b93 23be
000000b0: df4a 78be 690c 8ebf aba3 09bd 7530 36be
000000c0: 442a b13d 6b2a 7a3e 0687 22bf f2f5 2f3e
000000d0: 5020 3abf 047c 6ebf 24dd a6be ea10 11bf
000000e0: 9cd7 cdbe 8f69 8bbf bcb4 943e d9ac 933e
000000f0: 7c2c 4cbd 0f83 d4bd 63c5 5bbe 5d72 623e
00000100: f763 333e e629 853e 486d 81bf 6e68 62be
00000110: ca7c 263f 6ccc d23e 508a 9cbf a1cb acbe
00000120: 7aa4 19bd c64d a1be 5dcd f23c d757 00be
00000130: e353 223e 909a 5b3c 4bdb c9bd 2e8e f5be
00000140: f726 03be f939 073d 7b1c e33e 5c31 a53e
00000150: f4a4 0cbf f687 36be 257f 773e cecc c3be
00000160: 3b92 d23e 8764 e43e bd27 ed3e 1fa9 3ebf
00000170: 4562 923e f6db 533e eae0 98bf d921 42bf
00000180: cbfa 8b3d bd9f bc3e 6ad3 30be 1aef 2cbe
00000190: 2852 a83e 019e a3bf 85a1 37bd 41d6 383f
000001a0: 0c02 b43d bf59 69bf 9723 83be 0459 4c3e
000001b0: 2175 463e fd11 48be 90f5 8cbe f32f 93be
000001c0: bf3e 0ebe e892 2abe db9f dabe ea94 4a3e
000001d0: f751 34bd 70d8 6cbf 2b3a 25bf 622f 293e
000001e0: 3a05 a3be 7fd5 2d3f 55de df3e be21 f73e
000001f0: 4aea 593e 3c46 f0be bae4 0f3f 700c 98be
00000200: cc05 9dbf 668c 353e e95f dd3b 1064 09c0
00000210: 65af 36be f57e 8dbf a788 97be 6aeb 2a3f
00000220: 71f9 a7be 2f81 4dbf 8d40 c53e 3413 953c
00000230: 304d 18bf 6c9b f43e fcae 673e 628d 1ebf
00000240: 6c51 7b3e 4bdb 88bf ffd2 25be 3cdc 1e3d
00000250: b492 a2be 093e 72be df11 123f 770e fa3e
00000260: e609 423e 8762 c3bf 46f6 873f f01e 3dbf
00000270: ea0d cdbe b1cd 023f 1393 f4be 3caf b83d
00000280: c646 e5bd 7e73 25bf e80d 1bbf facb 74be
00000290: adc6 8dbe 13f9 74bd 6ec5 83be 978d ebbe
000002a0: b871 d93d 1e67 2a3c 3e4a 39bd f71e 2ebe
000002b0: 1523 0a3d a6ed 213f 5baa 313e 600f c53e
000002c0: f7c5 9ebc 8fcf 283f e95e 1bbe 7ed9 2cbf
000002d0: ebae 5fbf 4e36 273f 0005 73bc 4e3d a0bf
000002e0: dc46 ba3e 69b0 f33d 440d 12bf 769b 0fbf
000002f0: 8003 683e 6dd9 0ebf 1cba 82bf df44 3f3f
00000300: c53f 8cbf 0b2d 08bf 6509 a0be 316b dabe
00000310: ed73 8ebf 4656 7bbf e035 b93e 1600 3f3e
00000320: 1acd b4be 79c2 b3be 9b9f d7bd d0c6 aebe
00000330: 773f ac3e bf5e b73e f053 3c3e cb2a 96be
00000340: 550b 2f3e 9fee 8cbe 98f8 513a 60f3 aabe
00000350: aac3 163e 7a3b a4be ffee e33d f6b4 1ebe
00000360: 32ea febe d12c bd3c 7b2c 823d 7169 9dbe
00000370: 931e a7be c3a2 c8bd 15ee 4a3e aaa6 88bc
00000380: a630 973c 75bd b3bf e6df 5e3e 6804 e43e
00000390: 0373 01bf 01e4 97bf 16d5 bfbf 9421 9e3e
000003a0: a7fc 203f 9f97 21bf 59cd e8bd f159 8ebf
000003b0: 227a 00bf c59c 16bf dee7 31bf b2d5 733f
000003c0: 26b1 81bd af07 52be e11e 75bf ced8 8bbe
000003d0: 49ea 9fbf a208 233d 7745 3fbd 684c 083f
000003e0: 9c95 063f b74e 27be 11e2 d6be 324f 7cbf
000003f0: e292 5fbf 6f42 20bf f1b0 8fbf b214 acbf

layer1.0.bias f4 [32]
-0.35122746 -0.39988938 -0.20629813 -0.27549756 -0.28681898 -0.29095256 -0.36812377 -0.6224784
-0.18255267 -0.43988702 -0.536624 -0.46013388 -0.38593656 -0.35223043 -0.09479891 -0.5843393
-0.30703488 -0.24544342 -0.12039443 -0.98183113 -0.35804227 -0.10552002 -1.0644405 -0.1748766
-0.32887888 -0.10599043 -0.2753494 -0.1756703 -0.11682909 -0.020701725 -0.4096972 -0.08830454
00000000: 16d4 b3be 4dbe ccbe d13f 53be 040e 8dbe
00000010: f0d9 92be bcf7 94be b87a bcbe bf5a 1fbf
00000020: 16ef 3abe df38 e1be 3160 09bf ab96 ebbe
00000030: 7a99 c5be 8c57 b4be ee25 c2bd 4397 15bf
00000040: ad33 9dbe 8555 7bbe 5b91 f6bd 4959 7bbf
00000050: 5151 b7be e11a d8bd 963f 88bf da12 33be
00000060: d062 a8be 8311 d9bd 99fa 8cbe eae2 33be
00000070: 1744 efbd aa96 a9bc d5c3 d1be 03d9 b4bd

layer2.0.weight f4 [64, 32, 3, 3]
-0.36618757 -0.15907228 0.19865192 -0.1427109 -0.031134754 0.3153092 -0.013943192 0.0660343
0.33286467 -0.01293606 0.059160274 -0.028660798 -0.06817056 0.0051977495 0.0026200053 -0.028513214
0.05582105 0.03414805 0.020128934 -0.45468393 -0.91128695 -0.1142085 0.6979457 -0.8286473
-0.9824764 -0.0076968083 -0.70074654 0.060345236 0.30773115 0.096495025 -0.39341906 -0.15482306
-0.06627705 0.0012026265 -0.113307096 0.14060867 -0.019818353 0.044572115 -0.050465815 -0.052193943
0.098799214 -0.044510596 -0.043813005 0.11011506 -0.008547943 0.17788887 0.21332844 0.011067411
-0.29717448 0.15298747 -0.004277444 -0.34665483 -0.17496625 -0.25479043 0.0015627767 0.1895577
-0.023113549 -0.32652542 0.15285048 -0.05737999 -0.90643245 -0.91143036 -0.34483424 0.4104527
-0.10704411 -0.027361123 -0.07624494 -0.018375803 -0.18785933 -0.17909944 0.2938784 0.4311078
-0.009649214 -0.16961674 0.049625576 0.07525649 0.016970651 0.17155391 -0.15513124 -0.12776707
-0.13577498 -0.36359334 0.47452852 -0.14613554 0.12414613 0.009181682 0.07850084 -1.0600653
-0.5629869 -0.80353886 -0.11985781 -0.057534225 -0.24018617 -0.090189815 -0.15542306 -0.32374123
-0.5045039 -0.3258235 0.048052903 -0.015594124 -0.3940668 -0.044769596 -0.35182422 0.15241896
0.6348674 -0.8407647 -0.29128012 -0.623817 -0.054404877 0.07395939 -0.034719054 -0.04935412
0.024009656 -0.110128134 0.03780555 -0.124269426 0.04794083 0.17981482 0.18412007 0.4333034
-0.0575199 0.3091351 -0.17917563 -0.53499174 -0.9819184 -1.2049903 -0.2737871 -0.091429226
-0.35445684 -0.08040239 1.0363297 -0.29095712 -0.47435072 -0.45449263 -0.9103606 0.010674455
0.50817263 -0.4540915 -0.25647083 -0.34639835 -1.1307284 -0.6296727 -1.0531808 -1.4603243
0.47625107 0.6122009 -0.4412943 -0.5108597 -0.23538347 -0.26276532 0.5606294 0.17522606
-0.60252446 0.7291722 -0.6581615 -0.31261346 -0.38364086 -0.46295884 0.24381329 -0.5000603
-0.36167374 -0.55000573 0.1997635 -0.14571323 -0.170837 -0.076730736 -0.0993028 -0.116810165
0.15784581 0.045263644 -0.0050700824 -0.274092 -0.35083896 -0.002284461 -0.49543044 0.19060181
-0.28824028 -0.9211528 -1.4272786 -0.5682904 0.1636409 0.25559753 -0.188221 0.40290096
0.041982487 0.0561438 -0.15661092 -0.10518101 -0.013657362 0.19621935 -0.17635788 -0.0053253653
0.50409096 0.4494672 0.12903333 0.6604319 -0.003660835 0.4376018 -0.102577865 -0.14809975
-0.2839614 -0.83691704 0.1943689 0.020191407 -0.7403034 -0.5650257 -1.4015223 0.0034926087
0.066885814 -0.002033367 -0.010547178 0.06944474 -0.01575673 0.015679898 -0.032874428 0.06491497
0.29976806 -0.08285676 -0.07621832 -0.06789308 -0.06789323 -0.04511469 -0.18638872 0.025574237
-0.17573291 0.6896211 -0.3266379 -0.80258656 -0.16807534 0.22962697 -0.62309766 0.43738103
0.42004532 0.2530322 -0.45549253 -0.094563805 -0.2849469 -0.73589575 0.6388629 -0.459141
-0.030313434 0.3611561 0.036246575 0.28617054 0.1406949 0.7069292 -0.6090728 0.17490347
0.4870707 -1.1956524 -0.75493926 -0.45094985 -0.86767834 0.48129648 0.34308708 -1.1843251
00000000: f07c bbbe d8e3 22be 696b 4b3e ce22 12be
00000010: 500e ffbc 3570 a13e fc71 64bc fe3c 873d
00000020: 3d6d aa3e c5f1 53bc 0b52 723d 0dca eabc
00000030: 029d 8bbd e251 aa3b 65b4 2b3b 8b94 e9bc
00000040: 9da4 643d d3de 0b3d 6fe5 a43c 55cc e8be
00000050: 1a4a 69bf 25e6 e9bd 92ac 323f 3b22 54bf
00000060: 9383 7bbf 8235 fcbb 2064 33bf 912c 773d
00000070: f08e 9d3e 2f9f c53d 396e c9be f089 1ebe
00000080: 43bc 87bd 73a1 9d3a 8d0d e8bd b8fb 0f3e
00000090: 195a a2bc 4091 363d 3eb5 4ebd 51c9 55bd
000000a0: 3e57 ca3d be50 36bd 4475 33bd 0184 e13d
000000b0: ac0c 0cbc 8028 363e c572 5a3e 1654 353c
000000c0: 4127 98be bfa8 1c3e cd29 8cbb be7c b1be
000000d0: 5a2a 33be e473 82be 16d6 cc3a 6a1b 423e
000000e0: a058 bdbc 572e a7be d684 1c3e 4807 6bbd
000000f0: f50b 68bf 8053 69bf 1d8e b0be db26 d23e
00000100: f139 dbbd 6f24 e0bc 4f26 9cbd da88 96bc
00000110: 325e 40be d865 37be 3b77 963e 29ba dc3e
00000120: bd17 1ebc 03b0 2dbe 3044 4b3d 1320 9a3d
00000130: 0906 8b3c d4ab 2f3e b9da 1ebe 5fd5 02be
00000140: 9908 0bbe e828 babe 67f5 f23e 8ea4 15be
00000150: 5440 fe3d c46e 163c 0cc5 a03d 38b0 87bf
00000160: e91f 10bf b9b4 4dbf 0378 f5bd 02a9 6bbd
00000170: 5df3 75be 70b5 b8bd 3927 1fbe 69c1 a5be
00000180: 2b27 01bf 56d2 a6be 1fd3 443d 7f7e 7fbc
00000190: 20c3 c9be 5360 37bd 4e22 b4be b713 1c3e
000001a0: ac86 223f 5b3c 57bf ab22 95be 79b2 1fbf
000001b0: a6d7 5ebd 0578 973d 9135 0ebd 8c27 4abd
000001c0: e6af c43c dc8a e1bd fed9 1a3d f880 febd
000001d0: 9b5d 443d 6021 383e f989 3c3e f1d9 dd3e
000001e0: fd99 6bbd f546 9e3e d179 37be 38f5 08bf
000001f0: 015f 7bbf 1f3d 9abf d32d 8cbe 3f3f bbbd
00000200: 5e7b b5be 02aa a4bd 74a6 843f 55f8 94be
00000210: 19de f2be 42b3 e8be 640d 69bf e9e3 2e3c
00000220: 9a17 023f ae7e e8be 2550 83be 205b b1be
00000230: b5bb 90bf 3b32 21bf a1ce 86bf e8eb babf
00000240: 2ed7 f33e 33b9 1c3f 54f1 e1be b4c7 02bf
00000250: 5d08 71be 2d89 86be 6985 0f3f 766e 333e
00000260: 0b3f 1abf 08ab 3a3f 467d 28bf df0e a0be
00000270: 936c c4be f108 edbe 31aa 793e f403 00bf
00000280: 4d2d b9be 2dcd 0cbf ce8e 4c3e d935 15be
00000290: e5ef 2ebe 0125 9dbd 445f cbbd 2b3a efbd
000002a0: 55a2 213e 5f66 393d ef22 a6bb c955 8cbe
000002b0: 2aa1 b3be e5b6 15bb 0fa9 fdbe 1f2d 433e
000002c0: 3b94 93be abd0 6bbf 11b1 b6bf 7b7b 11bf
000002d0: 7b91 273e aedd 823e 01bd 40be 0949 ce3e
000002e0: d4f5 2b3d 0bf7 653d 9d5e 20be 2469 d7bd
000002f0: 21c3 5fbc baed 483e 2997 34be 6780 aebb
00000300: 1b0c 013f 9120 e63e 5021 043e 1112 293f
00000310: 9fea 6fbb 580d e03e 5814 d2bd 76a7 17be
00000320: 6363 91be 3240 56bf a408 473e 7368 a53c
00000330: 8684 3dbf 86a5 10bf 1565 b3bf 40e4 643b
00000340: 6efb 883d 3d42 05bb 12ce 2cbc 0b39 8e3d
00000350: 4214 81bc 2173 803c 56a7 06bd 24f2 843d
00000360: 337b 993e ceb0 a9bd 5a18 9cbd 870b 8bbd
00000370: 9b0b 8bbd 2eca 38bd afdc 3ebe 1081 d13c
00000380: 54f3 33be 028b 303f 153d a7be 5076 4dbf
00000390: f11b 2cbe 5523 6b3e 5483 1fbf 68f0 df3e
000003a0: 2e10 d73e 708d 813e 5136 e9be abaa c1bd
000003b0: 8fe4 91be aa63 3cbf 858c 233f 8714 ebbe
000003c0: e153 f8bc 74e9 b83e 4a77 143d f284 923e
000003d0: 5312 103e 50f9 343f 32ec 1bbf e519 333e
000003e0: 5561 f93e 230b 99bf b343 41bf e6e2 e6be
000003f0: 2b20 5ebf 7e6c f63e 1ca9 af3e f797 97bf

layer2.0.bias f4 [64]
-0.022332635 -0.12356666 -0.19646917 -0.05648527 -0.19900872 -0.21273793 -0.026790515 -0.019238934
-0.320378 -0.08608811 -0.055202242 -0.071119785 -0.08502978 -0.1747908 -0.025718927 -0.44277376
-0.39305666 -0.35705715 -0.19980197 -0.039721288 -0.37044337 -0.03272904 -0.07969172 -0.112848334
-0.27536982 -0.038938537 -0.34149885 -0.1809826 -0.0966664 -0.024653886 -0.42129552 -0.35655892
-0.04345444 -0.066717334 -0.080776356 -0.047910985 -0.233487 -0.17491378 -0.07078511 -0.42715725
-0.043954644 -0.031655423 -0.056380883 -0.14660807 -0.04075511 -0.47502968 -0.15906437 -0.08824673
-0.15931164 -0.20237 -0.09409034 -0.34372872 -0.2384177 -0.008438418 -0.2764325 -0.033840105
-0.040751617 -0.3651131 -0.31814462 -0.01810504 -0.099272445 -0.026989726 -0.07681748 -0.094492495
00000000: eef2 b6bc 8410 fdbd 372f 49be 195d 67bd
00000010: f1c8 4bbe f9d7 59be c877 dbbc f89a 9dbc
00000020: 9608 a4be f74e b0bd bf1b 62bd 40a7 91bd
00000030: 1824 aebd 5cfc 32be 80b0 d2bc 3eb3 e2be
00000040: b93e c9be 32d0 b6be e398 4cbe cab2 22bd
00000050: c1aa bdbe e30e 06bd 6a35 a3bd 071d e7bd
00000060: 46fd 8cbe 047e 1fbd f0d8 aebe 8153 39be
00000070: 09f9 c5bd f2f6 c9bc 0cb4 d7be e48e b6be
00000080: 48fd 31bd 19a3 88bd 136e a5bd 4f3e 44bd
00000090: 3717 6fbe 991c 33be c9f7 90bd 5bb4 dabe
000000a0: c909 34bd 1ea9 01bd a4ef 66bd 6d20 16be
000000b0: d5ee 26bd 1737 f3be c5e1 22be b4ba b4bd
000000c0: 9722 23be 153a 4fbe 70b2 c0bd 36fd afbe
000000d0: c523 74be 4a41 0abc 9088 8dbe ec9b 0abd
000000e0: 2beb 26bd 1bf0 babe dae3 a2be 0551 94bc
000000f0: 5a4f cbbd 8f19 ddbc 7c52 9dbd 4885 c1bd

exp_avg f4 [10, 3136]
-1.1158002e-08 5.065501e-07 2.6741602e-06 0.00023299102 0.0007973248 0.0001871404 3.0257108e-05 1.1747136e-06
1.795996e-05 0.0009449344 6.777753e-05 -5.2433345e-05 -9.844531e-05 1.935092e-05 5.2921837e-06 7.688322e-05
-4.125746e-05 2.3289786e-06 0.00031904416 0.00054462015 -1.7022056e-05 4.947888e-05 0.00054605986 1.6648812e-05
-4.994081e-05 -0.00016000443 5.747602e-05 4.4797303e-05 0.0001367824 9.848798e-05 0.000120065015 0.0002489388
-3.0450235e-06 -1.7239767e-05 -0.0001767198 0.00014777752 0.0016570314 0.0032762606 0.0017717307 -9.6045886e-05
-3.069237e-06 -0.0001284578 5.809867e-09 0.00017638851 0.0019206159 0.0006727853 1.6517957e-05 0.00012472903
-4.6060675e-09 6e-45 6e-45 -6e-45 -6e-45 -6e-45 6e-45 6e-45
6e-45 6e-45 -6e-45 -6e-45 -6e-45 -6e-45 6e-45 6e-45
6e-45 6e-45 -6e-45 -6e-45 6e-45 6e-45 -6e-45 -6e-45
6e-45 6e-45 6e-45 -6e-45 -6e-45 6e-45 -6e-45 -6e-45
-6e-45 6e-45 -6e-45 -6e-45 6e-45 -6e-45 6e-45 -6e-45
6e-45 -6e-45 6e-45 -6e-45 6e-45 6e-45 6e-45 6e-45
6e-45 6e-45 -6e-45 -6e-45 -6e-45 6e-45 -6e-45 6e-45
-6e-45 -6e-45 -6e-45 6e-45 6e-45 6e-45 6e-45 -6e-45
-6e-45 -6e-45 6e-45 6e-45 -6e-45 -6e-45 6e-45 -6e-45
-6e-45 -6e-45 6e-45 -6e-45 -6e-45 6e-45 -6e-45 -6e-45
6e-45 -6e-45 -6e-45 -6e-45 6e-45 -6e-45 6e-45 -6e-45
6e-45 6e-45 6e-45 -6e-45 -6e-45 -6e-45 6e-45 6e-45
6e-45 -6e-45 -6e-45 -6e-45 6e-45 -6e-45 -6e-45 6e-45
6e-45 6e-45 -6e-45 6e-45 6e-45 6e-45 6e-45 6e-45
6e-45 6e-45 6e-45 6e-45 6e-45 6e-45 6e-45 6e-45
6e-45 6e-45 6e-45 6e-45 6e-45 6e-45 6e-45 6e-45
6e-45 6e-45 -6e-45 6e-45 6e-45 6e-45 6e-45 6e-45
6e-45 6e-45 6e-45 6e-45 6e-45 -6e-45 6e-45 6e-45
6e-45 6e-45 6e-45 6e-45 -6e-45 6e-45 6e-45 6e-45
6e-45 6e-45 6e-45 6e-45 -6e-45 -6e-45 6e-45 6e-45
6e-45 6e-45 6e-45 6e-45 6e-45 6e-45 6e-45 6e-45
6e-45 6e-45 6e-45 6e-45 -6e-45 -6e-45 6e-45 6e-45
6e-45 6e-45 6e-45 6e-45 6e-45 6e-45 6e-45 -6e-45
6e-45 -6e-45 6e-45 6e-45 6e-45 6e-45 6e-45 6e-45
6e-45 6e-45 6e-45 6e-45 6e-45 5.7365465e-08 1.57208e-05 0.0016183493
0.0028208906 0.0025641734 0.0016112945 0.0002256895 1.0952281e-06 0.0005480624 0.0019592429 0.0013675858
00000000: 69b1 3fb2 dcf9 0735 b975 3336 0d4f 7439
00000010: 9003 513a 1e3b 4439 a5d0 fd37 daaa 9d35
00000020: b8a8 9637 79b5 773a c923 8e38 e0eb 5bb8
00000030: 6c74 ceb8 c953 a237 8393 b136 5d3c a138
00000040: dc0b 2db8 8c4b 1c36 6245 a739 d7c4 0e3a
00000050: 96ca 8eb7 8b87 4f38 7525 0f3a 0da9 8b37
00000060: 8977 51b8 ddc6 27b9 6812 7138 bde4 3b38
00000070: 3f6d 0f39 558b ce38 6acb fb38 0084 8239
00000080: 1b59 4cb6 1e9e 90b7 dc4d 39b9 baf4 1a39
00000090: bf30 d93a 88b6 563b 6b39 e83a 3e6c c9b8
000000a0: 17f9 4db6 a1b2 06b9 21a0 c731 eef4 3839
000000b0: 2dbd fb3a db5d 303a 0b90 8a37 b2c9 0239
000000c0: 6643 9eb1 0400 0000 0400 0000 0400 0080
000000d0: 0400 0080 0400 0080 0400 0000 0400 0000
000000e0: 0400 0000 0400 0000 0400 0080 0400 0080
000000f0: 0400 0080 0400 0080 0400 0000 0400 0000
00000100: 0400 0000 0400 0000 0400 0080 0400 0080
00000110: 0400 0000 0400 0000 0400 0080 0400 0080
00000120: 0400 0000 0400 0000 0400 0000 0400 0080
00000130: 0400 0080 0400 0000 0400 0080 0400 0080
00000140: 0400 0080 0400 0000 0400 0080 0400 0080
00000150: 0400 0000 0400 0080 0400 0000 0400 0080
00000160: 0400 0000 0400 0080 0400 0000 0400 0080
00000170: 0400 0000 0400 0000 0400 0000 0400 0000
00000180: 0400 0000 0400 0000 0400 0080 0400 0080
00000190: 0400 0080 0400 0000 0400 0080 0400 0000
000001a0: 0400 0080 0400 0080 0400 0080 0400 0000
000001b0: 0400 0000 0400 0000 0400 0000 0400 0080
000001c0: 0400 0080 0400 0080 0400 0000 0400 0000
000001d0: 0400 0080 0400 0080 0400 0000 0400 0080
000001e0: 0400 0080 0400 0080 0400 0000 0400 0080
000001f0: 0400 0080 0400 0000 0400 0080 0400 0080
00000200: 0400 0000 0400 0080 0400 0080 0400 0080
00000210: 0400 0000 0400 0080 0400 0000 0400 0080
00000220: 0400 0000 0400 0000 0400 0000 0400 0080
00000230: 0400 0080 0400 0080 0400 0000 0400 0000
00000240: 0400 0000 0400 0080 0400 0080 0400 0080
00000250: 0400 0000 0400 0080 0400 0080 0400 0000
00000260: 0400 0000 0400 0000 0400 0080 0400 0000
00000270: 0400 0000 0400 0000 0400 0000 0400 0000
00000280: 0400 0000 0400 0000 0400 0000 0400 0000
00000290: 0400 0000 0400 0000 0400 0000 0400 0000
000002a0: 0400 0000 0400 0000 0400 0000 0400 0000
000002b0: 0400 0000 0400 0000 0400 0000 0400 0000
000002c0: 0400 0000 0400 0000 0400 0080 0400 0000
000002d0: 0400 0000 0400 0000 0400 0000 0400 0000
000002e0: 0400 0000 0400 0000 0400 0000 0400 0000
000002f0: 0400 0000 0400 0080 0400 0000 0400 0000
00000300: 0400 0000 0400 0000 0400 0000 0400 0000
00000310: 0400 0080 0400 0000 0400 0000 0400 0000
00000320: 0400 0000 0400 0000 0400 0000 0400 0000
00000330: 0400 0080 0400 0080 0400 0000 0400 0000
00000340: 0400 0000 0400 0000 0400 0000 0400 0000
00000350: 0400 0000 0400 0000 0400 0000 0400 0000
00000360: 0400 0000 0400 0000 0400 0000 0400 0000
00000370: 0400 0080 0400 0080 0400 0000 0400 0000
00000380: 0400 0000 0400 0000 0400 0000 0400 0000
00000390: 0400 0000 0400 0000 0400 0000 0400 0080
000003a0: 0400 0000 0400 0080 0400 0000 0400 0000
000003b0: 0400 0000 0400 0000 0400 0000 0400 0000
000003c0: 0400 0000 0400 0000 0400 0000 0400 0000
000003d0: 0400 0000 ff61 7633 29e0 8337 cb1e d43a
000003e0: b1de 383b b10b 283b 1232 d33a 10a7 6c39
000003f0: c0ff 9235 d8ab 0f3a a466 003b 9140 b33a

exp_avg_sq f4 [10, 3136]
8.514621e-09 1.9738255e-08 7.26576e-08 4.3049417e-07 1.848194e-06 1.4966604e-06 3.5563318e-07 3.457157e-08
2.9741793e-07 8.5791277e-07 1.9421677e-06 2.2767183e-06 3.740502e-06 8.9670255e-07 1.3757082e-07 1.0101253e-06
1.3835908e-06 2.8768977e-06 1.8128466e-06 1.8915254e-06 1.7512435e-06 1.4610082e-06 1.2972735e-06 5.955881e-07
2.1712415e-06 1.9603035e-06 3.0280796e-07 2.897706e-07 4.531048e-06 8.867817e-06 2.7695307e-06 1.8268418e-06
1.1606112e-06 5.339099e-07 6.200795e-07 4.2884153e-06 1.9867495e-05 2.6219857e-05 1.8680963e-05 6.550599e-06
1.999282e-06 9.382603e-07 6.482239e-08 1.6071356e-06 5.8917876e-06 6.511798e-06 2.2218078e-06 8.271466e-07
1.9392543e-08 1.5141946e-10 2.2859266e-10 3.7307213e-10 5.749593e-10 4.1401405e-10 2.530506e-10 3.3768735e-10
2.6085781e-11 2.3797353e-10 4.4021553e-10 3.8419493e-10 5.6050714e-10 4.6006673e-10 1.6573404e-10 6.167422e-11
2.4277585e-10 2.0924668e-10 6.261544e-10 4.4123513e-10 3.9974962e-10 4.7331616e-10 8.042065e-11 2.1816171e-10
4.1976503e-10 6.012693e-10 4.236905e-10 4.5300338e-10 4.706644e-10 4.609236e-11 5.4747723e-10 1.5142725e-09
2.9836714e-10 1.00762024e-10 7.695002e-10 3.359746e-10 1.1700204e-11 3.8388154e-10 1.5083587e-09 1.4616047e-09
8.715436e-10 3.6461176e-10 1.2865342e-10 7.606361e-12 6.3592955e-12 1.6864106e-11 2.5410596e-11 5.868936e-11
2.0332564e-11 7.1886476e-11 8.923857e-13 6.3420585e-13 3.4944055e-12 2.542619e-11 3.059122e-12 4.1445185e-12
1.0498235e-12 6.322895e-13 5.593704e-12 2.248885e-11 1.0535824e-10 3.6798765e-11 1.3302098e-14 2.7542805e-12
2.8652308e-12 7.4033536e-11 1.0247956e-10 2.1007227e-11 8.9823667e-13 1.4720432e-10 8.9787043e-13 1.4680522e-11
1.1985112e-10 2.0115477e-11 1.3458265e-10 1.0178093e-10 1.4795169e-10 3.083965e-12 2.3863262e-11 2.1812781e-10
7.107249e-14 1.2771136e-11 3.6791747e-10 1.1733779e-10 1.6294388e-12 1.1063088e-11 9.648514e-11 1.68447e-11
1.6392611e-11 6.8371094e-11 1.3103701e-13 8.3795725e-13 2.6607306e-12 7.244068e-12 2.5159155e-13 5.2920307e-12
1.05496016e-13 2.5259057e-12 1.6753576e-12 1.0663227e-08 1.223357e-08 1.5407275e-08 1.9057696e-08 1.5390578e-08
1.173443e-08 1.0714013e-08 1.1548209e-08 1.9918383e-08 2.9608263e-08 3.617705e-08 2.6921402e-08 1.4506657e-08
1.1265887e-08 1.1669009e-08 2.3415112e-08 3.4857017e-08 4.03139e-08 2.6243361e-08 1.45362336e-08 1.1038016e-08
1.1367356e-08 2.2136616e-08 3.474648e-08 4.7347402e-08 3.1481527e-08 1.2623525e-08 9.981393e-09 1.1417381e-08
2.049646e-08 3.1049904e-08 4.039721e-08 2.5931143e-08 1.4803055e-08 1.0523064e-08 1.1293814e-08 1.8791441e-08
3.1969623e-08 3.2480795e-08 1.9662137e-08 1.4808486e-08 1.1016061e-08 1.0628874e-08 1.27862085e-08 1.6863318e-08
1.757039e-08 1.2743138e-08 1.1534538e-08 1.0714193e-08 6.4354384e-09 6.6280985e-09 6.900326e-09 7.510519e-09
6.271166e-09 6.5335546e-09 6.3074648e-09 6.737793e-09 9.7342046e-09 1.1412635e-08 1.3789943e-08 9.891635e-09
8.0048785e-09 6.767335e-09 6.713157e-09 1.12218865e-08 1.3754879e-08 1.2888018e-08 7.402357e-09 8.0973255e-09
7.489301e-09 6.50183e-09 1.1765688e-08 1.7704608e-08 1.6993727e-08 1.019592e-08 7.464224e-09 6.534628e-09
6.45935e-09 9.4953965e-09 1.5360932e-08 1.602541e-08 1.0627932e-08 7.442415e-09 6.307901e-09 6.491954e-09
1.0075502e-08 1.8040025e-08 1.6425851e-08 1.0962449e-08 9.197561e-09 6.7768267e-09 6.479364e-09 7.2997146e-09
1.075472e-08 1.2824507e-08 8.756294e-09 7.21445e-09 6.701013e-09 1.3187151e-08 1.1283017e-06 1.2668979e-05
2.7508833e-05 1.812926e-05 3.5896503e-06 2.0997199e-07 6.9603004e-08 3.4359684e-06 1.0767772e-05 1.3116647e-05
00000000: b347 1232 e28c a932 f007 9c33 ab1e e734
00000010: 760f f835 dce0 c835 daed be34 d87b 1433
00000020: cfac 9f34 514b 6635 3056 0236 b9c9 1836
00000030: 5605 7b36 eeb4 7035 2eb7 1334 a493 8735
00000040: d1b3 b935 ba10 4136 ef50 f335 51e0 fd35
00000050: 450c eb35 dc17 c435 fa1d ae35 81e0 1f35
00000060: a5b5 1136 c28d 0336 9c91 a234 c591 9b34
00000070: 6809 9836 fcc6 1437 2ddc 3936 ce31 f535
00000080: 4cc6 9b35 0252 0f35 8a73 2635 35e5 8f36
00000090: 1fa9 a637 b7f2 db37 10b5 9c37 38cd db36
000000a0: 672b 0636 c2dc 7b35 7c34 8b33 c2b4 d735
000000b0: 12b2 c536 eb7f da36 5e1a 1536 1509 5e35
000000c0: a794 a632 ca7c 262f 1d57 7b2f 3c19 cd2f
000000d0: 2a0b 1e30 4c9b e32f b51d 8b2f 45a5 b92f
000000e0: f573 e52d ccd3 822f d402 f22f a136 d32f
000000f0: 2f12 1a30 a3ec fc2f fc39 362f 809f 872e
00000100: aa77 852f b411 662f b31d 2c30 5392 f22f
00000110: c2c3 db2f aa1a 0230 cdd8 b02e 10df 6f2f
00000120: adc4 e62f 9146 2530 23ed e82f 8f0a f92f
00000130: 1060 0130 62b7 4a2e 497d 1630 ba1e d030
00000140: 7107 a42f fa93 dd2e c384 5330 39b4 b82f
00000150: 09d5 4d2d 860a d32f a74e cf30 a5e1 c830
00000160: 6e91 6f30 8b72 c82f b874 0d2f 01d0 052d
00000170: 71bf df2c 9756 942d 9383 df2d 2c0f 812e
00000180: ddd8 b22d 7d14 9e2e 2b2f 7b2b 5983 322b
00000190: 9de5 752c b1a6 df2d 3e44 572c 81d2 912c
000001a0: e1bf 932b 43f9 312b 9bcf c42c 63d0 c52d
000001b0: 6baf e72e bad7 212e 19a1 6f28 b5d0 412c
000001c0: 699f 492c 2dcd a22e dd5a e12e 12c8 b82d
000001d0: c6d4 7c2b 55da 212f 62ba 7c2b 9921 812d
000001e0: 17c7 032f 07f0 b02d a6f9 132f 92d1 df2e
000001f0: b3ac 222f c603 592c 4ae7 d12d 85d5 6f2f
00000200: 800a a029 15ac 602d c843 ca2f a703 012f
00000210: b852 e52b b89f 422d 4e2c d42e e42a 942d
00000220: e130 902d 8159 962e d988 132a 2fdd 6b2b
00000230: 763b 3b2c c4e0 fe2c 2aa2 8d2a 6032 ba2c
00000240: 508e ed29 acbe 312c 1ec9 eb2b 5e31 3732
00000250: cf2b 5232 f558 8432 51b4 a332 3d34 8432
00000260: 9298 4932 ba10 3832 8f65 4632 fd18 ab32
00000270: 4255 fe32 1661 1b33 ca40 e732 f438 7932
00000280: e58b 4132 d878 4832 6022 c932 b2b5 1533
00000290: 9a25 2d33 c36d e132 08bb 7932 b5a1 3d32
000002a0: 294a 4332 ef26 be32 293c 1533 055b 4b33
000002b0: 4e36 0733 dade 5832 a17a 2b32 2c26 4432
000002c0: 3110 b032 bb5b 0533 3481 2d33 30bf de32
000002d0: 8650 7e32 edc8 3432 b806 4232 d16a a132
000002e0: f94e 0933 0381 0b33 7fe5 a832 6968 7e32
000002f0: 2641 3d32 489a 3632 57aa 5b32 d4da 9032
00000300: b2ed 9632 eaec 5a32 6f29 4632 8511 3832
00000310: b71e dd31 5fbd e331 e917 ed31 9d07 0132
00000320: c279 d731 c17d e031 0cb9 d831 4182 e731
00000330: 7c3b 2732 4d11 4432 d0e8 6c32 dfef 2932
00000340: d485 0932 1c86 e831 8ea9 e631 61ca 4032
00000350: 994e 6c32 1a6a 5d32 d257 fe31 6a1c 0b32
00000360: 4baa 0032 b466 df31 0b22 4a32 d814 9832
00000370: 9af9 9132 212a 2f32 013c 0032 3287 e031
00000380: 0bf1 dd31 3221 2332 0cf3 8332 40a8 8932
00000390: 2496 3632 2db8 ff31 e2bc d831 d50f df31
000003a0: 8718 2d32 6ff6 9a32 d418 8d32 5c55 3c32
000003b0: 4d03 1e32 99d9 e831 17a1 de31 f8d0 fa31
000003c0: c2c3 3832 c752 5c32 976e 1632 f9e2 f731
000003d0: bc3e e631 b48d 6232 2770 9735 da8c 5437
000003e0: c5c2 e637 4a14 9837 b9e5 7036 a974 6134
000003f0: a878 9533 7d95 6636 3ba7 3437 920f 5c37

exp_avg f4 [10]
0.0021049154 0.0016548696 -0.00060729793 0.00045865134 -0.0010818494 -0.0015268619 0.0005800661 -0.00037083193
-0.0007682938 -0.00044335728
00000000: 9ff2 093b 36e8 d83a 1333 1fba 2477 f039
00000010: d8cc 8dba fc20 c8ba 940f 183a 386c c2b9
00000020: 5367 49ba 6872 e8b9

exp_avg_sq f4 [10]
1.155535e-05 1.592526e-05 2.3147428e-05 2.418749e-05 2.262533e-05 2.1875952e-05 1.5057454e-05 2.4265268e-05
3.2847776e-05 3.697577e-05
00000000: dadd 4137 3c97 8537 b92c c237 3de6 ca37
00000010: 87cb bd37 4082 b737 469f 7c37 448d cb37
00000020: 08c6 0938 6e16 1b38

exp_avg f4 [32, 1, 3, 3]
-0.0007402874 -2.2373075e-05 -3.1177626e-06 -0.00032931138 3.3993157e-07 2.7566264e-05 -1.1406494e-07 2.3880527e-06
-0.00022445757 6e-45 6e-45 6e-45 6e-45 6e-45 6e-45 6e-45
6e-45 6e-45 0.0024775655 0.0011057087 -0.0011682259 0.0012582504 0.0014889699 -3.6546113e-05
0.004399275 0.000121171535 0.0009662915 -6e-45 -6e-45 -6e-45 6e-45 1.3e-44
-1.878374e-11 6e-45 6e-45 6e-45 0.0 -6e-45 6e-45 6e-45
6e-45 6e-45 0.0 6e-45 6e-45 4.7352033e-10 -2.2692646e-07 -1.9475206e-09
0.00010828455 9.584003e-05 4.7707897e-07 8.2377934e-05 1.1505798e-05 1.9500157e-15 1.9462774e-21 1.8171138e-11
1.1490685e-12 4.6578816e-09 5.843494e-08 7.34935e-08 7.0725215e-10 1.2462262e-08 1.8993147e-08 0.0059904144
0.0065556495 0.0062544043 0.0013694029 0.0034112497 0.0050559724 -0.00020666786 0.0005878733 0.0034450542
-1.0278878e-19 -6e-45 -8.912533e-12 6e-45 -1.7755426e-11 -1.7755426e-11 6e-45 -6e-45
-6e-45 -0.013957166 -0.013325576 -0.010153673 -0.013354774 -0.008648165 -0.006974907 -0.00895061
-0.009106648 -0.0049619223 0.0037438422 0.00016972487 5.573639e-05 0.0039620167 0.00019342494 7.557814e-06
-0.00012402766 -0.0005946857 0.0001713679 -0.0026128627 -0.0017832504 1.7808743e-05 -0.0025543761 -0.0030754218
-0.0014138162 -0.00018790177 -0.00022255127 -0.0013558933 6e-45 6e-45 6e-45 6e-45
6e-45 -6e-45 6e-45 6e-45 6e-45 0.0023771261 0.007920305 0.012435837
0.004238305 0.008270352 0.01246308 0.006641395 0.010480671 0.010011085 0.0049138754 0.0019032019
-5.0375074e-06 0.00015317166 0.00095822744 0.0002683237 0.0014087112 -0.00013755377 -0.00014881678 -0.0027675654
-0.00047176512 -0.0007923701 0.0018977495 0.0029396804 0.00047369732 0.0039001675 0.003133374 -0.0016669633
-0.0018922116 -0.0038670658 0.0014616366 -0.0025588179 -0.0018838142 0.00035858178 -0.008729892 -0.007126441
0.0009342271 0.00032177812 0.0035216452 0.0016644687 0.001976519 0.0022966745 0.00076698436 0.0027313514
0.0018421068 0.0005460428 6e-45 -6e-45 -6e-45 6e-45 -6e-45 6e-45
6e-45 6e-45 6e-45 -0.006209404 -0.003256631 -0.0039299144 -0.0021761751 -0.0024219728
-0.0005549373 -0.0015079117 0.003435243 0.0032990554 -0.000113510454 0.005981139 0.0065292064 0.0009283918
0.006281656 0.008300107 -6.784854e-05 0.005207619 0.007993942 2.7383323e-05 0.0011702914 0.0063876
-2.1398769e-06 4.8918413e-05 0.0020669186 5.0348253e-06 8.333082e-06 0.00028626932 -8.207937e-05 -6.262894e-05
-6.7059555e-06 -1.119558e-05 6.465902e-07 2.724566e-07 -7.8077865e-05 -8.6761815e-05 -5.3333948e-05 6e-45
3.8095252e-29 6e-45 6e-45 6e-45 5.0860145e-29 0.0 -6e-45 1.2764906e-29
6e-45 5.3848234e-13 8.035165e-13 -6e-45 -6e-45 6.6724733e-22 1.0727577e-12 1.0727577e-12
1.0727568e-12 6.3271305e-05 0.00039006097 -0.00095146865 -0.00016587295 -0.000120334844 -1.0693255e-05 0.0019437021
0.0018752512 0.00091424864 5.861345e-07 -2.258259e-05 5.6185698e-05 -4.22706e-05 -0.00016704176 -0.00090896036
-1.2234001e-06 -3.365877e-05 -0.00022071965 2.4612353e-05 8.105736e-06 -0.0017682926 -0.00084944925 -0.0012761806
-0.0024451297 -0.0008401386 -0.00041355178 -0.00042189425 3.9894305e-05 6.9424627e-06 -0.00086442975 7.957624e-06
00000000: d90f 42ba d0ad bbb7 c13a 51b6 6da7 acb9
00000010: d77f b634 1a3e e737 ddf3 f4b3 6f42 2036
00000020: 5f5c 6bb9 0400 0000 0400 0000 0400 0000
00000030: 0400 0000 0400 0000 0400 0000 0400 0000
00000040: 0400 0000 0400 0000 a75e 223b 6ded 903a
00000050: 281f 99ba e1eb a43a 8a29 c33a 1749 19b8
00000060: cb27 903b 791d fe38 ba4e 7d3a 0400 0080
00000070: 0400 0080 0400 0080 0400 0000 0900 0000
00000080: 3939 a5ad 0400 0000 0400 0000 0400 0000
00000090: 0000 0000 0400 0080 0400 0000 0400 0000
000000a0: 0400 0000 0400 0000 0000 0000 0400 0000
000000b0: 0400 0000 0829 0230 12a9 73b4 25d5 05b1
000000c0: d316 e338 b9fd c838 9e10 0035 51c2 ac38
000000d0: 0709 4137 7183 0c27 7b0e 131d c4d5 9f2d
000000e0: 8eb7 a12b 290b a031 e5f9 7a33 7bd3 9d33
000000f0: 7268 4230 9c19 5632 5f26 a332 3d4b c43b
00000100: c6d0 d63b bff1 cc3b 897d b33a 468f 5f3b
00000110: 92ac a53b fbb4 58b9 821b 1a3a 6bc6 613b
00000120: 01b4 f29f 0400 0080 7bca 1cad 0400 0000
00000130: aa2d 9cad aa2d 9cad 0400 0000 0400 0080
00000140: 0400 0080 99ac 64bc 8453 5abc 975b 26bc
00000150: fbcd 5abc 08b1 0dbc c38d e4bb 94a5 12bc
00000160: 0d34 15bc 9f97 a2bb 405b 753b 2cf8 3139
00000170: 7ec6 6938 ced3 813b 1dd2 4a39 2199 fd36
00000180: 6c0d 02b9 afe4 1bba 38b1 3339 903c 2bbb
00000190: f4bb e9ba fc63 9537 5267 27bb 048d 49bb
000001a0: cd4f b9ba 7f07 45b9 a75c 69b9 3bb8 b1ba
000001b0: 0400 0000 0400 0000 0400 0000 0400 0000
000001c0: 0400 0000 0400 0080 0400 0000 0400 0000
000001d0: 0400 0000 8fc9 1b3b 2bc4 013c aebf 4b3c
000001e0: 7be1 8a3b 5f80 073c f231 4c3c 0fa0 d93b
000001f0: 1fb7 2b3c 8905 243c 9304 a13b dc74 f93a
00000200: dc07 a9b6 b49c 2039 8e31 7b3a ccad 8c39
00000210: 81a4 b83a 4f3c 10b9 b30b 1cb9 0b60 35bb
00000220: 3e57 f7b9 0fb7 4fba e8bd f83a a7a7 403b
00000230: 945a f839 f499 7f3b 4b59 4d3b 027e daba
00000240: 1604 f8ba 996e 7dbb 6394 bf3a d7b1 27bb
00000250: 51ea f6ba 0800 bc39 d207 0fbc ec84 e9bb
00000260: ebe6 743a 54b4 a839 67cb 663b 4d2a da3a
00000270: 7c88 013b ce83 163b 730f 493a 7900 333b
00000280: d972 f13a 5024 0f3a 0400 0000 0400 0080
00000290: 0400 0080 0400 0000 0400 0080 0400 0000
000002a0: 0400 0000 0400 0000 0400 0000 4278 cbbb
000002b0: 346d 55bb 83c6 80bb 299e 0ebb f6b9 1ebb
000002c0: 3679 11ba 1fa5 c5ba d021 613b f734 583b
000002d0: 760c eeb8 6efd c33b f4f2 d53b 525f 733a
000002e0: 5ad6 cd3b 2cfd 073c e849 8eb8 ada4 aa3b
000002f0: 06f9 023c 3db5 e537 7764 993a 134f d13b
00000300: ce9a 0fb6 bf2d 4d38 2475 073b d2f0 a836
00000310: 51ce 0b37 6b16 9639 0722 acb8 a857 83b8
00000320: b803 e1b6 a6d4 3bb7 5791 2d35 2646 9234
00000330: bcbd a3b8 e5f3 b5b8 e4b2 5fb8 0400 0000
00000340: 772a 4110 0400 0000 0400 0000 0400 0000
00000350: 1ff2 8010 0000 0000 0400 0080 9773 810f
00000360: 0400 0000 be91 172b 772b 622b 0400 0080
00000370: 0400 0080 c3a9 491c 2bfa 962b 2bfa 962b
00000380: 23fa 962b 86b0 8438 1981 cc39 fb6b 79ba
00000390: 2eee 2db9 475c fcb8 2e67 33b7 d2c3 fe3a
000003a0: fdca f53a 30aa 6f3a db56 1d35 be6f bdb7
000003b0: efa8 6b38 b64b 31b8 ee27 2fb9 4c47 6eba
000003c0: b533 a4b5 d42c 0db8 fb70 67b9 a076 ce37
000003d0: dffd 0737 0ec6 e7ba 93ad 5eba 8445 a7ba
000003e0: 783e 20bb bf3c 5cba fbd1 d8b9 b031 ddb9
000003f0: 2f54 2738 4df3 e836 e69a 62ba bc81 0537

exp_avg_sq f4 [32, 1, 3, 3]
1.3215752e-05 7.572016e-07 2.7079787e-07 2.447571e-07 2.1628786e-08 1.0341289e-05 7.9666345e-09 2.3987661e-06
6.0746912e-05 4.2206657e-13 1.7239795e-12 9.5288584e-14 3.436031e-13 1.5153152e-12 2.5035802e-12 1.6542599e-15
5.493739e-14 2.2498457e-12 0.00070570066 0.00047287144 0.00013451677 0.00029974963 5.2851163e-05 6.160761e-07
3.78643e-05 1.5123233e-06 1.9930076e-05 9.650691e-08 9.2953144e-08 1.0078345e-07 1.0682807e-07 1.5394771e-07
6.4335364e-07 1.2202463e-08 9.293929e-09 6.4054994e-08 0.0 8.416326e-18 1.7469058e-16 1.1667133e-25
6.0094874e-15 2.2621746e-14 0.0 4.4062903e-16 1.1253096e-18 3.6618387e-06 8.188611e-06 7.195216e-06
1.5677257e-05 9.276993e-06 2.2120698e-06 2.0459987e-05 2.6779749e-06 1.2026587e-07 7.9530264e-07 4.3782356e-06
2.2031254e-05 3.871567e-06 2.455514e-05 5.4816825e-05 3.21615e-05 5.017606e-05 5.8593345e-05 0.00019289421
0.00027177148 0.0004184933 2.2485885e-05 7.1063616e-05 0.00028682826 1.5675283e-05 7.0483648e-06 0.00012610781
4.791359e-07 4.91398e-07 6.3589556e-07 4.1585352e-07 4.6793525e-07 5.17504e-07 2.698088e-07 2.6513283e-07
3.4382617e-07 0.00075671566 0.0010966752 0.0014653843 0.0004376295 0.000869972 0.0015651926 0.00045159992
0.0011176949 0.0017094185 6.2424726e-05 1.623312e-06 2.5986776e-07 6.082458e-05 2.3012947e-06 6.9187143e-07
6.8199435e-05 3.5797133e-05 1.8978577e-05 0.00012927373 0.00013639063 4.123181e-05 9.8944416e-05 0.0001636853
0.00011767143 2.1192487e-05 9.151278e-05 0.00013571602 5.429027e-13 1.239224e-13 9.460151e-18 4.1771125e-15
7.5402365e-15 9.206242e-15 1.4642076e-14 3.3220272e-13 3.3273094e-13 2.0372885e-05 0.00019667317 0.00065698347
0.00039004482 0.00079516193 0.0009759499 0.0010180697 0.0010179501 0.0007827829 0.0015774601 0.00031887618
7.036445e-06 0.0007377651 4.9291702e-05 3.0925133e-07 0.00029277106 7.4807085e-06 3.5396527e-06 0.0010387474
0.00028891859 1.9391335e-05 0.0011444904 0.0003031646 1.5839943e-05 0.0011649824 0.00058846065 0.00011638975
0.0008775233 0.00023555665 0.00048850034 0.0013980295 0.0010441416 0.0014845143 0.002399866 0.0027644145
0.002510076 1.1919889e-06 2.3134808e-05 6.9672187e-06 8.220203e-06 1.6442307e-05 2.919714e-06 1.5640733e-05
9.659518e-06 7.1572765e-07 7.8810146e-08 2.521006e-08 1.4117437e-08 3.2264265e-07 8.645053e-08 1.02534614e-07
9.104671e-07 7.64697e-07 9.589452e-07 0.000600555 0.0008198239 0.0009061133 0.00089046266 0.0008934062
0.00059937115 0.00082497764 0.0005003091 0.00022490662 2.248224e-05 0.00021038478 0.0003331 2.6792704e-06
0.00012813801 0.0003093228 2.0402756e-06 7.022093e-05 0.00025339992 1.4830629e-06 7.983873e-06 0.00015595647
5.7517305e-08 2.9249702e-07 2.523994e-05 1.6819463e-07 2.9939596e-08 1.9256051e-06 0.0002010261 0.00018819756
0.00012352805 0.00020332327 0.00020441994 0.00014311941 0.00024265573 0.00024714685 0.00019292913 3.4617947e-13
7.319172e-12 1.0013901e-11 1.4092927e-14 2.3009142e-13 4.5411136e-12 0.0 1.878104e-16 1.035567e-14
1.4263088e-07 5.737272e-07 1.2907606e-06 2.3082386e-07 7.2717734e-07 1.2047811e-06 8.53106e-07 1.2436666e-06
1.207128e-06 4.813974e-06 4.4555833e-05 0.00013921644 4.4798e-05 1.0655531e-05 4.6438918e-06 0.00033299607
0.0002795364 0.00019480471 1.7407003e-06 5.7352133e-07 3.6522077e-05 8.827825e-07 3.6772362e-06 6.051419e-05
7.1481777e-06 8.957829e-06 1.116892e-05 2.1020714e-06 2.5541933e-06 1.885461e-05 1.4065801e-05 1.963627e-05
2.9067793e-05 6.0483862e-06 3.6787833e-06 2.6424689e-06 5.4428443e-07 4.4565152e-07 1.892062e-05 2.1940807e-07
00000000: 39b9 5d37 7f42 4b35 2d62 9134 2967 8334
00000010: 34ca b932 807f 2d37 a1dd 0832 7dfa 2036
00000020: 80ca 7e38 349a ed2a e8a0 f22b 2192 d629
00000030: 6d6e c12a fc42 d52b 7e2c 302c 6b67 ee26
00000040: 806a 7729 9e51 1e2c c5fe 383a bbeb f739
00000050: 120d 0d39 b727 9d39 81ac 5d38 6d60 2535
00000060: 7cd0 1e38 08fb ca35 832f a737 3c3f cf33
00000070: 889d c733 4a6e d833 5a69 e533 d34c 2534
00000080: edb2 2c35 00a3 5132 22ab 1f32 9b8e 8933
00000090: 0000 0000 fa40 1b23 8f67 4925 9f6e 1016
000000a0: bd83 d827 32c2 cb28 0000 0000 5e01 fe25
000000b0: ff10 a621 e9bd 7536 d161 0937 6f6e f136
000000c0: a782 8337 62a4 1b37 1273 1436 7da1 ab37
000000d0: 42b7 3336 6e22 0134 c87c 5535 c2e8 9236
000000e0: c2cf b837 82e8 8136 c3fb cd37 1eeb 6538
000000f0: 26e5 0638 2274 5238 20c2 7538 a543 4a39
00000100: 8d7c 8e39 3869 db39 12a0 bc37 fd07 9538
00000110: 7061 9639 6a7e 8337 fe80 ec36 cf3b 0439
00000120: f89d 0035 9de8 0335 69b2 2a35 7942 df34
00000130: 8838 fb34 9bea 0a35 3dda 9034 9457 8e34
00000140: 1c97 b834 545e 463a 50be 8f3a 2312 c03a
00000150: a371 e539 d50e 643a 2627 cd3a b7c4 ec39
00000160: 9e7f 923a 910e e03a 05ea 8238 93e0 d935
00000170: f483 8b34 e51d 7f38 f16f 1a36 0bb9 3935
00000180: 4b06 8f38 e124 1638 2f34 9f37 a78d 0739
00000190: 1504 0f39 52f0 2c38 6180 cf38 f0a2 2b39
000001a0: 5ec6 f638 85c6 b137 8dea bf38 fe4e 0e39
000001b0: 43d0 182b 3386 0b2a 4d82 2e23 107f 9627
000001c0: 34d5 0728 4cd8 2528 54e2 8328 7503 bb2a
000001d0: 954f bb2a 70e6 aa37 0d3a 4e39 6a39 2c3a
000001e0: ee7e cc39 6a72 503a e4d6 7f3a c070 853a
000001f0: bd6c 853a ac33 4d3a c7c2 ce3a d62e a739
00000200: 9a1a ec36 9466 413a 90be 4e38 2e07 a634
00000210: 117f 9939 cc02 fb36 c58a 6d36 9426 883a
00000220: ff79 9739 93aa a237 ba02 963a 10f2 9e39
00000230: 05e0 8437 53b2 983a ed42 1a3a 4516 f438
00000240: 9709 663a c2ff 7639 b40e 003a 163e b73a
00000250: 94db 883a 0994 c23a 1247 1d3b 2e2b 353b
00000260: 1680 243b 6dfc 9f35 9f11 c237 f4c7 e936
00000270: 81e9 0937 96ed 8937 4ef0 4336 3834 8337
00000280: 500f 2237 6e20 4035 563e a933 828d d832
00000290: 2589 7232 ab37 ad34 aea6 b933 0031 dc33
000002a0: d366 7435 9445 4d35 1bb5 8035 906e 1d3a
000002b0: 73e9 563a 3c88 6d3a f06d 693a 7a33 6a3a
000002c0: 1e1f 1d3a 5043 583a 2d27 033a e9d4 6b39
000002d0: 3e98 bc37 bc9a 5c39 eda3 ae39 84cd 3336
000002e0: c95c 0639 9a2c a239 abeb 0836 9343 9338
000002f0: c3da 8439 a70d c735 79f2 0537 3f88 2339
00000300: f208 7733 7c08 9d34 5cba d337 fd98 3434
00000310: ef96 0033 a539 0136 88ca 5239 e656 4539
00000320: 4f87 0139 2d33 5539 8f59 5639 5312 1639
00000330: 6771 7e39 7d93 8139 054d 4a39 b8e1 c22a
00000340: 9fc2 002d 9a2a 302d 28e0 7d28 ab87 812a
00000350: b7c6 9f2c 0000 0000 d987 5825 198d 3a28
00000360: 1426 1934 3c02 1a35 323e ad35 61d8 7734
00000370: 3f33 4335 f7b3 a135 ff00 6535 0fec a635
00000380: 9a04 a235 b987 a136 76e1 3a38 a1fa 1139
00000390: 7ce5 3b38 28c5 3237 bad2 9b36 fa95 ae39
000003a0: be8e 9239 7e44 4c39 02a2 e935 16f4 1935
000003b0: 482f 1938 5af8 6c35 70c6 7636 9ed0 7d38
000003c0: 61da ef36 9549 1637 2562 3b37 5011 0d36
000003d0: b568 2b36 f729 9e37 28fc 6b37 92b8 a437
000003e0: 9cd6 f337 3ef3 ca36 04e1 7636 4555 3136
000003f0: f11a 1235 e141 ef34 b9b7 9e37 6e96 6b34

exp_avg f4 [32]
-0.0008932619 6e-45 0.0055851573 -1.878374e-11 6e-45 0.0001141293 7.18958e-08 0.0061658584
-1.7755426e-11 -0.004851766 0.0031661005 -0.003365867 6e-45 0.008150828 0.011606215 -0.00034534253
-0.0058231726 0.0050277086 6e-45 -0.0035799448 0.0075821066 0.0072753965 -9.322586e-05 5.0860145e-29
1.0727577e-12 -0.005421025 -0.0012655294 -0.0035166412 0.0053810123 0.010327615 6e-45 -0.025818551
00000000: cb29 6aba 0400 0000 b203 b73b 3939 a5ad
00000010: 0400 0000 b458 ef38 2265 9a33 f80a ca3b
00000020: aa2d 9cad 90fb 9ebb 5a7e 4f3b e195 5cbb
00000030: 0400 0000 0d8b 053c fe27 3e3c 170f b5b9
00000040: 50d0 bebb 7abf a43b 0400 0000 829d 6abb
00000050: 5273 f83b 7366 ee3b 4182 c3b8 1ff2 8010
00000060: 2bfa 962b dba2 b1bb 1fe0 a5ba 7377 66bb
00000070: 3453 b03b 2835 293c 0400 0000 6d81 d3bc

exp_avg_sq f4 [32]
0.000115804156 2.6910002e-12 0.0010149649 4.2601914e-06 2.3801262e-14 3.382316e-05 7.48056e-05 0.00052994955
2.33937e-06 0.002430851 0.00013035313 0.00026086555 7.3699364e-13 0.0015263623 0.0032200746 0.0019841273
0.0044203443 3.8875343e-05 6.628435e-06 0.001077052 0.00046248373 0.0004259767 0.00030251362 6.760985e-12
2.0405355e-06 0.0013037064 0.000119109056 4.809233e-05 0.0012856125 0.004100131 1.021153e-11 0.0043211635
00000000: e2db f238 c05c 3d2c 9208 853a c4f2 8e36
00000010: f961 d628 57dd 0d38 f3e0 9c38 50ec 0a3a
00000020: 12fe 1c36 ea4e 1f3b 67af 0839 c8c4 8839
00000030: fd71 4f2b 3810 c83a e307 533b 2208 023b
00000040: 89d8 903b 150e 2338 d369 de36 de2b 8d3a
00000050: 8479 f239 a055 df39 b19a 9e39 8ae1 ed2c
00000060: 22f0 0836 21e1 aa3a 30ca f938 bfb6 4938
00000070: ff81 a83a 645a 863b a5a4 332d 8c98 8d3b
