23.04.27/Mnist/src/checkpoint/model_10.pt (torch, 609717 bytes, 18 tensors)

linear.weight f4 [10, 3136]
00000000: bea6 b63b 76ae 34be 3943 91bd 0b15 953d
00000010: 672b 62bd 8484 7f3d eaf9 c5bc 903a 9e3d
00000020: 61fd 4ebd 319b eabd b67b a4bd 918e 9c3c
00000030: 7b2e f4bc ed53 e03d 789a c03c df34 a0bb
00000040: c7b3 253e d0b6 7cbd e75a 073e 3afa 893d
00000050: 3a67 093e 9d5d 21be 8339 71bd 0653 863d
00000060: 8fa7 183e af75 2ebd 23cb 3b3c 2021 733c
00000070: f3a0 bf3d b264 1ebd 38dd e8bc 1aea ec3d
00000080: 46d4 11be aafd a5bc da1e 1dbb 1754 fcbc
00000090: 3089 ab3d 7742 3b3d 3dbe 3fbe f058 cdbd
000000a0: 0d34 8dbd b642 c6bd ff78 b4bc 0aa9 bdbc
000000b0: 1fc2 103d 4141 3cbe 4277 d3bd bf8c 20be
000000c0: ed92 3b3c ce27 df39 6301 803c f19a 1dba
000000d0: 3f35 933c d2c0 813c 372d 833b d6d9 3abd
000000e0: f7cb c6bc df76 8f3c 9535 1a3c 28ca 5b3d
000000f0: 8744 d03c 8cf5 373b 5441 8bbd 9fca 22bd
00000100: 6d45 47bd fcca 083c 43fb 573d c148 193d
00000110: d1c2 3abd fcc6 b53d 2f3b dabc b631 6cbc
00000120: 91e2 533d b0d2 8ebd b770 cabd d6ba 5f3d
00000130: 7ebc 763c 47aa 883c a6d7 e3ba a968 41bb
00000140: 5a4a 00be fde1 8abc 9636 773c ab40 ef3c
00000150: a8e0 febc 5760 24bc 299e 043d 51e3 003d
00000160: af7a 2c3d 393d 9c3d 29e8 d03d 2933 3ebc
00000170: 6cfa f83b 1752 8f3c 143a 853c f425 d93d
00000180: f182 163d e3a3 11bd e8df 3abd 4fd8 5abd
00000190: 0007 6abc 1ffa 3cbd e4bf f83b 9884 793c
000001a0: f232 c33c 14e0 0f3c 3a27 4d3d 2b5d 0b3d
000001b0: 0db0 19bc 148c 4a3d 3631 953c 7471 83bb
000001c0: a451 08bd 2a84 333c cefc 763d b2b1 263c
000001d0: 45b0 3e3c 0432 f43c 8b8d 86bc d1ce 973c
000001e0: d183 9c3d 111e 13bd f924 e5bd d770 8bbd
000001f0: 478f e63d 61b2 823d 7998 46bd 598f 643d
00000200: cdd0 3f3d 8028 8dbd 9f6b 20be 27bd a4bd
00000210: 0168 84bc 4815 fbbc 9b61 c23d d6aa b73d
00000220: 1e41 8f3c 3f00 b1bd ec2b 0cbd 236d 81bc
00000230: fcd2 043c 1769 f0bc eea8 913c 3296 55bd
00000240: 0d07 48bb 11ec 4dbd f262 22bd b44d 1cbd
00000250: 9b1c 713d bf2b 58bd 1a1b a3bc 72b1 0cbc
00000260: 703b 1dbd 9ce8 49bc cb54 723c b573 7c3c
00000270: 5ef4 99bc a576 e23d 49f3 313d 6a37 9abd
00000280: ef5c 55bc c3ca d33c de77 703d 0278 843d
00000290: 9fb0 d23d a72c 4cbe c662 04be 3be8 7fbd
000002a0: 7aac a83b 9a7e 9abc 5457 323c 6155 3abe
000002b0: 1759 a9bd 8cc4 d0bd 6e2a 7fbe 1022 a73b
000002c0: ed1c 14be 06d6 49bd b42a 01bd 25c6 c33c
000002d0: 191b 62bd 8842 afbd df86 0fbd 5451 88be
000002e0: cae4 29be 7801 22bc 8ded 50bd 9f51 fb3d
000002f0: 6124 ba3a 62d1 343d 949a 2f3d eb0b 46bd
00000300: 84cc 05bd a9d8 cbbc af2d 343d 4d78 9d3c
00000310: df95 8e3d 44e9 d23d 0811 0abd 8faf d5bc
00000320: 7a11 453d 0830 25bd 758b d63c d314 cf3d
00000330: 65ae 39bb 240b 92bd 7746 29be 6c67 16be
00000340: 0a10 98be 9a04 c8bc 7356 7f3d 134d 0fbd
00000350: 585c 24bd 0756 883c c24c 87bd ce83 37be
00000360: 2826 8dbd 8d7e eebb e3ae 90bc 939d b4bb
00000370: 1c0a fb3d a458 533e 7248 453e fbf6 8138
00000380: 682b e63c c386 91bb 01a8 a2bd 223d 413e
00000390: 2218 5b3e a52a 6f3d 7176 fb3d 6b7d 6c3d
000003a0: a5e3 4fbd 7d95 8abd 36be 25bd 9bbf 7a3d
000003b0: d1d6 f7bc dc76 96bd 793c aa3c 3b2f d8bd
000003c0: e47a 96be 4128 e8bd a67d 6fbe 2176 a03c
000003d0: 6a51 00be 4568 08bd 483d aebb 5c57 8cbd
000003e0: 3b51 5e3d dc6d c6bc b964 00bd 5c20 e63c
000003f0: a83f 163b ac5b bb3c dda1 9e3c 8f83 1cbd
0.0055740764 -0.17644677 -0.070929 0.07279404 -0.055217173 0.062382236 -0.02416702 0.07726014
-0.05053461 -0.11455382 -0.080314085 0.01911095 -0.02980732 0.109535076 0.023511156 -0.004889115
0.16181861 -0.06169778 0.1321827 0.0673718 0.13418284 -0.15758367 -0.058892738 0.06558804
0.14907669 -0.0425927 0.011462006 0.014839441 0.093568705 -0.03867025 -0.028425798 0.11568089
-0.14241132 -0.020262558 -0.0023974688 -0.030801816 0.08375776 0.045717683 -0.18724914 -0.10026729
-0.068946935 -0.09680693 -0.022030352 -0.023151893 0.03534138 -0.18384267 -0.10325481 -0.1567869
0.011448604 0.0004256353 0.015625661 -0.0006012163 0.017969726 0.015839014 0.0040031928 -0.0456179
-0.02426718 0.017512737 0.009412189 0.053659588 0.025423301 0.0028069941 -0.0679957 -0.039744016
-0.048650194 0.0083491765 0.052729856 0.0374229 -0.045595948 0.08875844 -0.026639549 -0.014416149
0.051729742 -0.06973779 -0.0988478 0.05462154 0.0150595885 0.016682757 -0.0017382994 -0.0029511845
-0.12528363 -0.016953463 0.015088698 0.02920564 -0.031112984 -0.010032735 0.032377396 0.031466786
0.042109188 0.07628865 0.10200531 -0.011608877 0.007598212 0.017495198 0.016263045 0.10602942
0.03674597 -0.035556685 -0.04562369 -0.053428944 -0.0142838955 -0.04613697 0.0075912345 0.015229367
0.023828004 0.008781452 0.050086237 0.0340244 -0.009380353 0.049449995 0.018211942 -0.0040113274
-0.033280984 0.010956803 0.060299687 0.010174202 0.011638706 0.029809006 -0.016424915 0.018531235
0.076423295 -0.035917345 -0.111886926 -0.06808632 0.11257797 0.06381679 -0.048485253 0.05580077
0.046829987 -0.068924904 -0.15666054 -0.080438904 -0.016162874 -0.030649796 0.09491273 0.08968131
0.017487105 -0.08642625 -0.034221575 -0.01579911 0.008106943 -0.029346986 0.017780747 -0.05214519
-0.003052178 -0.05027396 -0.039645143 -0.03816004 0.05886517 -0.052776095 -0.019910384 -0.008587228
-0.038386762 -0.012323525 0.014790724 0.015408446 -0.018793281 0.11057786 0.043444905 -0.07530101
-0.013022645 0.02585352 0.058708064 0.06468202 0.10287594 -0.19938909 -0.12928304 -0.06247733
0.005147514 -0.018859196 0.010885078 -0.18196632 -0.08268946 -0.10193738 -0.2491853 0.005100496
-0.1446416 -0.049276374 -0.031534865 0.023898194 -0.055201624 -0.08557612 -0.035040732 -0.26624548
-0.16591182 -0.0098880455 -0.051007796 0.12271427 0.0014201516 0.044144996 0.042872027 -0.04835121
-0.032665744 -0.024883585 0.04398888 0.019222403 0.069621794 0.10298398 -0.03370765 -0.02608469
0.04811237 -0.04032901 0.026189545 0.10111394 -0.0028332707 -0.07131031 -0.16530786 -0.1468789
-0.29699737 -0.024416257 0.062338304 -0.034985613 -0.04012713 0.016642584 -0.06606437 -0.17921373
-0.06892043 -0.0072782696 -0.017661517 -0.0055119484 0.122577876 0.20639282 0.19265917 6.197203e-05
0.02809687 -0.0044411137 -0.079422005 0.18870977 0.21395925 0.05839028 0.1227845 0.057736795
-0.050754208 -0.06766794 -0.040464602 0.061217885 -0.0302538 -0.073468894 0.020780789 -0.105558835
-0.29390633 -0.11335803 -0.23387775 0.019587578 -0.12531057 -0.033302564 -0.005317364 -0.068526
0.054276686 -0.024222307 -0.031346057 0.028091602 0.0022926126 0.022870861 0.019364292 -0.0382114

linear.bias f4 [10]
00000000: 489e 423d 7aa6 583d ad5c 113d f0cd 01bd
00000010: 3177 1abd af7f f13b 06c9 80bc 953c cdbb
00000020: 446f 11bd da67 6fbb
0.04751423 0.05289314 0.035488773 -0.031690538 -0.037711326 0.0073699574 -0.015720855 -0.0062633255
-0.0355065 -0.0036530406

layer1.0.weight f4 [32, 1, 3, 3]
00000000: 208e 26be 6c09 9c3e cd0f e63d 1be6 933e
00000010: 77ee 39be 0f3c 923e b6df 233c 8688 fcbe
00000020: c93e 3cbe 9d2c 073e b507 d13e dfb5 aa3d
00000030: dd24 6c3e 050b c43e 45b4 8a3e 30bb 18bf
00000040: 52bb 1cbf 3ab2 97be 14cd 9a3d 498d bc3e
00000050: bbae 9c3e e8e5 f53e 9952 6cbb b68e 153e
00000060: fcd5 813e 42f1 03bf ad12 abbe 2b94 15bf
00000070: 68ed afbe acc0 003e 38af eebd fa0f 7bbd
00000080: a77d 93bd 8f2a 83be 50d0 c53c 4526 c03e
00000090: b5b4 8e3d 21e3 c23e fba4 81be e110 d9bd
000000a0: f2e5 873e a60a 53bc 430f a43c d234 503e
000000b0: ad51 7d3e 67a9 e9be eec5 c9bd 19b9 523e
000000c0: b126 10bf 44b4 883d 84a7 123f 89c8 2bbe
000000d0: 4f3f 3a3e f75f 053e 4a09 863e c947 9e3e
000000e0: ea22 00bd c16b 093e a8b7 863e 107e 06bf
000000f0: 6113 d13e dafa 8d3d db4e 49be 9ad1 e03e
00000100: 8002 843b 5cc3 d9be 0d05 7a3d 469d c33e
00000110: 53a9 f2be 332f e83e 3c15 82bd 43c6 b0be
00000120: b60d babe a292 a7bd c27f d43e 4d47 8b3d
00000130: fa2b db3e f959 04bd 8139 f7bc 0338 cabe
00000140: 6955 5d3e a430 b33d ed35 ac3e 3fc8 8dbe
00000150: bf99 57be 1e8a 17be 9d60 09be 2dbc f0bd
00000160: 6f31 033d ada4 843e cd4d 303c d7b1 f63d
00000170: 402d cfbc e705 58bd 88a7 c4be 70dc 2e3e
00000180: 4304 cf3e 3177 b6be 7924 223e 4249 e53e
00000190: 4be9 af3d 0ad0 fcbe 3b8d 053f 96d7 10bf
000001a0: 7ae5 f2bd f827 24bd 7fa4 2cbf 1230 5d3e
000001b0: 2339 f3be ca62 d7be 37cc cc3e 13ad dbbe
000001c0: ba11 b03d fd67 a93e f181 1c3e a285 e73e
000001d0: 9e55 a03d 2767 113e 1180 b83e fc53 2bbe
000001e0: bea4 053f 68a9 6bbd a89f 0fbf 350a b43e
000001f0: 8ffd d4be dfd1 06be fd98 02bd 7e28 e7be
00000200: 779e 863e 8243 e2be 440f d2bd fcd9 003f
00000210: 4cc0 3bbe c59b d33e a088 c33d 1830 d83e
00000220: b8a0 3c3e 90f5 9d3e ac14 ebbe 9169 a13e
00000230: aa1f ec3a ff10 3cbf 9542 1cbe d274 8bbe
00000240: 6869 1abf a44f ffbe 77a4 343d 7682 dbbd
00000250: 1bff 593e 79a9 633d fa20 013f 6664 3d3e
00000260: 225f 723e 473a 76be 7ccb feba aec9 ae3e
00000270: ceb0 debe ddf7 34be e221 d13e e058 91be
00000280: 8e7c d93e 1e70 253e 15f8 4dbe 8b32 fd3c
00000290: b6d5 cabe fde3 12bd 2384 463e eb5e 153e
000002a0: 7c61 d33d e1a4 9f3e f79c f2bc 7159 bc3e
000002b0: e4d9 383e 0b58 b53e 81f2 183d 2b7f 913e
000002c0: f990 a2be b5b4 32bf 9d8a 61bd 76b6 11bd
000002d0: 7de2 db3e c29d c63e b655 48be a40b 583e
000002e0: 9339 0cba f592 44bd bf3e 0ebe aaa3 15bf
000002f0: bab0 73be e673 cb3e 10db 6cbe 5af8 15bf
00000300: ae4e bcbc 1d59 57bf 2824 143d dd27 5dbf
00000310: 9482 93be 685a ea3e 6370 87be cf1d 463e
00000320: f6c2 f2bd 90e2 3d3e a79f b33e a50e 623e
00000330: 6810 a93e 335f 573e 841c 333e bdf5 623e
00000340: 041c ad3e 0d16 c7be ddc5 50bc 095d 4f3e
00000350: 411f 99bd f42c 94bd a267 b13e 20b1 c23e
00000360: 20d0 6bbe 3df4 d1bd a573 24bd f824 b63d
00000370: c866 983e 4c37 36bc 8443 34be e485 aa3e
00000380: 8735 10be 28be 6d3e a3dd 813e 988a cdbe
00000390: 2348 08be 02d5 f2be 2adb f33d 910a 9bbe
000003a0: ac6d 223e 6525 fa3e 4bb5 c13e 32a9 24bd
000003b0: c17b ef3d 8807 36bd aab3 523e 6617 db3e
000003c0: 903d 7fbe ed8e 02bd c692 cf3d 320c cc3d
000003d0: ad20 db3e 6cd3 eebd e5c8 b3be c3b8 cb3e
000003e0: 8c22 a63e 9abf 38bf c64b d5be 7399 eb3e
000003f0: c29e ca3e 1904 23be 94e5 17bf b020 0f3f
-0.16265154 0.30475938 0.112334825 0.28886494 -0.18157373 0.28561446 0.010002067 -0.4932291
-0.18383326 0.13200612 0.40826192 0.083354704 0.23060937 0.38289657 0.2709066 -0.59660625
-0.6122333 -0.29628164 0.07558647 0.36826542 0.3060206 0.48026967 -0.0036059974 0.14605221
0.2535857 -0.51540005 -0.33412686 -0.5842921 -0.34360814 0.12573498 -0.11654514 -0.061294533
-0.07201701 -0.25618407 0.024147183 0.37529197 0.06968061 0.3806391 -0.25321183 -0.105989225
0.26542622 -0.012880957 0.020026809 0.2033265 0.24738188 -0.45637056 -0.09852205 0.20578422
-0.5630904 0.06675008 0.5728686 -0.16775717 0.18188213 0.13024889 0.26178962 0.30914143
-0.031283297 0.13420011 0.26311994 -0.52536106 0.40835097 0.06932612 -0.19658987 0.43909913
0.0040286183 -0.4253186 0.061039973 0.38205928 -0.4739481 0.4534851 -0.063517064 -0.34526262
-0.36338586 -0.08182265 0.4150372 0.06800709 0.4280699 -0.032312367 -0.030178787 -0.3949586
0.21614613 0.08749512 0.33634892 -0.27691838 -0.21054743 -0.14798781 -0.13415761 -0.11754642
0.032029565 0.25906888 0.010760737 0.12045639 -0.025290132 -0.052740004 -0.38409066 0.17076278
0.4043294 -0.3563781 0.15834226 0.44782454 0.08589419 -0.4937747 0.52168626 -0.5657896
-0.118601754 -0.04007718 -0.674385 0.21600369 -0.4750453 -0.42067558 0.39999554 -0.42905483
0.08597131 0.3308715 0.15283944 0.4521914 0.0782883 0.14199506 0.36035207 -0.16731256
0.522045 -0.057534605 -0.5610299 0.35164037 -0.415997 -0.13165997 -0.031884182 -0.4514808
0.26292774 -0.4419213 -0.10256818 0.5033262 -0.18335074 0.4132978 0.095475435 0.42224193
0.18420684 0.30851412 -0.4591421 0.31525853 0.0018014808 -0.73463434 -0.15259774 -0.27237564
-0.6031709 -0.49865448 0.04410216 -0.10718243 0.21288721 0.055581544 0.50440943 0.1849533
0.23669103 -0.24045669 -0.0019439305 0.34138244 -0.43494266 -0.17672677 0.40846163 -0.2838812
0.4247784 0.1615605 -0.20114167 0.03090789 -0.39616174 -0.035861958 0.19386344 0.1458699
0.10321328 0.3118048 -0.029615862 0.36786988 0.18051869 0.35418734 0.037340645 0.28417334
-0.3175123 -0.6980699 -0.055063833 -0.0355744 0.42946234 0.38792235 -0.19563946 0.2109819
-0.00053491554 -0.04799171 -0.13891123 -0.58452857 -0.23797885 0.3973686 -0.2313044 -0.5858208
-0.022986736 -0.8412035 0.036167294 -0.8638895 -0.2881056 0.457721 -0.26452932 0.19347309
-0.11853592 0.18543458 0.35082743 0.22075899 0.3302033 0.2103241 0.17491347 0.22164054
0.33810437 -0.3888401 -0.012742487 0.20250334 -0.07476664 -0.07235137 0.34649378 0.3802576
-0.23028612 -0.10251663 -0.04014935 0.0889377 0.29765916 -0.011121582 -0.1760388 0.33305275
-0.14082919 0.2321707 0.25364408 -0.401448 -0.13308768 -0.47428137 0.119070366 -0.302815
0.15862149 0.48856655 0.37833628 -0.04020042 0.11693526 -0.044440776 0.20576349 0.4279129
-0.24925828 -0.031874586 0.10135417 0.099632636 0.42798367 -0.11661419 -0.35114208 0.397894
0.32448232 -0.7216736 -0.41659373 0.4601551 0.39574248 -0.15919532 -0.59334683 0.5590925

layer1.0.bias f4 [32]
00000000: 59dc f33b 8bd0 28bb 7577 37be fe3a 7b3e
00000010: 6f17 abbd 550c aebc acd7 2dbe 6b56 30bd
00000020: c223 a8bd 2113 42be 18c1 3fbd 4046 4d3c
00000030: 4fd0 74be 312c 0cbc e0b4 8fbd 2ab2 2c3e
00000040: 84cc 73bc 986f 22be 9726 e43a b5d9 563b
00000050: 742d 61bc ac44 a53e be5a 2abe 6389 e0bd
00000060: 2e5d c33c 4627 50bb a6cc 1dbe ce85 84bb
00000070: d76a 38be 4e08 9bbd 3c76 8e3e 3ef4 f63c
0.007442039 -0.0025759067 -0.17916663 0.24534222 -0.08354079 -0.021246115 -0.16976804 -0.043051165
-0.08209945 -0.1895261 -0.046815008 0.012528956 -0.23907588 -0.008555458 -0.07016921 0.16864839
-0.014880303 -0.15862882 0.001740652 0.0032783572 -0.013743747 0.32278955 -0.16636178 -0.109637044
0.023848142 -0.003176169 -0.15410098 -0.004044271 -0.18009506 -0.07569943 0.2782458 0.03014576

layer2.0.weight f4 [64, 32, 3, 3]
00000000: 5740 debd 4e42 46bd 0cec b23c eb6d 4b3d
00000010: 9a03 60bd d59f 4d3c a275 c3bd a8cb 84bc
00000020: d492 f83c c2de 34be a455 20be 00fa 903c
00000030: da1f 1fbd 5934 4cbe 56a2 7ebe 6208 d4bd
00000040: e52e 9ebd 0c8e 8ebe 40e2 6ebd 8800 333c
00000050: f03f 87bb 538b 2cbd 5b29 513c 409f 3abe
00000060: 99cf 28be e493 4d3d 0ad4 2abe 7f23 b53c
00000070: e35e aa3c a7ca fdbc 873e 133d c24a 9abc
00000080: 7c77 c63d a4ea b33d c432 ccbd 1e0a c13d
00000090: 7327 e63d fd66 78bd 00e7 06be cc7c 373d
000000a0: 95ff 98bc a5fb 7fbd 6cb1 173d ad4a 963d
000000b0: 3af0 37bd b430 b73d c644 5dbe 51fc b7bd
000000c0: 32fe 323e c00e 63bd 5085 803e c2cd 523e
000000d0: eaab 18be 2f19 083e 3477 693d 7e2d 873d
000000e0: 43ad a0bd 3876 6a3c 3078 fe3d ba48 53be
000000f0: 5226 d0bc 04fd 2b3e ffc7 3cbe c708 bc3c
00000100: 461a 973d 759b 1bbe 9860 3e3d 2296 483e
00000110: c71c 0abc bc53 0f3e 986f 9c3e edc0 2cbd
00000120: 11d5 56bd 97be 7bbe 518c 10be f39e 003d
00000130: f804 74be 262e 06bd c7ee d53d 982c 40be
00000140: 8265 293e 32d9 833c 925b 983c 54cc c83d
00000150: ab40 723d aa62 e83d be8a 973d 3b54 113d
00000160: da07 05be 7b3a 9dbd e8e9 933d 9630 2e3d
00000170: ba61 58bd 58f5 7cbd 0b7d b5bb eb6f c03d
00000180: b3ed 9dbc 1a90 4cbd e279 7f3d e156 12be
00000190: 60be 463d e59c febd 0c0d 5bbd ce32 893d
000001a0: 0f36 bb3d 60f1 833b bb95 573e 24c2 203e
000001b0: 9c1f 00bd b644 a8bd 4685 92be 82f0 c0bc
000001c0: d612 16be 9208 9f3a 177f 523d 14a4 83be
000001d0: d8ad 993d 2dc8 05be 77bc e13c 12b2 c0bd
000001e0: 04df 63bd c6f5 0f3e 7cd2 95bd c523 773b
000001f0: 788a 8b3e d484 273d a461 90bb 58bf 51be
00000200: 445b a4bd 2534 303e abe5 13be e7f3 1d3e
00000210: 7370 9c3e 9a2a 45be 58e8 db3d e872 0bbd
00000220: 93c8 b9bd ff7a ed3c 4d80 d23b bf2c 35be
00000230: d24d 5abd d9be 593d c658 8dbd 5d82 eebd
00000240: e194 a13c 5800 22be 2823 7bbe f9e2 ef3c
00000250: af0f ecbd 7b84 123d 670e 323b b158 dcbd
00000260: 3f3e 5ebd 8998 f9bc 1d1b 21be a841 a9bd
00000270: ea28 4b3e 40e5 c3bd 55be 4c3e 97db 833e
00000280: bec6 61be 7380 523e ebd9 1c3d 7f5a b9bd
00000290: 0d10 1cbe a776 f63c 70e9 bb3c f998 11bd
000002a0: 607c c33d ce9a 253c df2d a4bd d4c1 babd
000002b0: 0794 5cbd dfc4 4dbd 7ced d53d 03d7 0abd
000002c0: e62c 72be 6427 27bc 57a0 98bd a6f3 fcbd
000002d0: bf31 03be d774 cebd fe68 d4bd 39e0 2f3d
000002e0: 553a 01bc 8e9e 74bd dcf0 9bbc 9439 313e
000002f0: 31d3 1bbe 700f 213c 77f6 d83b 3d78 cc3d
00000300: 18c3 243c b8e6 cebd be99 113c bc48 2dbc
00000310: 9939 873d 14af 293c 7a5d 07bc b583 4fbb
00000320: 0c64 05be ee5d 31bb e562 e43c c268 74bd
00000330: 841b ad3d cd58 243d f423 a6bd e4cb 0c3d
00000340: 28b7 7abd bba4 aebd c4dd db3d 490c 31bd
00000350: 9d6a 06bd 7a3d b93d 46de 353d bf0d 29bd
00000360: 0efc 883d 2118 f6bc 867a ecbd bc8c 563d
00000370: 9680 c4bd 710d d6bd 6685 0b3e d0ac 863d
00000380: 1edf 17bc a35f 94bd bef6 72be ccfc df3d
00000390: fcd4 233c a0a5 b9be e715 023e e853 d23d
000003a0: d942 edbd d494 e1bc 5f8a 42bd f271 13be
000003b0: 86b8 6abd afa0 f73d cabd 80bd 2267 8cbd
000003c0: 7bcc 1e3e 2631 69bd dae8 b43d afed abbc
000003d0: 2a9f 49be 78c6 b93d 3b03 263e 924f 6ebe
000003e0: 8a48 243e f265 df3d 61d1 93be 892a ef3d
000003f0: d309 74bd 7dfd ed3b ed45 83be 7c16 c23d
-0.108521156 -0.048403077 0.021841072 0.049665373 -0.054690935 0.012550314 -0.09543921 -0.016210392
0.03034345 -0.176631 -0.1565767 0.017697334 -0.038848735 -0.19941844 -0.24866614 -0.103531614
-0.07723788 -0.27842748 -0.058321238 0.01092542 -0.004127495 -0.042125057 0.012766208 -0.18224812
-0.16485442 0.050189868 -0.16682449 0.022111652 0.020797199 -0.030980421 0.035948303 -0.018834475
0.096907586 0.087849885 -0.0997062 0.09425758 0.11237993 -0.060645092 -0.13174057 0.04479675
-0.018676559 -0.062495846 0.037034437 0.07338462 -0.044906832 0.08944836 -0.21608266 -0.089836724
0.1747978 -0.05543399 0.2510171 0.20586303 -0.1490933 0.13290857 0.056998447 0.06600474
-0.07845547 0.014310412 0.12425268 -0.20633212 -0.025408898 0.16795737 -0.18435667 0.022953404
0.07378058 -0.15196021 0.046478838 0.19588521 -0.008429713 0.13996786 0.3055389 -0.042176176
-0.05244929 -0.24584423 -0.14116026 0.031401586 -0.2383002 -0.032758854 0.10445934 -0.18767011
0.16542628 0.016094778 0.018598352 0.098045975 0.059143703 0.11346944 0.0739951 0.03548072
-0.12991276 -0.0767717 0.072223485 0.042526804 -0.052827574 -0.061757416 -0.005538588 0.09396347
-0.019278383 -0.049942113 0.062372096 -0.14290954 0.0485214 -0.12432269 -0.05347924 0.06699143
0.0914117 0.004026577 0.21053211 0.15699059 -0.031280145 -0.082162306 -0.28617305 -0.023552183
-0.14655623 0.0012133291 0.051390734 -0.2571112 0.07503861 -0.13064642 0.027555687 -0.09408964
-0.055632606 0.14058599 -0.07315537 0.003771053 0.2725408 0.04089816 -0.004406171 -0.20483148
-0.0802522 0.17207392 -0.1444308 0.15425073 0.30554542 -0.19254532 0.107376754 -0.03404513
-0.090714596 0.028989313 0.006423986 -0.1769285 -0.05329687 0.053160522 -0.06901698 -0.116459586
0.019724311 -0.15820444 -0.2452513 0.029283034 -0.11526429 0.035770874 0.002716923 -0.10759104
-0.05425858 -0.030468242 -0.15732999 -0.08264476 0.19839826 -0.0956521 0.19994481 0.2575347
-0.2204847 0.20556812 0.03829376 -0.09050464 -0.15240498 0.030085875 0.02293846 -0.035546277
0.09545207 0.010107709 -0.08016562 -0.09119001 -0.053852107 -0.05023658 0.10445687 -0.033896457
-0.2364994 -0.010202263 -0.074524574 -0.1235116 -0.12811945 -0.10080879 -0.10371588 0.042938445
-0.007887443 -0.059721522 -0.01903575 0.1730712 -0.15217282 0.009830341 0.006621178 0.09983871
0.01005628 -0.101026 0.008886753 -0.010576423 0.06602783 0.010356683 -0.008262033 -0.0031664197
-0.13026446 -0.0027064043 0.027879188 -0.059670217 0.08452514 0.04012375 -0.08112326 0.034374133
-0.061209828 -0.085275136 0.10735658 -0.043224607 -0.032816518 0.09044929 0.04440143 -0.041272875
0.066887006 -0.030040802 -0.11546807 0.05238031 -0.09594838 -0.104517825 0.13625106 0.0657593
-0.009269504 -0.07244804 -0.23726937 0.10936889 0.00999951 -0.36259174 0.12703668 0.1026991
-0.11585016 -0.027536787 -0.047495242 -0.14398935 -0.05730488 0.12091195 -0.062861994 -0.068556085
0.1550769 -0.056931637 0.088334754 -0.02098736 -0.19689623 0.09071058 0.1621217 -0.23272541
0.16043296 0.109081164 -0.2887068 0.11678035 -0.05957968 0.007262884 -0.25639287 0.09476945

layer2.0.bias f4 [64]
00000000: 17b2 bebc 3222 2ebd 9c55 f3bb d515 5ebc
00000010: 6102 c2bd c53c 30ba 3bd7 58bd a014 ab3b
00000020: 3bf9 0fbd becd 6f3c 8f61 87bd 3a01 23bd
00000030: d307 4cbd 9a86 1a3c 11b1 3fbd 5022 87ba
00000040: b38a c6bd d602 5ebd 5787 9bbc ac84 4c3c
00000050: 4bdd a3bd 625d b4bd 746a bbbd 2556 93bb
00000060: 42dd a1bd ca07 97bd 3536 a33c c853 dabd
00000070: da38 bfbd b102 cfbc de41 72bd fba8 d1bc
00000080: 5158 b3bd 9e1c c2bc 1269 abbd 3636 503c
00000090: 3f09 0fbd a166 8ebd c20a 4b3d 078e 86bd
000000a0: fe46 cfbb 1d0e 48bc bf32 91bc 0791 e4bd
000000b0: 39aa 98bd 7105 393c 837b 6dbd 15df 163d
000000c0: ab5d 02be b051 c9bc 3a01 d7bd 710d 54bd
000000d0: 5b49 3ebd ec18 75bd 53f9 163d 22ce 2f3b
000000e0: fb19 efbd 668f 8ebd 82df 05bd 2f82 05be
000000f0: 0c89 09bd 865d 8abd 69a7 b93b 02ad 00bd
-0.02327828 -0.04251308 -0.007425977 -0.01355501 -0.0947311 -0.00067229226 -0.052939635 0.0052209646
-0.035149794 0.014636455 -0.06610405 -0.03979609 -0.04981215 0.009431506 -0.046799723 -0.0010309909
-0.096944235 -0.054201923 -0.018985434 0.012482803 -0.08001193 -0.08806874 -0.09151164 -0.004496353
-0.0790353 -0.073745325 0.019923309 -0.10660511 -0.093370155 -0.025269838 -0.059144847 -0.025593271
-0.087570794 -0.023695286 -0.0836965 0.012708237 -0.034920927 -0.06953169 0.049570806 -0.06570058
-0.0063256016 -0.012210396 -0.017724393 -0.11160474 -0.074543424 0.011292801 -0.057979118 0.03683384
-0.12731044 -0.024575084 -0.10498281 -0.05177063 -0.046456676 -0.05983822 0.036858868 0.0026825746
-0.11674877 -0.06960945 -0.032683857 -0.13037942 -0.033577964 -0.067561194 0.005665709 -0.031414993

exp_avg f4 [10, 3136]
00000000: 7b66 ff30 8b24 afb5 9fa0 5f37 ba83 0bb7
00000010: 9731 51b9 9a96 94b6 77fb 9b35 a947 9534
00000020: e3b6 94b6 562a edb8 c5ed 1bb9 57a5 02ba
00000030: 7998 1bb8 a845 7ab8 0c53 4136 5769 9db7
00000040: cb84 31b9 ce06 0cb9 37fc 25ba 253f fb37
00000050: 4066 b0b8 bf22 7ab8 6333 3cb6 0d08 00b9
00000060: 73c4 b9b9 8f75 2fba e963 c137 8503 07b6
00000070: 390a 1db6 cfc0 9ab7 d65d f3b7 3054 04ba
00000080: 3524 f1b9 ae8b 38b6 ba4e 8837 8a51 9134
00000090: 7215 73b6 8e35 be36 cfa2 af37 255e adb8
000000a0: c5af bdb6 76c9 0036 050a 1532 5bb1 6331
000000b0: 068b c633 cc75 7637 d3bb 9d31 04c3 a22f
000000c0: 7933 fa28 0400 0000 01a8 881d 2307 3332
000000d0: e2d8 c132 ce95 7d34 48a5 ea32 d595 122b
000000e0: 98f7 bb28 f58a c832 d7b4 9133 bd3d a4b7
000000f0: e3a0 0fb9 30dc 31b7 6a72 e335 e570 9d32
00000100: 93e0 7836 2d79 a0b7 27f8 90b8 0452 3eb9
00000110: b4d6 76b8 ae2e f2b7 3af3 392e 0483 6136
00000120: 7ac9 5cb8 1b49 95b8 ed0f 48b6 8e09 9bb8
00000130: eb55 91b7 384a 3fb3 d61a 5ab8 e961 52b8
00000140: ba62 b4b8 2ef0 8db8 d0f8 2ab8 c2ff 8fb6
00000150: 0741 81b2 28ae e9b6 498f 00b9 68a9 b9b9
00000160: f0f1 ccb8 9b65 07b6 fa06 cb32 c29c 8928
00000170: a046 1a34 e016 26b8 0930 e4b8 bb72 c7b7
00000180: 8ab1 2e36 304b 802a 93ce ed20 e7e4 d72b
00000190: 790b bb33 587f d2b5 4bcb f1b4 552c 96ad
000001a0: 0400 0000 b199 2431 f237 ac36 267f 3436
000001b0: 91a1 8ab7 d2b4 c8b8 2e12 9235 af29 7200
000001c0: a49b 0b31 ecb2 1bb7 587c 6cb9 edd7 21b9
000001d0: c7f9 4cb9 91be 8fb7 4f11 f415 eb75 59b3
000001e0: 9a56 b3b7 e806 55b9 9872 00b7 6d11 83b8
000001f0: d571 13b7 0ccc a91b 0bdb 6eb3 fb31 05b9
00000200: 65af aeb9 9b4a b9b8 c859 1fb8 29b9 f535
00000210: 161b f51a 6757 5133 cd81 0837 9a97 a4b9
00000220: 79f4 76b8 bcf2 2eb7 c6a0 f134 0400 0000
00000230: e7aa 0128 7d4d db33 7afd f235 6180 8236
00000240: effe f9ae 87e6 5828 0400 0000 0cf5 da2f
00000250: daa1 e735 4949 e9b7 ab65 10b9 8e67 7fb9
00000260: a4b6 5db8 d65e f635 1130 9632 ec95 d6b6
00000270: c5e3 19b9 b989 d4b9 6e9e dbb9 0fb9 e5b8
00000280: 44dd 1cb8 74a7 8633 4538 05b8 4912 0fb9
00000290: fd6f 25b9 c5b6 dbb8 c9ba 9db6 8faa 63b6
000002a0: d848 90b5 fb9d 21b9 9a0f 21b9 3309 e137
000002b0: cd92 f0b7 f9d1 bb35 a974 dd34 83ef a4b5
000002c0: 8b9f 87b6 1321 4336 3d24 a2b8 0310 09b7
000002d0: 46f9 e436 78fe ae33 a5de 4e2d 8863 6434
000002e0: 72e8 9334 f769 9c36 06d4 9f36 65c5 3c35
000002f0: 9586 532e 9e71 d7b2 bca7 3bb1 8f98 a4b2
00000300: adec 58b3 1ba9 0ab2 b3f1 79b3 4eb6 a5b6
00000310: de8b 8630 5967 6336 5507 f134 2a54 feb6
00000320: aa01 c834 60e4 5c32 5633 9db6 d3cd a833
00000330: 73f0 bfb6 228e b5b8 32b7 9237 5f9b f236
00000340: 4bef 91b8 a814 4b36 87ad b435 3bfc 02b7
00000350: d994 64b8 91b7 8db8 ff04 2837 52e5 86b9
00000360: 63cd dab8 eccf f5b7 81e0 1ab7 3ba4 44b8
00000370: bea6 4db8 37ba 43b8 4fc2 a5b9 d4a4 ecb8
00000380: 3191 f4b7 f478 2035 e12b 86b8 544a a036
00000390: ce03 9bb7 a4cd b9b9 a875 ab35 f5f4 9fb3
000003a0: 0189 86b6 08cf 63b7 3bb1 a136 05f4 e9b9
000003b0: d949 34b9 3c48 c837 1348 ef24 e940 9bac
000003c0: f84b fb33 6978 8037 a4c8 69b9 177d 34b8
000003d0: a8cf 8235 d976 9924 9041 cd2f 39cb d536
000003e0: f0fe a736 6a9d dfb7 4dd8 7634 c6ff 1833
000003f0: 9f19 0730 0056 c133 997c 26b7 aa7e deb8
1.8582819e-09 -1.3049151e-06 1.3329233e-05 -8.315716e-06 -0.00019950267 -4.428276e-06 1.1621586e-06 2.7805552e-07
-4.4320345e-06 -0.00011308926 -0.00014870528 -0.0004983744 -3.709688e-05 -5.9669517e-05 2.880758e-06 -1.8764911e-05
-0.00016929505 -0.00013353975 -0.00063318334 2.9950936e-05 -8.4113795e-05 -5.9637005e-05 -2.8044094e-06 -0.0001221003
-0.00035432316 -0.0006693238 2.3053917e-05 -2.0118616e-06 -2.3400773e-06 -1.8448014e-05 -2.9011553e-05 -0.00050479453
-0.00045994078 -2.749944e-06 1.6249123e-05 2.7067682e-07 -3.6222305e-06 5.668676e-06 2.093744e-05 -8.2668186e-05
-5.653101e-06 1.9190752e-06 8.67522e-09 3.3133662e-09 9.245382e-08 1.4690169e-05 4.5906545e-09 2.9606195e-10
2.7777898e-14 6e-45 3.6172612e-21 1.0420794e-08 2.2566784e-08 2.361696e-07 2.7316347e-08 5.2077553e-13
2.0868547e-14 2.3346255e-08 6.784983e-08 -1.9579073e-05 -0.00013697478 -1.06012885e-05 1.6946117e-06 1.8328544e-08
3.70856e-06 -1.9129913e-05 -6.912677e-05 -0.00018150365 -5.885093e-05 -2.8870385e-05 4.228016e-11 3.3603874e-06
-5.2639727e-05 -7.1184906e-05 -2.9811592e-06 -7.392756e-05 -1.7325356e-05 -4.4538154e-08 -5.2000243e-05 -5.0159088e-05
-8.601458e-05 -6.768141e-05 -4.0762883e-05 -4.2915062e-06 -1.5047148e-08 -6.9642156e-06 -0.00012260409 -0.00035412167
-9.7725424e-05 -2.017571e-06 2.3635483e-08 1.5278038e-14 1.4368061e-07 -3.9598788e-05 -0.000108808345 -2.3776074e-05
2.6031362e-06 2.278954e-13 4.028606e-19 1.5340202e-12 8.709953e-08 -1.5683281e-06 -4.5037663e-07 -1.7072713e-11
6e-45 2.3952504e-09 5.1325123e-06 2.68961e-06 -1.6526117e-05 -9.5704236e-05 1.0883139e-06 1.04842e-38
2.0315634e-09 -9.280378e-06 -0.00022553036 -0.00015434595 -0.00019548005 -1.7135668e-05 9.8578123e-26 -5.0631495e-08
-2.137879e-05 -0.00020315836 -7.6560755e-06 -6.2498126e-05 -8.788386e-06 2.8090567e-22 -5.561291e-08 -0.00012702488
-0.00033318545 -8.835384e-05 -3.799217e-05 1.8307811e-06 1.01373385e-22 4.8741096e-08 8.136453e-06 -0.0003139347
-5.8878653e-05 -1.0427724e-05 4.5006726e-07 6e-45 7.197997e-15 1.0212077e-07 1.8104176e-06 3.889247e-06
-1.1368494e-10 1.2040396e-14 6e-45 3.9828085e-10 1.7257946e-06 -2.780989e-05 -0.00013770784 -0.00024357272
-5.2860603e-05 1.8356029e-06 1.7484156e-08 -6.39515e-06 -0.00014676068 -0.00040538402 -0.00041888974 -0.00010954041
-3.7399368e-05 6.270321e-08 -3.1762076e-05 -0.00013644354 -0.00015777345 -0.00010476777 -4.7007093e-06 -3.3924914e-06
-1.0750036e-06 -0.00015413009 -0.00015359969 2.6826374e-05 -2.8678589e-05 1.3993696e-06 4.124934e-07 -1.2288659e-06
-4.0418868e-06 2.9076516e-06 -7.731512e-05 -8.169564e-06 6.8239488e-06 8.148794e-08 1.1759181e-11 2.1270364e-07
2.755001e-07 4.661498e-06 4.763252e-06 7.0322704e-07 4.809538e-11 -2.5080961e-08 -2.7307427e-09 -1.9161488e-08
-5.0506674e-08 -8.071107e-09 -5.8194654e-08 -4.9386063e-06 9.789536e-10 3.3885792e-06 4.4895083e-07 -7.579588e-06
3.7254114e-07 1.2857612e-08 -4.684941e-06 7.860549e-08 -5.7202355e-06 -8.657227e-05 1.7489863e-05 7.2302496e-06
-6.9587106e-05 3.026138e-06 1.3461548e-06 -7.807331e-06 -5.449806e-05 -6.757596e-05 1.0014744e-05 -0.0002572933
-0.00010433306 -2.9303097e-05 -9.231387e-06 -4.6882993e-05 -4.90311e-05 -4.666505e-05 -0.00031616024 -0.000112840586
-2.9154677e-05 5.9780655e-07 -6.397791e-05 4.7770245e-06 -1.8479212e-05 -0.00035439164 1.2774735e-06 -7.448572e-08
-4.0094606e-06 -1.3578458e-05 4.8188062e-06 -0.00044623032 -0.00017193648 2.3875495e-05 1.03771826e-16 -4.4125714e-12
1.1701917e-07 1.531486e-05 -0.00022295356 -4.3031843e-05 9.746191e-07 6.655451e-17 3.7335868e-10 6.371553e-06
5.0066665e-06 -2.6656973e-05 2.2989225e-07 3.5622882e-08 4.9149124e-10 9.002906e-08 -9.923381e-06 -0.00010609378

exp_avg_sq f4 [10, 3136]
00000000: d5b3 fa30 ad00 a733 d8ab 4935 2ab3 1136
00000010: 7238 2736 980c a835 233f 4733 fd35 4d34
00000020: bd0a 2435 2653 0b36 19d7 2436 998c c736
00000030: 38bf 0637 8e8a 8035 4d86 1a35 e857 9a35
00000040: 003c 9d36 2ac0 0836 2635 a436 9bf1 8437
00000050: 7fa8 c736 32fc f234 1b57 0436 251d 2037
00000060: 3661 8d36 fdd1 b736 f849 8237 0063 f536
00000070: cc19 9134 73fa 6f35 419b d436 72a6 a136
00000080: 8fc8 2236 63b3 0c37 882d 0436 26a4 4e33
00000090: 71a8 2333 ac00 7034 6241 a635 4f51 6135
000000a0: fcfc ab35 0f75 a933 9319 c230 b909 aa30
000000b0: b84d e130 0558 0d32 184b 0832 dba6 0532
000000c0: 7da4 aa30 6924 6a2f eb3f ae2e 380b 802f
000000d0: 8b19 8130 f396 b930 44d8 2430 511a 102f
000000e0: 53c9 982e 5c06 5a31 8b97 9c33 eedd c234
000000f0: 6daf fd34 ba24 5534 3c1c 2932 4b8a c02f
00000100: 541c be32 3382 1d35 d405 f035 ed79 ff35
00000110: 2322 0735 907b e732 1b1c 1531 677a a133
00000120: 16bf 0d35 3918 0136 7843 a335 2baa f034
00000130: 65d5 8433 041b d131 27eb 2334 8664 1635
00000140: 3c46 ae35 835a cb35 db2b b235 a13f 3534
00000150: 5db9 7431 1870 1834 00f5 e035 0125 9636
00000160: bcc6 5036 11d4 7935 a74c 3132 221a f22f
00000170: 6639 8933 fadb 4035 7847 f335 46ee 5f35
00000180: ba31 1233 7ea9 8a2e 9bff f530 073f 4a31
00000190: 944c 2433 c3a7 8d33 b8aa 2f33 581f da31
000001a0: 44c9 f630 bb0d 1131 cd8e 4a33 a586 e734
000001b0: 5d37 6d35 04ca ba35 2640 ce34 2c48 c331
000001c0: f1a4 8e31 e169 9035 c504 cb35 52df 1d36
000001d0: df39 4f36 313f dd35 def9 6632 3373 4d33
000001e0: 93c9 9936 40c0 9936 215c cf35 be69 4c36
000001f0: 4b7a c035 0420 b332 02aa b232 faca 0c37
00000200: 98f8 3f37 970b 5535 fef2 a735 b82b f034
00000210: 6ac1 9032 9f6e 9d31 d0ac d835 8443 ad36
00000220: 3004 9835 c98f f234 8680 2634 79b1 e631
00000230: e44f e730 909b 6e32 9221 6d33 a6c9 c233
00000240: c714 5d33 baa8 0c32 6138 eb30 c416 9231
00000250: c32e 5934 6d8b a036 c84a 5137 af52 3c37
00000260: cdc1 5d36 6f33 2134 4e33 0a32 38ea 8536
00000270: 0369 9337 a0e7 bb37 6613 7137 8822 8536
00000280: 05ab 9034 1549 1033 db5b 7536 f712 3737
00000290: 497e 0f37 54c1 0336 ef33 e735 ff3c 1535
000002a0: 7257 0434 f549 3e36 5619 d136 63a6 5c36
000002b0: 211b 8136 9f36 9435 bccc 1033 8db1 d932
000002c0: b97c fc35 aa45 9935 d63d 0137 a40c 0837
000002d0: 9092 8935 8b64 0232 7a26 3132 69f7 4834
000002e0: 74ef 0733 c0b7 2635 bcd7 6734 e115 2032
000002f0: 5992 9b31 9b51 f731 f77d e031 6494 6531
00000300: 8b09 3831 70aa 8d31 78ba d631 d209 8632
00000310: dfdb a631 3824 4933 067b dc33 0e95 c233
00000320: 1597 e232 7410 c831 8057 8832 92f5 3b33
00000330: ecf0 1e35 a5a5 8935 be1a 2b36 0f50 eb35
00000340: 10cc aa35 d0db c335 89f1 bc34 d67f ca35
00000350: f443 2836 55d6 7c36 0aad 3036 dee2 3b36
00000360: ac83 2636 549d 0935 7a48 db35 3762 4e36
00000370: f33d b836 4259 aa36 dc75 0437 faed 2537
00000380: 9470 b034 8028 8c35 797b 8835 35df 9a36
00000390: 3c24 8536 c7c7 9437 f7a5 2e37 7fcf 8e33
000003a0: d5c6 2034 78c4 da33 dc48 5b35 1ba3 f636
000003b0: 0ab2 6e37 96d8 b736 7c79 9931 3b3c 8d31
000003c0: a8df 6734 5957 e435 5ecc 4836 47b9 f635
000003d0: e0a7 1234 223a 9d2f ae8c 9b30 301a 5b33
000003e0: ccb5 b033 633c af33 1bf7 e932 1ecd 7e30
000003f0: b633 e930 644f dc32 c25b be34 2a3f 9835
1.8241005e-09 7.7766664e-08 7.51284e-07 2.171097e-06 2.4917795e-06 1.2520641e-06 4.639072e-08 1.9111754e-07
6.1110387e-07 2.0761013e-06 2.4563108e-06 5.94703e-06 8.031544e-06 9.577068e-07 5.7564904e-07 1.1499478e-06
4.6859495e-06 2.0377433e-06 4.893768e-06 1.5848133e-05 5.9502777e-06 4.525951e-07 1.9720235e-06 9.543529e-06
4.2134443e-06 5.478271e-06 1.5531652e-05 7.313094e-06 2.7027124e-07 8.939889e-07 6.3361663e-06 4.8175507e-06
2.4256622e-06 8.386417e-06 1.9696035e-06 4.8112405e-08 3.810459e-08 2.2351986e-07 1.2386993e-06 8.393735e-07
1.2814121e-06 7.8909686e-08 1.4122626e-09 1.2371891e-09 1.6392994e-09 8.2272935e-09 7.933316e-09 7.779557e-09
1.2415878e-09 2.1295112e-10 7.923958e-11 2.3291036e-10 9.393245e-10 1.3503424e-09 5.9970184e-10 1.3106073e-10
6.947922e-11 3.172679e-09 7.2918816e-08 3.629679e-07 4.725256e-07 1.9850532e-07 9.8435144e-09 3.502286e-10
2.2131793e-08 5.867652e-07 1.788309e-06 1.9034466e-06 5.0341094e-07 2.6948129e-08 2.169833e-09 7.5194116e-08
5.280466e-07 1.9236597e-06 1.2164082e-06 4.4827297e-07 6.185545e-08 6.085772e-09 1.5266106e-07 5.6025635e-07
1.2984451e-06 1.5151021e-06 1.3274797e-06 1.6880087e-07 3.561204e-09 1.4196883e-07 1.6760605e-06 4.474656e-06
3.1110094e-06 9.3068326e-07 1.0320185e-08 4.4038112e-10 6.39e-08 7.184568e-07 1.8125711e-06 8.3420707e-07
3.40385e-08 6.305621e-11 1.7898744e-09 2.9430696e-09 3.8253873e-08 6.59634e-08 4.090063e-08 6.3481984e-09
1.7956059e-09 2.1108082e-09 4.7161667e-08 4.312507e-07 8.8369944e-07 1.3916874e-06 3.8417164e-07 5.683452e-09
4.1514956e-09 1.0759651e-06 1.5126067e-06 2.3524813e-06 3.087909e-06 1.6484174e-06 1.3444575e-08 4.7835055e-08
4.5832217e-06 4.582136e-06 1.5449515e-06 3.045992e-06 1.4340707e-06 2.0852902e-08 2.0799238e-08 8.391909e-06
1.1442367e-05 7.936555e-07 1.251319e-06 4.4735293e-07 1.685176e-08 4.5818775e-09 1.6143549e-06 5.1636616e-06
1.1326101e-06 4.518063e-07 1.5506711e-07 6.7140573e-09 1.6830168e-09 1.3888794e-08 5.5211395e-08 9.0705086e-08
5.147447e-08 8.1874365e-09 1.7114524e-09 4.2517474e-09 2.0226712e-07 4.784603e-06 1.2474782e-05 1.12249245e-05
3.3044373e-06 1.5013005e-07 8.0443225e-09 3.9909755e-06 1.7572665e-05 2.2399996e-05 1.4369236e-05 3.967729e-06
2.6946523e-07 3.359408e-08 3.6561312e-06 1.0912066e-05 8.552867e-06 1.9633053e-06 1.7225956e-06 5.5595586e-07
1.232527e-07 2.8355255e-06 6.231635e-06 3.2879404e-06 3.847658e-06 1.1042756e-06 3.3713818e-08 2.5342866e-08
1.8811762e-06 1.1419663e-06 7.7033965e-06 8.109175e-06 1.0249951e-06 7.589857e-09 1.03115045e-08 1.8716459e-07
3.164992e-08 6.210721e-07 2.1592035e-07 9.3182e-09 4.5277315e-09 7.1979236e-09 6.5335786e-09 3.3408236e-09
2.6780949e-09 4.1230166e-09 6.2494188e-09 1.5604119e-08 4.8562323e-09 4.68319e-08 1.0266926e-07 9.060942e-08
2.6378567e-08 5.8226366e-09 1.5872274e-08 4.3762675e-08 5.9210174e-07 1.0255504e-06 2.5496552e-06 1.7532165e-06
1.2725377e-06 1.4592606e-06 3.519347e-07 1.5087378e-06 2.5073505e-06 3.7675684e-06 2.6326766e-06 2.7997226e-06
2.481257e-06 5.126542e-07 1.6337865e-06 3.075356e-06 5.490839e-06 5.076786e-06 7.895254e-06 9.890175e-06
3.2864466e-07 1.04426e-06 1.0168725e-06 4.6155424e-06 3.967927e-06 1.7736003e-05 1.040985e-05 6.6501336e-08
1.4973496e-07 1.01871535e-07 8.168988e-07 7.3503593e-06 1.4227358e-05 5.479039e-06 4.4666972e-09 4.1104875e-09
2.1594917e-07 1.7012745e-06 2.992128e-06 1.8382351e-06 1.3658382e-07 2.859944e-10 1.1317718e-09 5.101373e-08
8.228707e-08 8.160057e-08 2.723714e-08 9.269615e-10 1.6967678e-09 2.5647473e-08 3.545702e-07 1.1343266e-06

exp_avg f4 [10]
00000000: 6715 53b9 6918 91b9 d9d8 5639 b9ee f8b9
00000010: d5ed 83b9 eed9 593a 99d1 8037 fc2b cdb9
00000020: 3a42 2b3a 5612 e4b8
-0.00020130501 -0.00027674742 0.00020489412 -0.00047480108 -0.00025163466 0.0008310367 1.535639e-05 -0.00039133418
0.0006533001 -0.000108753025

exp_avg_sq f4 [10]
00000000: a073 a036 b403 cf36 1ac5 0337 b297 0637
00000010: 1039 2337 7577 0237 4720 b036 a674 3437
00000020: 5375 5837 8a31 7f37
4.781832e-06 6.169512e-06 7.8541e-06 8.022342e-06 9.728843e-06 7.776417e-06 5.2489663e-06 1.0755995e-05
1.290192e-05 1.5210719e-05

exp_avg f4 [32, 1, 3, 3]
00000000: f6e9 9b39 3347 2d39 b083 8738 347b b439
00000010: 59d1 3339 689d cfb7 c5c1 ac39 5614 3138
00000020: 95cb f537 ff67 953a 0cab 5c3a e66d b039
00000030: f93a a53a df83 8b39 f73c 1bba 2fc5 4d3a
00000040: 2324 0f38 078d 38ba eef9 70ba 7ecb a6ba
00000050: 29da baba a6cf 96ba c5a7 97ba bec9 a4ba
00000060: 2e06 98ba 4661 6bba 81d3 94ba f835 ef38
00000070: 803f b1b8 256c 73b9 cc4e d739 900d a3b7
00000080: 5ec6 abb9 a70d e238 2f67 10b9 e663 eeb9
00000090: 1c0d 3439 df27 1db9 f95a d939 5971 d9b8
000000a0: cb31 b039 37b0 153a 73e9 cfb9 ea17 ab39
000000b0: ef68 813a 41b8 d339 84de 6139 0b98 20ba
000000c0: 976c 4439 bc08 c139 65e2 dcb8 2749 ee39
000000d0: e1cb 63b8 1b01 2fb9 61a1 3fba a808 52ba
000000e0: 28c3 d2b9 5598 33ba d3e4 e2b9 0220 7537
000000f0: 37c3 1cb9 cc12 5639 761f aa39 b2e3 5abb
00000100: 930c 27bb 3ccf 40ba e228 1bbb c418 d1ba
00000110: e819 1cba 5ae3 faba d96a 39ba 4d4f bbb9
00000120: cadd 143a 2721 0b3a b551 50b8 57ea 8239
00000130: 9ad8 f838 138a 3eb8 59a4 9ab9 479a a0b9
00000140: 75d9 7b39 e8b5 8439 efe0 0839 61ad de37
00000150: 09c2 f338 bad8 7838 5ca5 1b39 da96 1939
00000160: d5bc 4b39 4941 323a 778d 4a3a 6c7a 133a
00000170: f4c5 183a 63e6 3e3a d6c8 b539 f2b6 463a
00000180: f76f 623a 4790 2c3a 53c5 643a 14ad 1fbb
00000190: 5115 a2ba 4f29 0b37 f4d5 04bb 9ee9 2bba
000001a0: 44b1 0eb9 a5e2 c3ba df2c 1bb9 a880 b9b7
000001b0: 8696 f238 a784 74b9 056b 5eba 1b1d ff38
000001c0: 68fe 90b9 73e2 1aba 04f7 01ba 93a9 8eba
000001d0: 3bcd 0fba 2e5b 68ba d19a 1eba e93a de39
000001e0: 3e4d 75ba 05bf b6b9 be12 9138 578f 04ba
000001f0: 0d14 eab8 cfdc dab9 a2ef 22b9 b82c ddb9
00000200: b17a a9ba 2808 8bb9 dc02 fcb9 6050 60ba
00000210: f338 a738 265a 65ba b87d 4eba d982 a63a
00000220: cc7a f939 1d43 4538 2f2e e839 b22d 29ba
00000230: 1088 54ba d42c 6439 6ab8 bf36 2b6b 08ba
00000240: 7227 f8b8 0980 f7b9 a2c2 30ba cfb3 b639
00000250: 5cf6 31ba 46dc 7fba c543 3cb9 27c9 70ba
00000260: d248 9aba 6534 8a39 7851 da39 a426 d4b9
00000270: 9700 c4b7 3884 1b39 08eb eab8 3599 0d3a
00000280: d5d0 2639 ce16 cd39 a9fb 0f39 8c2b 3038
00000290: 54ee e038 993f ac39 e7a5 4e38 f177 eeb8
000002a0: 32e2 70b9 06b2 0bb9 c4fe 1039 df70 223a
000002b0: 63f9 dd39 2db0 3c36 e71c 063a 9282 48b9
000002c0: 6891 70b9 0354 1f39 b32f 8db9 2d09 2ab9
000002d0: eeda 09b9 8f56 d2b9 895c ffb9 1692 e9b8
000002e0: e748 cdb9 f2d2 0eba bd12 9fb9 84c8 83b9
000002f0: 0720 1ab9 90fe 8838 0314 3139 387a 3f38
00000300: 55d2 8039 0dec 9639 fe72 bfb8 d516 1237
00000310: 2b27 1438 1d98 68b9 883b e6b9 a011 80ba
00000320: 6007 50ba 3099 42ba 1071 7eba c3b6 14ba
00000330: 6ce1 9bba bbed 5bba 384e 5db9 025a 8b3a
00000340: 6fcc 123a fe79 ff39 742b c539 d498 113a
00000350: d791 f739 c91f 2db9 2d88 7738 324e 2c3a
00000360: f8a3 fa39 8360 9939 93cb fb38 7b8e 1c3a
00000370: a223 a839 df56 1939 e837 4539 68b1 bc39
00000380: 0200 d239 86bd bd3a c225 1a3a 8dac f538
00000390: 348f b539 38e2 79b9 c54c 7bb9 c4ed d338
000003a0: dcdf d7b9 516b 1cba b85f 563a 7478 0a3a
000003b0: c94c bb39 ec16 fb39 820f 0c3a 7b90 183a
000003c0: 6116 0b3a f844 243a bb03 713a 9e3b d43a
000003d0: d22b 123b a593 1c3b d250 983a 7792 bb3a
000003e0: 22da e23a 936c 763a 0d0e f23a 58f8 403b
000003f0: e19d 173b 3304 d93a 407f dd3a aa1b 413b
0.00029738218 0.0001652509 6.46183e-05 0.0003442407 0.00017148758 -2.4749621e-05 0.00032950766 4.2219028e-05
2.9301076e-05 0.0011398791 0.0008417822 0.00033651217 0.0012606076 0.00026610398 -0.0005921865 0.0007849512
3.412751e-05 -0.00070400577 -0.0009192516 -0.001272544 -0.0014255691 -0.0011505976 -0.0011570385 -0.0012572331
-0.0011598521 -0.00089790334 -0.0011354537 0.000114064605 -8.4518455e-05 -0.00023214573 0.00041066704 -1.943743e-05
-0.00032763457 0.00010779063 -0.00013771349 -0.00045469328 0.00017171021 -0.0001498754 0.00041457245 -0.00010368479
0.00033606435 0.0005710157 -0.0003965605 0.0003263348 0.0009873192 0.00040382336 0.00021540566 -0.0006126172
0.0001873247 0.00036818336 -0.00010532587 0.000454494 -5.4310894e-05 -0.00016689712 -0.0007310119 -0.0008012154
-0.00040199724 -0.00068510073 -0.00043276566 1.461059e-05 -0.00014950043 0.00020415633 0.00032448367 -0.0033399877
-0.0025489673 -0.0007355099 -0.002367549 -0.0015952815 -0.0005954788 -0.0019141242 -0.00070731115 -0.00035726503
0.0005678801 0.0005307369 -4.966716e-05 0.0002497013 0.00011865907 -4.542812e-05 -0.00029495617 -0.00030632524
0.00024018234 0.00025312533 0.00013053765 2.6545198e-05 0.00011623285 5.932965e-05 0.00014843553 0.00014647414
0.00019429934 0.00067998894 0.00077267684 0.0005625847 0.0005827837 0.0007282255 0.00034672645 0.00075803616
0.00086379 0.00065827783 0.00087269134 -0.0024364637 -0.0012365972 8.2946635e-06 -0.0020269128 -0.0006557944
-0.00013608212 -0.0014944865 -0.00014798668 -2.2113629e-05 0.000115674964 -0.0002331907 -0.0008484575 0.00012164769
-0.00027655368 -0.00059083774 -0.00049577677 -0.0010884277 -0.0005485599 -0.00088636845 -0.0006050291 0.0004238703
-0.0009357518 -0.00034856066 6.91763e-05 -0.00050567597 -0.00011161724 -0.00041744715 -0.00015538794 -0.00042185723
-0.0012930242 -0.00026518223 -0.00048067316 -0.00085568987 7.973788e-05 -0.000874909 -0.000787701 0.001270379
0.00047584472 4.7030964e-05 0.00044284898 -0.00064536475 -0.0008107433 0.00021760474 5.713712e-06 -0.00052039576
-0.00011832909 -0.00047206905 -0.000674287 0.00034847713 -0.00067887246 -0.00097603013 -0.00017954323 -0.00091852475
-0.001177097 0.00026360448 0.000416409 -0.0004046458 -2.3365295e-05 0.00014831207 -0.000112017675 0.0005401553
0.0001590879 0.00039117638 0.00013731293 4.2002226e-05 0.000107255444 0.0003285378 4.9268736e-05 -0.00011371065
-0.00022972448 -0.00013322392 0.00013827818 0.00061966287 0.00042338212 2.811673e-06 0.0005116001 -0.00019122128
-0.00022942352 0.00015194718 -0.00026929154 -0.00016215882 -0.00013146896 -0.00040118812 -0.00048706334 -0.000111375164
-0.00039154963 -0.00054483034 -0.00030340804 -0.00025135663 -0.00014698516 6.532401e-05 0.0001688749 4.5651774e-05
0.00024570772 0.000287861 -9.129009e-05 8.707594e-06 3.5322428e-05 -0.00022181911 -0.00043913373 -0.0009770878
-0.0007935669 -0.00074233394 -0.00097061787 -0.00056729856 -0.0011892742 -0.00083896116 -0.00021105341 0.0010631683
0.0005599921 0.0004872828 0.00037607143 0.0005554084 0.0004722017 -0.00016510407 5.9016213e-05 0.00065729313
0.00047805882 0.0002925434 0.00012006531 0.0005972159 0.00032070006 0.00014623579 0.00018808211 0.00035990332
0.00040054327 0.0014476038 0.000588026 0.000117146505 0.00034629705 -0.00023830764 -0.00023965824 0.00010105551
-0.00041174784 -0.0005966919 0.00081777154 0.0005282231 0.0003572463 0.0004789153 0.0005342887 0.0005819869
0.0005305764 0.00062663807 0.00091939763 0.0016192084 0.002230395 0.0023891714 0.0011620766 0.0014310618
0.001730744 0.0009400334 0.0018467322 0.00294449 0.0023134875 0.0016557038 0.0016898885 0.0029465952

exp_avg_sq f4 [32, 1, 3, 3]
00000000: aa15 2937 7877 8737 bc1b 9737 4f23 4637
00000010: fd8f 2537 aecc 4f37 731a d736 91e4 4a36
00000020: 98af d736 48a5 1639 c230 5239 ff4d 3f39
00000030: f615 ee38 13e3 0039 9bb2 f438 d320 3238
00000040: a27d 2c38 bbc4 7738 1359 8737 51dc ab37
00000050: cf32 c137 05d6 8837 8b1f 8c37 51c7 8837
00000060: 26d7 6237 2958 0e37 187b fd36 d4a6 a634
00000070: e3d2 0436 79ef 2d37 9006 f135 7e67 a536
00000080: 0852 7837 5972 b036 9b83 4a37 3efa c937
00000090: 2051 7037 c1cf b537 a5e7 7c37 0bfa 4437
000000a0: 9197 9437 1c25 5537 518f 5037 8b5c 8037
000000b0: db4e 6c37 3744 2336 e40f 3937 eefd 0938
000000c0: 8c7b 5536 9b6e a237 2fb2 5138 c965 6f37
000000d0: fcb1 2b38 3350 7638 a327 9937 85a9 9a37
000000e0: 9fff 4937 2feb a037 bf17 8037 3d74 fc36
000000f0: faa3 b237 dbc5 6f37 2d79 f936 2eca 0839
00000100: 7047 aa38 945a eb37 826c 0839 22d5 9638
00000110: 251f 9037 b2b2 0c39 5538 8438 05ba b137
00000120: 9299 fd36 b2bc 0237 5362 1437 d3f0 6837
00000130: ad1e 3437 05e6 1637 3be6 2537 9b38 0337
00000140: 5e38 2837 83f3 bf34 05a6 ab34 db4f 7a33
00000150: 12f8 3233 5346 b233 f3d9 cc33 cab0 3f33
00000160: 70d0 8534 053f 5035 7b82 2e37 4ed9 1637
00000170: f6fa 0237 4dd4 e336 adfe 8336 4791 0037
00000180: a306 0b37 ccfb aa36 5dce 4437 f8bf 9638
00000190: f25c 0238 0e1a 0737 f77f 2d38 8c8c cd36
000001a0: 3711 3136 51c0 a037 47d2 4a36 46ef c036
000001b0: d14d 4f36 1869 1a37 56ff 0338 ebbd 0537
000001c0: 45d3 cf37 fcbf 4138 58d9 d237 48b8 2e38
000001d0: 6f6f 3538 77f5 7038 7e98 4e38 4023 ff37
000001e0: 3ab3 7f38 1f4c 0638 37c0 8837 4e0d 8138
000001f0: d215 f137 f98f 8737 bf43 ac36 5c48 3237
00000200: 07ea 1838 7dd6 ec36 1cbf c337 3c16 8238
00000210: d889 da37 59ef 7638 2f94 9238 3cfb 9538
00000220: cda4 ba38 3ca1 e838 d4ef bf37 d658 5038
00000230: f975 8b38 62cf da36 6888 d537 6fb6 2738
00000240: fbc3 8c36 a1d1 d836 03a9 8a37 9ef6 6a37
00000250: 4fcb b237 8ddd f837 f0b4 0838 58c5 1938
00000260: 7622 1d38 e41d 5637 d392 1138 0fb4 aa38
00000270: 51f0 2937 f045 3738 bcfd e338 f389 de37
00000280: 587e be38 61fc 0039 c06e 1b36 9b85 5436
00000290: 2848 2236 d460 8136 6094 8536 4973 6736
000002a0: e0ef 8f36 8fb6 8e36 c77b ad36 e62d d137
000002b0: 607a d237 17d8 c037 b81c 7237 d6bc 5737
000002c0: 91d5 2937 9302 9036 9ecb de36 9066 f636
000002d0: a45f 6c37 d580 7137 b311 2837 c73b 1937
000002e0: 2777 d436 1c6b bd36 1ae2 9e36 af94 0e36
000002f0: 0d1e 3736 b2a0 4637 556d 3b36 5d4c 1436
00000300: 1259 0036 1e48 bc34 94cc 6036 3773 d534
00000310: e3b6 9c35 4a0f 1e37 4918 2f37 7329 9037
00000320: 76ec 6637 4c3d 7e37 7b79 9d37 2b23 7537
00000330: f8a0 8637 bca4 9237 b28f 7337 2e50 4b37
00000340: 5be5 5237 b8d9 0937 f596 1937 4417 4337
00000350: c9b2 1637 5410 0937 c0ab 2537 d02e 3f37
00000360: f778 f835 02b8 3836 9b8b 3c36 2a36 5336
00000370: eebe 6b36 7055 4c36 6528 3836 25b6 6c36
00000380: b3e5 4f36 1c1e 8d38 84c2 2638 8bda ed37
00000390: 718d cf37 b58e b837 3410 6d38 53c1 af37
000003a0: ca7d 5f38 c8ca f438 7741 8a37 ef63 7437
000003b0: 0373 6937 a5ee 4c37 5c9b 6837 366a 6d37
000003c0: 1923 ee36 4839 2a37 3c66 4537 abdf 7738
000003d0: eff1 8c38 ff85 5f38 fa6f e337 b782 3c38
000003e0: b8c6 7138 a34b 5637 b845 f837 3cfb 7338
000003f0: 0770 f438 2c5b 9638 3c17 2538 39dc f738
1.0078229e-05 1.6148886e-05 1.8013518e-05 1.1809941e-05 9.868291e-06 1.2385817e-05 6.4105784e-06 3.0233389e-06
6.427941e-06 0.00014366687 0.00020045324 0.00018244235 0.00011352815 0.00012291623 0.000116680945 4.2469077e-05
4.1125e-05 5.907261e-05 1.6134733e-05 2.0487381e-05 2.3031052e-05 1.6312124e-05 1.6703989e-05 1.6305277e-05
1.3520743e-05 8.484386e-06 7.5543176e-06 3.1041293e-07 1.9792285e-06 1.036736e-05 1.7957809e-06 4.9294313e-06
1.4801051e-05 5.2585206e-06 1.207078e-05 2.4077595e-05 1.4324003e-05 2.1673624e-05 1.5074304e-05 1.1740728e-05
1.7713553e-05 1.27044295e-05 1.2431135e-05 1.5301883e-05 1.4085056e-05 2.43286e-06 1.1030559e-05 3.2899836e-05
3.1811387e-06 1.936341e-05 4.999543e-05 1.4269209e-05 4.0935338e-05 5.872566e-05 1.8257479e-05 1.843717e-05
1.204005e-05 1.9183002e-05 1.5269847e-05 7.523717e-06 2.1295611e-05 1.4291577e-05 7.434885e-06 0.00013045289
8.119538e-05 2.8056362e-05 0.00013010393 7.1922565e-05 1.718064e-05 0.0001341801 6.304743e-05 2.1186666e-05
7.5578655e-06 7.792538e-06 8.84438e-06 1.3884349e-05 1.0735978e-05 8.994252e-06 9.888371e-06 7.821388e-06
1.0026704e-05 3.57537e-07 3.1972027e-07 5.828029e-08 4.1669473e-08 8.301563e-08 9.539135e-08 4.463144e-08
2.492484e-07 7.7577744e-07 1.0401588e-05 8.991292e-06 7.807035e-06 6.7898422e-06 3.9337524e-06 7.66322e-06
8.286591e-06 5.095708e-06 1.1730558e-05 7.188314e-05 3.1080977e-05 8.052693e-06 4.136559e-05 6.125838e-06
2.6385076e-06 1.916304e-05 3.0222743e-06 5.749901e-06 3.0890699e-06 9.203584e-06 3.1470634e-05 7.9716365e-06
2.4774703e-05 4.6193585e-05 2.513516e-05 4.1656458e-05 4.3257543e-05 5.7449066e-05 4.9256247e-05 3.0414783e-05
6.0963655e-05 3.2018983e-05 1.630197e-05 6.1536775e-05 2.87396e-05 1.6160297e-05 5.133886e-06 1.0626474e-05
3.645758e-05 7.058318e-06 2.3334804e-05 6.2030245e-05 2.6051814e-05 5.887388e-05 6.989424e-05 7.15167e-05
8.899868e-05 0.00011092654 2.2880653e-05 4.96738e-05 6.6500106e-05 6.521049e-06 2.5455098e-05 3.9985807e-05
4.1951403e-06 6.4617057e-06 1.6529584e-05 1.4004907e-05 2.1313926e-05 2.9667071e-05 3.2593438e-05 3.6661833e-05
3.746381e-05 1.2762353e-05 3.4707435e-05 8.13977e-05 1.0129138e-05 4.3695734e-05 0.00010871465 2.65287e-05
9.083439e-05 0.0001230105 2.3161265e-06 3.166823e-06 2.4181882e-06 3.855772e-06 3.980982e-06 3.4488787e-06
4.289657e-06 4.2531824e-06 5.1702114e-06 2.4936115e-05 2.5090936e-05 2.2988808e-05 1.4431011e-05 1.2858965e-05
1.012291e-05 4.291834e-06 6.6398197e-06 7.343311e-06 1.4088964e-05 1.4394715e-05 1.0017701e-05 9.133429e-06
6.3319635e-06 5.645108e-06 4.7350886e-06 2.1246194e-06 2.7286617e-06 1.18391345e-05 2.792881e-06 2.2098168e-06
1.9125332e-06 3.50702e-07 3.3497681e-06 3.9758172e-07 1.1676133e-06 9.421094e-06 1.0436467e-05 1.7185439e-05
1.3764124e-05 1.5153852e-05 1.8772427e-05 1.4611326e-05 1.6049002e-05 1.7481267e-05 1.4517385e-05 1.2118411e-05
1.2570376e-05 8.216528e-06 9.154658e-06 1.1628323e-05 8.982323e-06 8.169638e-06 9.874755e-06 1.13953865e-05
1.8512645e-06 2.7525243e-06 2.8095444e-06 3.1472978e-06 3.5128865e-06 3.04481e-06 2.744165e-06 3.5272762e-06
3.0979106e-06 6.729012e-05 3.975864e-05 2.8354369e-05 2.4742187e-05 2.2000962e-05 5.6520294e-05 2.095165e-05
5.3284493e-05 0.000116725976 1.6481366e-05 1.4566801e-05 1.39146605e-05 1.2214911e-05 1.386445e-05 1.415103e-05
7.0970386e-06 1.0146126e-05 1.1765918e-05 5.9097696e-05 6.720784e-05 5.3292137e-05 2.7112652e-05 4.494443e-05
5.764395e-05 1.27730045e-05 2.959637e-05 5.8169695e-05 0.000116556934 7.1695395e-05 3.9360704e-05 0.000118188975

exp_avg f4 [32]
00000000: 58fb a93a ce73 043b 17d6 03bb 5811 2cba
00000010: ee51 1eb9 7c5d 0aba 6f9d 0aba 4f61 7dbb
00000020: 1379 c939 3226 4b3a 91ff b43a 5384 3abb
00000030: 2c3f a7ba 8ab2 afba ec99 b1ba 82ae 663b
00000040: 5604 70ba 0de8 89b9 918f 8639 53fc 433b
00000050: c8ba 94b9 66e3 5bba 2b95 d2ba a0dd fc39
00000060: 170a 3f3a a08f 923a 43db 773a 3ca8 843b
00000070: fd0a 1f3b 64f7 69ba 0fa4 07ba ecb5 aa3b
0.0012968583 0.0020210627 -0.002011662 -0.0006563864 -0.00015098575 -0.00052782125 -0.00052877417 -0.0038662737
0.00038427915 0.0007749527 0.0013809075 -0.002846022 -0.0012759916 -0.0013404649 -0.0013549901 0.003519923
-0.00091559195 -0.00026303568 0.00025665437 0.0029905036 -0.00028367923 -0.0008388072 -0.0016066184 0.0004823031
0.0007287575 0.001118172 0.0009454975 0.0040483754 0.0024268024 -0.00089251087 -0.0005174288 0.005209675
