23.04.27/Mnist/src/checkpoint/model_5.pt (torch, 609242 bytes, 18 tensors)

linear.weight f4 [10, 3136]
0	0x3bddff7c	0.006774841
1	0xbe02770e	-0.12740728
2	0xbd68f7d4	-0.056876972
3	0x3d1a087a	0.03760574
4	0xbd257a11	-0.040399615
5	0x3cdc2e4a	0.026877541
6	0x3c9a5a69	0.018841939
7	0x3cd4b74d	0.02596631
8	0xbd2be5b8	-0.041967124
9	0xbd8e5f31	-0.0695175
10	0xbd885015	-0.066558994
11	0x3c629a65	0.013830756
12	0xbcb1ce2c	-0.021704756
13	0x3de79b1f	0.11308884
14	0xbaffc224	-0.0019512814
15	0xbd503ee3	-0.050841223
16	0x3de69667	0.11259156
17	0xbd2cda97	-0.04220065
18	0x3d981d58	0.07427472
19	0x3d4ed116	0.05049237
20	0x3e03e20a	0.12879196
21	0xbdb9afb5	-0.090667166
22	0xbd1e3fa0	-0.038634896
23	0x3d5f902a	0.054580845
24	0x3de7bb1b	0.113149844
25	0xbd5c2195	-0.053742964
26	0x3a76d85b	0.0009416395
27	0x3c9248c9	0.017856972
28	0x3d98dcc6	0.07463984
29	0xbc184924	-0.009294782
30	0xbbc4b080	-0.0060024858
31	0x3d75e9cf	0.06003743
32	0xbdc11aa2	-0.09428908
33	0xbcca1a93	-0.024670875
34	0xbcc6ac48	-0.024252072
35	0xbc8f6027	-0.017501904
36	0x3d848418	0.064705074
37	0x3d227779	0.03966472
38	0xbe316c03	-0.1732636
39	0xbd84a2c8	-0.064763606
40	0xbd9af615	-0.07566468
41	0xbdc7d94e	-0.097582445
42	0x3c687819	0.01418879
43	0xbc14dac8	-0.009085365
44	0x3d117194	0.035508707
45	0xbe0c7c54	-0.13719302
46	0xbdc285b2	-0.094981566
47	0xbdc99657	-0.09843128
48	0x3cc7df40	0.024398446
49	0x39df27d5	0.00042563552
50	0x3c7f172f	0.015569492
51	0xbbaaa137	-0.0052072066
52	0x3ca311d4	0.019905962
53	0x3ca72b2b	0.020406326
54	0x3c14216b	0.009041171
55	0xbd38b320	-0.045092702
56	0xbcc68587	-0.024233593
57	0x3bbc2e18	0.0057427995
58	0xba245f16	-0.00062702724
59	0x3d3f4cdb	0.046704154
60	0x3a754e8a	0.00093577115
61	0xbcbc9798	-0.023021504
62	0xbd236778	-0.039893597
63	0xbd2220dc	-0.03958212
64	0xbd233c44	-0.039852396
65	0x3c58a812	0.013223665
66	0x3cf07e0b	0.029356977
67	0x3cb20f37	0.02173577
68	0xbb20d28a	-0.0024539554
69	0x3da5a68c	0.08088407
70	0xbd02fb9b	-0.03197823
71	0xbb5ea4d9	-0.0033972769
72	0x3d3040cb	0.04303054
73	0xbd87c358	-0.06629056
74	0xbdde0f84	-0.10842803
75	0x3d2a8d18	0.041638464
76	0xbae1bc6b	-0.0017222291
77	0x3bf1f753	0.0073842197
78	0xbb81c69b	-0.003960443
79	0xbc463f4b	-0.012100051
80	0xbdb71970	-0.08940399
81	0x3b84fb63	0.004058288
82	0x3cb1f2f6	0.021722298
83	0x3cf13172	0.029442523
84	0xbd15285a	-0.036415435
85	0xbcdbce40	-0.026831746
86	0x3ce91e7c	0.028456919
87	0xbb0e0667	-0.0021671297
88	0x3d11cb83	0.035594475
89	0x3d7f0cc9	0.062268052
90	0x3d539eb5	0.051665027
91	0xbc3df23c	-0.011593398
92	0x3c3acd88	0.0114015415
93	0x3c57c8ea	0.01317046
94	0x3b9507f1	0.004548066
95	0x3d83400e	0.06408702
96	0x3cb9189e	0.022594746
97	0xbd1c1a43	-0.038110983
98	0xbd3adfe8	-0.04562369
99	0xbd45ac00	-0.048259735
100	0xbd446ef8	-0.04795739
101	0xb8acbeab	-8.237114e-05
102	0x3c5fc068	0.013656713
103	0x3c660e2c	0.014041465
104	0x3cc332f2	0.023828004
105	0x3c7b1bfe	0.015326498
106	0x3ce22bdd	0.027608806
107	0x3cd3245a	0.02577417
108	0xba8ef8f8	-0.0010907939
109	0x3d3d4b7e	0.046214573
110	0x3baff7cd	0.0053701163
111	0xbb8370b6	-0.004011239
112	0xbd0af744	-0.033927217
113	0xb8b170df	-8.4610416e-05
114	0x3d2a01f9	0.041505788
115	0x3cbaa1a2	0.02278215
116	0xbb2a6095	-0.0025997509
117	0x3d134e70	0.035963476
118	0xbc8508e4	-0.016239591
119	0x3c5bdda5	0.013419543
120	0x3d83add5	0.0642964
121	0xbc648b86	-0.013949281
122	0xbda9fe3e	-0.08300446
123	0xbd112de0	-0.03544414
124	0x3d5da8d5	0.05411609
125	0x3d82c9bf	0.06386136
126	0xbd682104	-0.05667211
127	0x3d44eff6	0.048080407
128	0x3d027981	0.031854156
129	0xbd4e7b23	-0.0504104
130	0xbdc7030f	-0.0971738
131	0xbd1fa00b	-0.03897099
132	0xbc842612	-0.016131435
133	0xbd3257b8	-0.043540686
134	0x3d79c19a	0.06097565
135	0x3d9b050d	0.07569323
136	0xbcb18518	-0.02166991
137	0xbd22d8d1	-0.039757553
138	0xbbbec623	-0.0058219596
139	0xbc8124b3	-0.01576457
140	0x3c04d2fc	0.008106943
141	0xbcd179b7	-0.025570733
142	0x3cb75d12	0.022383247
143	0xbd075fd6	-0.03305038
144	0xbbc177bb	-0.0059041656
145	0xbd33a617	-0.043859567
146	0xbd2262f2	-0.039645143
147	0xbd15f285	-0.036608238
148	0x3d3c0642	0.045904405
149	0xbceee04e	-0.029159691
150	0xbc39dd00	-0.011344194
151	0xbbb449d4	-0.005501965
152	0xbd2ee1db	-0.04269586
153	0x3cc2adc9	0.023764508
154	0x3d2196f6	0.03945061
155	0x3912647c	0.00013961078
156	0xbc802848	-0.015644208
157	0x3db023cd	0.086005785
158	0x3cc00f09	0.02344467
159	0xbd494e8b	-0.04914717
160	0x3c0683c5	0.008210127
161	0x3cfed3d6	0.03110687
162	0x3d466847	0.04843929
163	0x3d4fba64	0.050714865
164	0x3dcd3f23	0.10021808
165	0xbdef4eca	-0.1168495
166	0xbddf4bde	-0.109031424
167	0xbc1ca644	-0.009561125
168	0x3d1a8fe8	0.037734896
169	0xbc2230a9	-0.009899297
170	0xbc63a5aa	-0.013894478
171	0xbe23c294	-0.15992194
172	0xbd733758	-0.05937895
173	0xbd971c35	-0.07378427
174	0xbdccbe4a	-0.09997232
175	0xbb9bddfa	-0.0047566863
176	0xbdcf4fe7	-0.10122662
177	0xbd7345ae	-0.059392624
178	0xbd02c6ab	-0.031927746
179	0x3bbee3c7	0.005825493
180	0xbc48823c	-0.012238082
181	0xbd1eacf5	-0.038739163
182	0xbc463ced	-0.012099487
183	0xbe34991a	-0.17636529
184	0xbdf38086	-0.11889748
185	0xbccd4906	-0.025059234
186	0xbd394291	-0.0452295
187	0x3d49c11c	0.04925643
188	0xbafae795	-0.0019142503
189	0x3d0f9381	0.03505278
190	0x3d00c5a9	0.031438503
191	0xbd9c935e	-0.076452956
192	0xbd42976c	-0.04750769
193	0xbcbdcdfa	-0.023169506
194	0x3d3e5b9a	0.046474077
195	0x3bee4fdc	0.0072727036
196	0x3d50d25f	0.050981876
197	0x3d14c45f	0.036320087
198	0xbd0c019b	-0.03418122
199	0xbd04d804	-0.03243257
200	0xbc6a1be9	-0.014288881
201	0xbc986801	-0.01860428
202	0x3c8a9e9b	0.016921332
203	0x3daedbfd	0.08538053
204	0x3c27b4a6	0.010235941
205	0xbd542406	-0.051792167
206	0xbdbe75bd	-0.092998005
207	0xbe1b59cc	-0.15170974
208	0xbe5962b7	-0.21229063
209	0xbb8f689b	-0.0043764836
210	0x3d862c7f	0.06551456
211	0xbccd3310	-0.025048763
212	0xbd08b62f	-0.03337687
213	0x3d3891b7	0.04506084
214	0xbd13357e	-0.035939686
215	0xbe22790e	-0.15866491
216	0xbd31a80d	-0.043373156
217	0x3b87019d	0.0041200654
218	0xbca43d4e	-0.020048764
219	0x3cf6e204	0.03013707
220	0x3d84dbe3	0.064872526
221	0x3de247d3	0.11048856
222	0x3e01ab7c	0.12663072
223	0x3c19c6d3	0.009385782
224	0x3d25edf7	0.040510144
225	0x3b8f1c98	0.0043674223
226	0xbd0a2a4c	-0.033731744
227	0x3dde16d0	0.10844195
228	0x3e1f0d69	0.1553246
229	0x3d517c32	0.051143833
230	0x3dc632f0	0.09677684
231	0x3cc53626	0.024073672
232	0xbd2ede8d	-0.04269271
233	0xbd9083ce	-0.0705639
234	0xbd377998	-0.044793695
235	0x3d51c1dc	0.05121027
236	0xbcb1a3ee	-0.021684613
237	0xbd553aad	-0.05205791
238	0xbb6ece69	-0.0036438948
239	0xbd8c5780	-0.06852627
240	0xbe2b4893	-0.16726904
241	0xbdbf811e	-0.09350799
242	0xbe31336a	-0.17304769
243	0xbcab017c	-0.020874731
244	0xbdc6f27c	-0.09714219
245	0xbd083971	-0.033257905
246	0xbd20f6cf	-0.039297875
247	0xbd1d8a18	-0.038461775
248	0x3d133360	0.035937667
249	0xbd97f149	-0.07419068
250	0xbd1ec014	-0.0387574
251	0xbc4df0b7	-0.012569598
252	0x3b121cdd	0.0022295036
253	0xbb20b7bb	-0.0024523574
254	0x3c87a425	0.016557762
255	0xbd06de2d	-0.032926727

linear.bias f4 [10]
0	0x3cf0e3b5	0.029405454
1	0x3d1b5b24	0.037928715
2	0x3c9896f9	0.018626677
3	0xbc379a60	-0.011206239
4	0xbca3da2f	-0.020001499
5	0x3c09cb63	0.008410308
6	0xbc8bb80f	-0.01705554
7	0xbbb69088	-0.0055714287
8	0xbd067ec2	-0.03283573
9	0xbb5ad502	-0.0033391123

layer1.0.weight f4 [32, 1, 3, 3]
0	0xbe25e45c	-0.16200393
1	0x3e8c9dbb	0.2746409
2	0x3d98e2c5	0.07465128
3	0x3e85419d	0.2602662
4	0xbe447802	-0.19186404
5	0x3e8c4f14	0.27404082
6	0x3ceff2c6	0.029290568
7	0xbedd876f	-0.4326739
8	0xbdfe994c	-0.12431583
9	0x3de80f40	0.11331034
10	0x3ec5b390	0.38613558
11	0x3d824f4c	0.06362781
12	0x3e71496f	0.23563169
13	0x3ec33f73	0.38134345
14	0x3e88c8d5	0.26715723
15	0xbf03008a	-0.511727
16	0xbf0a8cdc	-0.54121184
17	0xbe80600f	-0.25073287
18	0x3de7da19	0.11320896
19	0x3ec0be92	0.37645394
20	0x3e8eb12f	0.27869555
21	0x3edda250	0.43287897
22	0xbd098cb6	-0.033581458
23	0x3e30f18d	0.17279644
24	0x3e873ed2	0.26415116
25	0xbee166f5	-0.44023862
26	0xbe6752bb	-0.22590153
27	0xbef9dddd	-0.4880208
28	0xbe9df485	-0.30850616
29	0x3dd66851	0.104691155
30	0xbd2fff25	-0.042967934
31	0xbd72628a	-0.059176005
32	0xbd934219	-0.071903415
33	0xbe7a8fdb	-0.24468939
34	0xbc32a9d2	-0.010904746
35	0x3eacae91	0.33726934
36	0x3d94f7c4	0.0727382
37	0x3ebd707c	0.3699988
38	0xbe3fd566	-0.18733749
39	0xbda33ade	-0.079702124
40	0x3e792075	0.24328788
41	0xbc3f5686	-0.011678344
42	0x3d5061ad	0.0508744
43	0x3e6ca6b1	0.23110463
44	0x3e81df35	0.25365606
45	0xbef99481	-0.48746112
46	0xbdbeca1b	-0.09315892
47	0x3e163792	0.14669636
48	0xbef6a516	-0.48172826
49	0x3ce77c4e	0.028257515
50	0x3f03cdec	0.51486087
51	0xbdf038ed	-0.11729608
52	0x3e24bde5	0.16088064
53	0x3dea5c0f	0.1144334
54	0x3e896969	0.26838234
55	0x3e9be03a	0.3044451
56	0xbc5122a3	-0.012764606
57	0x3e069dd7	0.13146149
58	0x3e89dd51	0.26926664
59	0xbeea9dba	-0.4582346
60	0x3ecc35a0	0.39884663
61	0x3d94be0c	0.07262811
62	0xbe2a6536	-0.16640171
63	0x3ed79876	0.42108506
64	0x3be74661	0.0070579504
65	0xbeb8702a	-0.36023074
66	0x3cd6441d	0.026155526
67	0x3ebfa962	0.37433916
68	0xbed015e6	-0.40641707
69	0x3ed5c37f	0.41750714
70	0xbdc29f88	-0.095030844
71	0xbeb77b6c	-0.3583635
72	0xbe8708d7	-0.26373932
73	0xbdc0639b	-0.09393998
74	0x3ec599b0	0.38593817
75	0x3d16fdca	0.036863126
76	0x3ec62392	0.38699013
77	0xbcb7ad01	-0.022421362
78	0x3b37b3ef	0.0028030833
79	0xbeb53d97	-0.35398552
80	0x3e81536f	0.25258967
81	0xbc6f3202	-0.014599325
82	0x3e5782dc	0.21046013
83	0xbea6fdbd	-0.32615462
84	0xbe9918de	-0.29901785
85	0xbe9d3228	-0.3070233
86	0xbe93729e	-0.28798383
87	0xbe5e42d8	-0.21705186
88	0xbdbb582d	-0.091476776
89	0x3e2cf37d	0.16889758
90	0x3b518692	0.003197108
91	0x3e168171	0.14697815
92	0xbc2ba2a3	-0.010475787
93	0xbd882990	-0.066485524
94	0xbea33c4a	-0.31881934
95	0x3e178672	0.1479738
96	0x3eaf06f1	0.34184983
97	0xbe93ace7	-0.28842852
98	0x3e4147e8	0.18875086
99	0x3ec5c261	0.38624862
100	0x3d446011	0.04794318
101	0xbed9ecd5	-0.425635
102	0x3ee10886	0.43951815
103	0xbef8e506	-0.4861223
104	0xbd8d4de1	-0.0689962
105	0xbcffb5f0	-0.031214684
106	0xbf0fe5d0	-0.5621004
107	0x3df43eeb	0.11926063
108	0xbed52096	-0.41626424
109	0xbeaa5d80	-0.3327446
110	0x3ec279f2	0.37983662
111	0xbea8b411	-0.3294988
112	0x3d6a5648	0.05721119
113	0x3e9b2ff6	0.3031003
114	0x3e2edff0	0.17077613
115	0x3ed6a7e7	0.41924974
116	0x3d92942b	0.07157167
117	0x3e00d0dd	0.12579675
118	0x3ea0fcf9	0.31443003
119	0xbe234f8e	-0.15948316
120	0x3ef6071a	0.48052293
121	0xbd4e3d2e	-0.050351314
122	0xbf00583c	-0.50134635
123	0x3eb11305	0.34584823
124	0xbeb96486	-0.36209506
125	0xbe08e410	-0.13368249
126	0xbd026273	-0.03183217
127	0xbecaf0a3	-0.39636716
128	0x3e5ccbd7	0.21562134
129	0xbeaf5412	-0.34243828
130	0xbe040c54	-0.12895328
131	0x3ee99751	0.45623258
132	0xbe2a3055	-0.1662
133	0x3ebd3bb4	0.36959612
134	0x3dadc1ee	0.08484255
135	0x3ec5f076	0.3866002
136	0x3e025da0	0.12731028
137	0x3e91469b	0.2837418
138	0xbedb79de	-0.42866415
139	0x3e91d3e5	0.28481975
140	0xbcaa527b	-0.020791283
141	0xbf22647b	-0.6343457
142	0xbdeed6c7	-0.11662059
143	0xbe6fcc65	-0.23417814
144	0xbf06bf69	-0.5263582
145	0xbec3837e	-0.38186258
146	0x3dbc7b36	0.09203188
147	0xbdba2ec7	-0.09090953
148	0x3e3da2c3	0.1851912
149	0x3d345465	0.044025797
150	0x3ee6ee01	0.45103458
151	0x3e18cadf	0.14921139
152	0x3e74aa1c	0.23893017
153	0xbe6f3152	-0.23358658
154	0xbbb62635	-0.005558754
155	0x3ea24b7d	0.31698218
156	0xbec7e933	-0.39045104
157	0xbe4aabe6	-0.19792137
158	0x3ec15b99	0.37765196
159	0xbe735194	-0.23761588
160	0x3ecd56e1	0.40105346
161	0x3e0f0687	0.13967334
162	0xbe2c442e	-0.16822883
163	0x3d77c455	0.06048997
164	0xbe9924d0	-0.29910898
165	0xbc95c5df	-0.018282829
166	0x3e1d5007	0.1536256
167	0x3e0dea98	0.13859022
168	0x3e1278e0	0.14303923
169	0x3ea8915c	0.329234
170	0x3b1f313f	0.0024290828
171	0x3eb6068e	0.35551876
172	0x3e1fb694	0.15596992
173	0x3ea5adbe	0.32359117
174	0x3d7806b1	0.060553256
175	0x3e8ef8e1	0.27924255
176	0xbe91cc94	-0.28476393
177	0xbf0c3897	-0.5477385
178	0xbc622568	-0.013802864
179	0xbd051fac	-0.032500908
180	0x3ed20722	0.41021067
181	0x3eb95e24	0.36204636
182	0xbe634f16	-0.22198138
183	0x3e53db9a	0.2068924
184	0x3d60d93a	0.054894663
185	0x3b2b6484	0.0026152441
186	0xbd7ab6ee	-0.06120961
187	0xbed7a94b	-0.42121348
188	0xbe13ee24	-0.14446312
189	0x3eb5ce9c	0.35509193
190	0xbe4ad099	-0.19806136
191	0xbef48fb1	-0.47765878
192	0xbcf9062c	-0.03039845
193	0xbf20ed83	-0.62862414
194	0xbd07619d	-0.033052076
195	0xbf368cc1	-0.71308523
196	0xbe9e2a3f	-0.30891606
197	0x3eb5b864	0.3549224
198	0xbe790c7f	-0.24321173
199	0x3e62dad3	0.22153787
200	0xbd69ab36	-0.057048045
201	0x3e62be6a	0.2214295
202	0x3eb66915	0.35627046
203	0x3e782486	0.24232683
204	0x3eb67a30	0.35640097
205	0x3e704197	0.2346252
206	0x3e66b770	0.22530913
207	0x3e67d108	0.22638333
208	0x3eaa0825	0.3320934
209	0xbe8f2222	-0.2795573
210	0x3cf0cd43	0.029394751
211	0x3e425318	0.1897701
212	0xbd17c9cc	-0.037057683
213	0xbce19c96	-0.027540486
214	0x3eb6841b	0.35647663
215	0x3ec08ae9	0.3760598
216	0xbe4bbbf2	-0.19895914
217	0xbd855ca6	-0.06511812
218	0x3cde2b01	0.027120115
219	0x3d895fe2	0.06707741
220	0x3e895571	0.26823
221	0x3bb1729b	0.0054152734
222	0xbdcec76f	-0.10096633
223	0x3eb8c455	0.3608729
224	0xbd73d059	-0.059524868
225	0x3e387965	0.18015058
226	0x3e763c8d	0.24046536
227	0xbeb5f65c	-0.3553952
228	0xbe08c17f	-0.13355063
229	0xbecb0798	-0.3965423
230	0x3df47b63	0.11937597
231	0xbe928997	-0.28620598
232	0x3e16fac5	0.14744098
233	0x3ee0d2ac	0.4391073
234	0x3ec13f45	0.37743583
235	0xbd86c672	-0.06580819
236	0x3e2ab998	0.16672361
237	0xbd1cb567	-0.038258936
238	0x3e33fe92	0.1757758
239	0x3ed33cf1	0.41257432
240	0xbe551465	-0.20808561
241	0x3cbeb683	0.023280388
242	0x3df6cd30	0.12050855
243	0x3d81011a	0.06299038
244	0x3ebf59a9	0.37373093
245	0xbdc89572	-0.097941294
246	0xbe9bb177	-0.30408832
247	0x3eb391aa	0.3507207
248	0x3e87a40b	0.26492342
249	0xbf1c670b	-0.6109473
250	0xbecdf3b5	-0.40224996
251	0x3ed68b4d	0.41903153
252	0x3eb36824	0.3504039
253	0xbe05b8f9	-0.13058843
254	0xbefd960f	-0.49528548
255	0x3eeebbc4	0.4662763

layer1.0.bias f4 [32]
0	0x3cb24892	0.02176312
1	0xbc9bd3ff	-0.019021986
2	0xbe38109d	-0.17975087
3	0x3e890872	0.26764256
4	0xbd6dfd11	-0.05810267
5	0xbc20c616	-0.009812852
6	0xbe207993	-0.15671377
7	0xbd326182	-0.043550022
8	0xbd8805ee	-0.06641756
9	0xbe64c82d	-0.22341986
10	0xbd285abc	-0.041102156
11	0x3cc35db8	0.0238484
12	0xbe5da59a	-0.21645203
13	0xbbbae4a5	-0.005703526
14	0xbd82092a	-0.06349404
15	0x3e3781b3	0.1792057
16	0xbc8c02a5	-0.017091105
17	0xbe25c297	-0.16187511
18	0x3d382dea	0.044965662
19	0x3b5fe1c8	0.0034161676
20	0xbb7cfb3d	-0.0038601898
21	0x3eada0f5	0.33911863
22	0xbd885055	-0.06655947
23	0xbd851c8e	-0.06499587
24	0x3daeb196	0.085299656
25	0x3b2c96ed	0.0026335076
26	0xbdd0a855	-0.10188357
27	0x3b3e7dec	0.0029066755
28	0xbe3b652c	-0.18300313
29	0xbccce9e9	-0.02501388
30	0x3e950935	0.29108587
31	0x3bd94595	0.0066306093

layer2.0.weight f4 [64, 32, 3, 3]
0	0xbcb3a01e	-0.021926936
1	0xbce165c1	-0.02751434
2	0x3d107886	0.03527119
3	0x3d2dbed7	0.042418327
4	0xbc4200de	-0.011841027
5	0x3cb2aba4	0.02181036
6	0xbd4ec760	-0.050483108
7	0xbc958217	-0.018250508
8	0x3d064fad	0.03279083
9	0xbdd583fd	-0.104255654
10	0xbd86e092	-0.06585802
11	0x3d0071b6	0.031358443
12	0xbd81452e	-0.06312023
13	0xbe0bde17	-0.1365894
14	0xbe31d28d	-0.17365475
15	0xbd8b2c97	-0.06795614
16	0xbd881a17	-0.06645601
17	0xbe4919ef	-0.19638799
18	0x3bb0c628	0.005394716
19	0x3cbf2574	0.023333289
20	0x3c8549b9	0.016270505
21	0x3b90daaa	0.004420598
22	0x3c7b1e01	0.015326978
23	0xbe1cd88c	-0.15316981
24	0xbe0f3ada	-0.13987294
25	0x3d75bbd4	0.05999358
26	0xbdede42f	-0.11615788
27	0x3bea855e	0.007157012
28	0x3c9d8331	0.019227596
29	0xbc0dc955	-0.008653958
30	0x3d26b50d	0.040700007
31	0xba15cf00	-0.00057147443
32	0x3dbf2489	0.093331404
33	0x3d6eba3b	0.058283072
34	0xbd966570	-0.073435664
35	0x3da4c29d	0.08044932
36	0x3dafe30e	0.08588229
37	0xbd34c444	-0.044132486
38	0xbdeb4e41	-0.11489535
39	0x3c9c8864	0.019108005
40	0xbb7b558c	-0.003835055
41	0xbd84e26a	-0.064884976
42	0x3c1f0254	0.009705145
43	0x3d8b63c1	0.06806136
44	0xbcccda9a	-0.025006581
45	0x3d804d6b	0.06264766
46	0xbe5d9fa9	-0.21642937
47	0xbd3bbafb	-0.045832615
48	0x3e1527af	0.1456592
49	0xbd3d30b7	-0.046189036
50	0x3e5840b3	0.21118431
51	0x3e0bb9ae	0.1364505
52	0xbe09fb4c	-0.13474768
53	0x3db6d8a4	0.0892804
54	0x3d0460db	0.03231893
55	0x3d7229b2	0.059121795
56	0xbd11e43f	-0.035618063
57	0x3c97314d	0.018456126
58	0x3dc206aa	0.09473927
59	0xbe0afc17	-0.13572727
60	0xbd04cbd4	-0.03242095
61	0x3dfa761b	0.12229558
62	0xbe169add	-0.14707513
63	0x3bdcedac	0.0067422
64	0x3d78ccee	0.06074231
65	0xbdcae92f	-0.099077575
66	0x3cf0064e	0.029299881
67	0x3e0c3824	0.13693291
68	0x3d1d8f40	0.038466692
69	0x3dc3b449	0.09555871
70	0x3e5e89c8	0.21732247
71	0xba5221bb	-0.00080158905
72	0xbd4c5abe	-0.049891226
73	0xbe23660a	-0.15956894
74	0xbddfdf4d	-0.10931263
75	0x3cca4379	0.024690377
76	0xbe3dfddd	-0.18553872
77	0xbd34ae8d	-0.044111777
78	0x3dcf86e2	0.10133149
79	0xbde7342e	-0.11289249
80	0x3e001cc0	0.12510967
81	0xbcf0b62a	-0.029383738
82	0x3b0fddd0	0.002195228
83	0x3d73e38e	0.059543185
84	0x3d4cf4f7	0.050038304
85	0x3d239075	0.039932687
86	0x3d8e39ed	0.06944642
87	0xbb55fc46	-0.0032651587
88	0x3b42f531	0.0029748196
89	0xbd79063b	-0.060796957
90	0x3d3672b2	0.044542976
91	0xbc900422	-0.017580096
92	0xbcac33ff	-0.021020887
93	0xbd7200d7	-0.059082832
94	0xbd3f0c5f	-0.046642657
95	0x3d9039e8	0.07042295
96	0x3a8edef1	0.0010900182
97	0xbcb4b2f0	-0.02205798
98	0x3d9391fa	0.07205577
99	0xbd8ca7aa	-0.06867917
100	0x3c821439	0.015878784
101	0xbdb62da7	-0.08895426
102	0xbd1e534d	-0.03865366
103	0x3d32ee76	0.043684445
104	0x3ddfab90	0.10921395
105	0x3b325a24	0.0027214373
106	0x3e0b564d	0.1360714
107	0x3e0b909c	0.13629383
108	0xbd316db1	-0.0433175
109	0xbda8d3e2	-0.082435384
110	0xbe4ac355	-0.19801076
111	0xbd3b0eb0	-0.045668304
112	0xbdd30579	-0.10303778
113	0xbc4a95e3	-0.012364837
114	0x3c575e62	0.013145061
115	0xbe517bc1	-0.20457365
116	0x3d31e56a	0.043431677
117	0xbdc48884	-0.09596351
118	0x3c9c7f9f	0.019103823
119	0xbd4f17c2	-0.050559767
120	0xbd572459	-0.0525249
121	0x3dc1d8c1	0.09465171
122	0xbd4009c0	-0.0468843
123	0xbb832491	-0.004002162
124	0x3e533721	0.20626499
125	0x3d1d3a33	0.03838558
126	0xbcb5c1ca	-0.022187132
127	0xbe48f530	-0.19624782
128	0xbb87ca69	-0.004144002
129	0x3df8b8ff	0.1214466
130	0xbdbc83e4	-0.09204844
131	0x3e01f8bd	0.12692542
132	0x3e60ee2f	0.2196586
133	0xbe2d69b3	-0.16934852
134	0x3d9f2d0a	0.077722624
135	0xbbafa9a1	-0.0053607975
136	0xbc579459	-0.013157927
137	0x3cf8d1ed	0.030373538
138	0xbc16aaac	-0.009195965
139	0xbdf4f295	-0.11960331
140	0xbb746f93	-0.0037297949
141	0x3d5f1f20	0.054473042
142	0xbd4c68d0	-0.049904644
143	0xbd968396	-0.07349317
144	0xbc370b47	-0.011172122
145	0xbe18bdec	-0.149162
146	0xbe31c0ff	-0.17358778
147	0x3c1dcd3c	0.009631451
148	0xbda7a91b	-0.08186551
149	0x3d3f0e28	0.04664436
150	0x3c040228	0.008057155
151	0xbdac4fc9	-0.08413655
152	0xbd7d6041	-0.061859373
153	0xbd3fd78e	-0.04683643
154	0xbe206ff1	-0.15667702
155	0xbcb4ce8a	-0.022071142
156	0x3e16504f	0.14679073
157	0xbd2d16c9	-0.042258058
158	0x3e2e5f1d	0.1702847
159	0x3e2cdd97	0.16881405
160	0xbe38dc03	-0.18052678
161	0x3e2bd422	0.16780141
162	0x3c67006e	0.014099224
163	0xbd8efdde	-0.06982015
164	0xbdd6f6f2	-0.1049632
165	0x3b90629f	0.004406288
166	0x3d07ff80	0.03320265
167	0xbcc9074c	-0.024539612
168	0x3d92972b	0.07157739
169	0xbbef8ac3	-0.007310243
170	0xbd8ac22c	-0.067753166
171	0xbd9a239c	-0.07526323
172	0x3c72aa5c	0.014811125
173	0xbd180ab3	-0.03711958
174	0x3d910068	0.070801556
175	0x3aff0a25	0.0019457979
176	0xbe245236	-0.16046986
177	0x3ca03c96	0.01956014
178	0xbd1b6fe8	-0.03794852
179	0xbd806d65	-0.06270865
180	0xbd811290	-0.06302369
181	0xbd9026ac	-0.07038626
182	0xbd97ed3f	-0.07418298
183	0x3d0f3027	0.03495803
184	0xbc34fcbd	-0.011046586
185	0xbcd61f92	-0.0261381
186	0xbc8aea91	-0.016957553
187	0x3df76ee6	0.12081699
188	0xbdfac652	-0.12244858
189	0x3ca8d6ca	0.020610232
190	0x3ca99580	0.02070117
191	0x3dccc77e	0.099989876
192	0x3b943773	0.0045232116
193	0xbd9dda29	-0.077076264
194	0xbbd67ef7	-0.006545897
195	0xbcc2a1f6	-0.02375887
196	0x3d7127a2	0.058875687
197	0x3cc15198	0.023598477
198	0xbccd294f	-0.025044112
199	0x3c8f69a9	0.017506437
200	0xbdc98432	-0.098396674
201	0xbc1a380b	-0.009412776
202	0x3d184db3	0.037183475
203	0xbd3f810e	-0.046753936
204	0x3d8e7964	0.06956747
205	0x3cb42dfe	0.021994587
206	0xbd9afea5	-0.07568101
207	0x3bb5435d	0.005531712
208	0xbd1768e8	-0.03696528
209	0xbd8a0485	-0.06739143
210	0x3d9bee53	0.07613816
211	0xbcd8f502	-0.026484016
212	0xbcf28135	-0.029602626
213	0x3d964da4	0.073390275
214	0x3d2fa536	0.042882167
215	0xbc8c0d38	-0.017096147
216	0x3d4ce7ce	0.050025754
217	0xbcb489ad	-0.022038305
218	0xbdb3b79d	-0.08775256
219	0x3c927fe6	0.017883252
220	0xbd6c50ec	-0.05769436
221	0xbdab8e11	-0.083767064
222	0x3db1190e	0.08647357
223	0x3d58ee4f	0.052961644
224	0xbac28a25	-0.0014842196
225	0xbda121c0	-0.078677654
226	0xbe4f8c0a	-0.20268264
227	0x3d9d1750	0.07670462
228	0xbc6c2b27	-0.014414585
229	0xbe667b87	-0.2250806
230	0x3dd11215	0.10208527
231	0x3d85956f	0.06522643
232	0xbdc65117	-0.096834354
233	0xbc72d216	-0.014820596
234	0xbd05f496	-0.03270396
235	0xbdafd09e	-0.085847124
236	0xbc53661e	-0.012902765
237	0x3dad6ead	0.08468375
238	0xbcfff746	-0.031245839
239	0xbdb0f0d4	-0.08639684
240	0x3df9fff6	0.12207024
241	0xbd3634f3	-0.04448409
242	0x3d8746bb	0.06605288
243	0xbd059c53	-0.032619786
244	0xbdc4db34	-0.09612122
245	0x3d9e0617	0.07716005
246	0x3dcf74b7	0.101296835
247	0xbe15b3ff	-0.14619444
248	0x3dd0294e	0.10164128
249	0x3dc03c0c	0.09386453
250	0xbe2b27b6	-0.16714367
251	0x3dc82481	0.097725876
252	0xbd99e72a	-0.07514794
253	0x3ca6ff5d	0.020385439
254	0xbe2cc5c5	-0.16872318
255	0x3d82992f	0.06376874

layer2.0.bias f4 [64]
0	0xbc412460	-0.011788458
1	0xbd2a29d8	-0.04154381
2	0xbb493cd3	-0.003070642
3	0xbc0c3bdc	-0.008559193
4	0xbd567e0b	-0.052366298
5	0x3c781e27	0.015143908
6	0xbd1f0a0a	-0.038827933
7	0x3d19e9a8	0.037576348
8	0xbcd3a74b	-0.025836607
9	0xba9933ae	-0.0011688375
10	0xbd62d4ea	-0.055378832
11	0xbcf2fbd8	-0.029661104
12	0xbce64422	-0.02810866
13	0x3c93ea0a	0.018055934
14	0xbd6792a9	-0.05653635
15	0x3c8d3db8	0.017241344
16	0xbdbd89ae	-0.09254776
17	0xbd4469d6	-0.047952496
18	0xbc8a2034	-0.016861059
19	0x3c15afc7	0.009136147
20	0xbda64494	-0.08118549
21	0xbd8cb6d1	-0.06870807
22	0xbd876311	-0.06610692
23	0x3cee9d86	0.029127847
24	0xbdb4edb7	-0.08834403
25	0xbd827d6f	-0.06371581
26	0x3d268b41	0.040660147
27	0xbd9cce71	-0.07656563
28	0xbd8c0e5b	-0.068386756
29	0xbca72268	-0.020402148
30	0xbd7241de	-0.059144847
31	0xbcb1011b	-0.021606972
32	0xbd92324d	-0.071385
33	0xbbd021ac	-0.0063516703
34	0xbd507428	-0.050892025
35	0x3c6ffa63	0.014647099
36	0xbc488e7f	-0.012241005
37	0xbd54be4a	-0.051939286
38	0x3d67eca7	0.056622174
39	0xbd868e07	-0.06570058
40	0xbc957c09	-0.018247621
41	0x3b65a87d	0.0035043054
42	0xbc66873f	-0.014070331
43	0xbdd8b848	-0.10582024
44	0xbd82bacc	-0.06383285
45	0x3cdaeed9	0.02672522
46	0xbd467c14	-0.048458174
47	0x3d2f1d21	0.04275239
48	0xbda031e5	-0.078220166
49	0x3b681da5	0.003541806
50	0xbdbf52fb	-0.09341999
51	0xbd013fef	-0.031555112
52	0xbcc4e098	-0.024032876
53	0xbd2737b2	-0.0408246
54	0x3d2d03ec	0.04224007
55	0x3c211950	0.009832695
56	0xbdaa6077	-0.083191805
57	0xbd495b74	-0.049159482
58	0xbcd7cb69	-0.02634211
59	0xbdcad8e5	-0.099046506
60	0xbc8896e2	-0.016673509
61	0xbd2b0c2c	-0.041759655
62	0x3c302046	0.010749882
63	0xbd3b7c31	-0.045772735

exp_avg f4 [10, 3136]
0	0x37c97092	2.4013487e-05
1	0x37691633	1.3893051e-05
2	0x384886e0	4.7809328e-05
3	0x3888cd49	6.523223e-05
4	0x390c6739	0.00013389894
5	0x394d3159	0.00019568707
6	0x37e7311e	2.7560218e-05
7	0x37231383	9.7201e-06
8	0x386bc96c	5.6215955e-05
9	0x37829c67	1.5570038e-05
10	0x3973a660	0.00023236265
11	0x39344cb0	0.00017194706
12	0x3a799f03	0.0009522291
13	0x395e8bc0	0.00021223631
14	0x38b263c2	8.506283e-05
15	0x395e75eb	0.00021215498
16	0x382f3b86	4.1778687e-05
17	0x388a8f13	6.6070024e-05
18	0x3862a598	5.403682e-05
19	0x3a3f9a7d	0.00073090923
20	0x39e21010	0.00043118047
21	0x3981e36e	0.00024774246
22	0x39413be7	0.0001842823
23	0x385fbc30	5.3342606e-05
24	0x382357c4	3.8943967e-05
25	0xb87be851	-6.0059425e-05
26	0x37f6a911	2.9404213e-05
27	0x3a85d34b	0.0010210065
28	0x39084059	0.00012993942
29	0x392b3a85	0.00016329631
30	0x39ba3bbb	0.00035521187
31	0x39b66ca4	0.0003479469
32	0xb83c09bd	-4.4831762e-05
33	0xb8caade1	-9.664498e-05
34	0x3a13fb84	0.0005645084
35	0x3786e503	1.6080687e-05
36	0x37906ff0	1.7218263e-05
37	0xb7aa52ba	-2.0304102e-05
38	0x39bb16c3	0.00035684378
39	0xb7da30dc	-2.6010377e-05
40	0xb84f2625	-4.938817e-05
41	0x37320854	1.0611566e-05
42	0x37ac7601	2.0558948e-05
43	0x37977ac4	1.805777e-05
44	0x366be071	3.514837e-06
45	0x3611b4a8	2.171184e-06
46	0x372876a4	1.00412035e-05
47	0x375c6edd	1.3138834e-05
48	0x37e178ea	2.6878395e-05
49	0x0000000b	1.5e-44
50	0x030e9e38	4.1911676e-37
51	0x2d303cfe	1.0017985e-11
52	0xb1cfe153	-6.0501093e-09
53	0x2f99ffe3	2.8012356e-10
54	0x2e74322a	5.552373e-11
55	0x2dcb1eb6	2.3092066e-11
56	0x242b2426	3.7110333e-17
57	0x30f0cdfd	1.7520844e-09
58	0xb7d0c0cf	-2.4885316e-05
59	0xb8604b27	-5.3475753e-05
60	0x3920544d	0.00015290194
61	0x36742965	3.6382928e-06
62	0x354a6db1	7.5410486e-07
63	0x2dd89635	2.4623062e-11
64	0x3531dfae	6.6263135e-07
65	0x384284c6	4.637686e-05
66	0x39713e1c	0.00023006689
67	0x382ef588	4.17135e-05
68	0x39201a34	0.0001526855
69	0x37e6036d	2.7419732e-05
70	0xb1997511	-4.466195e-09
71	0x38667783	5.4947577e-05
72	0x37bb35f8	2.2317268e-05
73	0x39950fa2	0.00028431142
74	0x39e59f74	0.00043797086
75	0x399cf7e4	0.00029939332
76	0x37cf0cb1	2.4682233e-05
77	0xb62a4838	-2.537401e-06
78	0x36d77c26	6.421952e-06
79	0x399573c0	0.00028505735
80	0x39a2fbb1	0.00031086573
81	0x399f571e	0.0003039175
82	0x3883f202	6.291644e-05
83	0x374b826c	1.2130109e-05
84	0x30dc716d	1.6039344e-09
85	0x37d19b91	2.4987183e-05
86	0x3999b3d9	0.0002931643
87	0x39216fc4	0.00015395792
88	0x396017b7	0.00021371139
89	0x3909a54e	0.00013126919
90	0xb583c4b5	-9.81751e-07
91	0xb107d6d9	-1.9767212e-09
92	0x375217fc	1.252256e-05
93	0x38e2e22f	0.0001081865
94	0x39965dbf	0.00028680076
95	0x3904956c	0.00012644165
96	0xb8216fe5	-3.84896e-05
97	0x2e1e29e9	3.5962264e-11
98	0x22b3da37	4.874909e-18
99	0x33acb1b5	8.041699e-08
100	0x38131319	3.5065317e-05
101	0x365d07f5	3.2936198e-06
102	0xb68e532e	-4.241613e-06
103	0x342be6af	1.6009538e-07
104	0x00000004	6e-45
105	0x29128835	3.2536653e-14
106	0xb60a6f6a	-2.0628454e-06
107	0x388f2dc5	6.8272966e-05
108	0xb89d68f6	-7.505894e-05
109	0x3980b689	0.00024550062
110	0x38901f13	6.872243e-05
111	0x0fb421a1	1.7762324e-29
112	0x334388ad	4.552628e-08
113	0xb7661ed5	-1.3716247e-05
114	0x38a49e7c	7.8496494e-05
115	0xb7c429f6	-2.338456e-05
116	0x39a72a13	0.0003188407
117	0x3974502a	0.00023299517
118	0xaf3dfe00	-1.7279689e-10
119	0x34931d06	2.7402e-07
120	0x39c01837	0.00036639135
121	0x38f46efc	0.00011655499
122	0x38ce1651	9.827002e-05
123	0x382ee17e	4.169484e-05
124	0x3816a440	3.5915757e-05
125	0x280a6db0	7.6843236e-15
126	0x35608e29	8.3653373e-07
127	0x3a0212e6	0.00049619225
128	0x3a0f58a5	0.0005468226
129	0x3738d64a	1.1017148e-05
130	0x38839210	6.273773e-05
131	0xb8ba334f	-8.878728e-05
132	0x25927182	2.5403879e-16
133	0x329985b4	1.7872345e-08
134	0x39349573	0.00017221812
135	0x3a100c8a	0.00054950325
136	0x3927ccb5	0.0001600262
137	0x371d2cae	9.368332e-06
138	0xb7d5df7d	-2.5495649e-05
139	0x2a2753d3	1.4861662e-13
140	0x2427482b	3.627348e-17
141	0x35b413a4	1.3416761e-06
142	0x36f9be81	7.442956e-06
143	0x37cb646e	2.4246252e-05
144	0x35569561	7.993859e-07
145	0xb5b9492b	-1.3804869e-06
146	0x1da1f1eb	4.2866482e-21
147	0x2da22a92	1.8436173e-11
148	0x37a34bda	1.9466435e-05
149	0xb913944c	-0.00014074257
150	0x396ea8bf	0.00022760312
151	0x3a611166	0.00085856614
152	0x39fb5264	0.00047935836
153	0x37cde842	2.4546058e-05
154	0x3617a0a1	2.2594252e-06
155	0xb8bd8f59	-9.038923e-05
156	0x3a6b2bcb	0.0008971064
157	0x3aabae15	0.0013098145
158	0x3aa317a3	0.0012442957
159	0x39a9958a	0.00032345607
160	0x3786ff08	1.6092803e-05
161	0xb68aad3b	-4.132887e-06
162	0x39fe399c	0.00048489578
163	0x3a8829f7	0.0010388483
164	0x39bac476	0.0003562306
165	0x3a040e59	0.00050375384
166	0x38114732	3.4637e-05
167	0x386589e4	5.4726275e-05
168	0x3766d161	1.3757818e-05
169	0x3a67d5fb	0.0008843836
170	0x3a7fa71f	0.0009752381
171	0x3a8fc25f	0.0010967961
172	0x3a02f1b5	0.00049951236
173	0x38abcb02	8.1917286e-05
174	0x3852b670	5.023781e-05
175	0x38bfe3a8	9.149994e-05
176	0x39a98d78	0.00032339594
177	0xb8a19bb0	-7.706077e-05
178	0x3896d858	7.1928545e-05
179	0x39ea1ad9	0.0004465196
180	0x39854012	0.00025415473
181	0xb5a79d71	-1.2488291e-06
182	0x32cf4810	2.4130742e-08
183	0x378b2c20	1.6590639e-05
184	0x37b7841f	2.1876824e-05
185	0x38ce56a8	9.8389864e-05
186	0x3996962a	0.0002872211
187	0xb56b25dd	-8.759942e-07
188	0x2ca32620	4.6369714e-12
189	0x348c68d2	2.61533e-07
190	0x348e33ba	2.6487197e-07
191	0xb35f2674	-5.1956206e-08
192	0xb2aeaed3	-2.0335767e-08
193	0x328ea466	1.6605735e-08
194	0x349db11b	2.937239e-07
195	0x378e2819	1.6946391e-05
196	0x384d4aaa	4.8945345e-05
197	0x3800dd4d	3.072368e-05
198	0x38751f95	5.8441965e-05
199	0x3837f94c	4.3862776e-05
200	0x3823643d	3.8955583e-05
201	0x386b97f3	5.616988e-05
202	0x3865a72e	5.4753553e-05
203	0xb6a05740	-4.778529e-06
204	0x3820273e	3.818352e-05
205	0x39634039	0.00021672332
206	0x38e6ee49	0.00011011639
207	0xb858a3ef	-5.1651088e-05
208	0xb6ac5333	-5.135685e-06
209	0x37363d91	1.086238e-05
210	0x379f67df	1.9002646e-05
211	0x399556fb	0.000284843
212	0x38c8ee49	9.581127e-05
213	0x3a18bea8	0.000582675
214	0x388736c4	6.4475025e-05
215	0x3978260b	0.00023665295
216	0x3a066d2b	0.00051279616
217	0x39945807	0.00028294345
218	0x39a06e69	0.0003059984
219	0x3801cd82	3.094739e-05
220	0x399bd3a7	0.00029721597
221	0x389e30fc	7.543151e-05
222	0x3996fda7	0.00028799215
223	0x3a2685c9	0.0006352333
224	0x398be3ec	0.0002668196
225	0x38f745c8	0.000117908756
226	0x38f4070b	0.000116361385
227	0x390d9487	0.00013502139
228	0x3a89bb99	0.0010508179
229	0x39de7c36	0.00042435684
230	0x3a81a0f7	0.000988989
231	0x360f4141	2.1346643e-06
232	0x3890cbb3	6.904397e-05
233	0x36d95238	6.4766755e-06
234	0x39a3fcc8	0.0003127812
235	0x3a3055e8	0.0006726668
236	0x39fce324	0.00048234419
237	0x39a672ec	0.0003174761
238	0x3603df49	1.965049e-06
239	0x36f2e575	7.2388743e-06
240	0x37fa2920	2.9821473e-05
241	0x383343a0	4.2739906e-05
242	0x397bad3f	0.00024001765
243	0x39110685	0.00013830706
244	0xb782af0d	-1.5578722e-05
245	0x28f49338	2.7153288e-14
246	0x369f5d3a	4.7494223e-06
247	0xb57b58ee	-9.3634196e-07
248	0xb7806379	-1.530511e-05
249	0xb76994ab	-1.3922497e-05
250	0xb62a3aef	-2.5366278e-06
251	0x3497be07	2.8264205e-07
252	0x34d84abb	4.028751e-07
253	0x37114356	8.658351e-06
254	0xb7fbf9a3	-3.0037778e-05
255	0x3938d62c	0.00017627393

exp_avg_sq f4 [10, 3136]
0	0x32b2f356	2.0832584e-08
1	0x33b8fc46	8.614056e-08
2	0x34b81ce7	3.42937e-07
3	0x364b602e	3.0305341e-06
4	0x3631ac09	2.6475193e-06
5	0x35f3ee14	1.8174201e-06
6	0x34073d54	1.2595166e-07
7	0x33acbcf2	8.043743e-08
8	0x34de72e5	4.143432e-07
9	0x35929f82	1.092427e-06
10	0x3679e98a	3.723983e-06
11	0x36d717ad	6.4102555e-06
12	0x374169f6	1.1528367e-05
13	0x35f1ba51	1.8010124e-06
14	0x34c5ce68	3.684429e-07
15	0x356fa418	8.9273226e-07
16	0x366147d1	3.3569415e-06
17	0x362f799d	2.614782e-06
18	0x36c305cb	5.8121273e-06
19	0x37bbadd6	2.2373086e-05
20	0x36c78a67	5.9467743e-06
21	0x350770d8	5.045563e-07
22	0x3639c6fa	2.7682968e-06
23	0x37398de7	1.10598985e-05
24	0x36bc98f3	5.6206422e-06
25	0x36d2610a	6.2697845e-06
26	0x37cd0d3f	2.4444073e-05
27	0x3711d745	8.692795e-06
28	0x345b15df	2.0403921e-07
29	0x3602cd56	1.949103e-06
30	0x3743e16b	1.167539e-05
31	0x3691fb08	4.3505606e-06
32	0x36a4d59f	4.9124496e-06
33	0x376f151b	1.4250424e-05
34	0x36875040	4.032656e-06
35	0x33273f69	3.894039e-08
36	0x33e03d39	1.0441949e-07
37	0x34e81671	4.3229696e-07
38	0x35a5ef5e	1.2363123e-06
39	0x360c47da	2.0903449e-06
40	0x3607e961	2.0252412e-06
41	0x3527a827	6.245704e-07
42	0x325ef1d9	1.29770905e-08
43	0x328b4cad	1.6216598e-08
44	0x32ace9a3	2.0129681e-08
45	0x338dc27b	6.6012e-08
46	0x33982b68	7.085947e-08
47	0x331e737d	3.6892278e-08
48	0x3267948b	1.3479744e-08
49	0x31932dfe	4.283492e-09
50	0x30db1033	1.5938951e-09
51	0x319c7da6	4.554482e-09
52	0x329d1a15	1.8289066e-08
53	0x32e62277	2.6791197e-08
54	0x324a6109	1.1780011e-08
55	0x31352033	2.635727e-09
56	0x30c0149d	1.3975697e-09
57	0x3381212e	6.013066e-08
58	0x3567197d	8.6091296e-07
59	0x3657d32a	3.216041e-06
60	0x36659689	3.4211282e-06
61	0x35a5a92b	1.2342692e-06
62	0x33a0af9c	7.482524e-08
63	0x31f20e70	7.0447683e-09
64	0x34c011ca	3.577573e-07
65	0x3679c844	3.7220461e-06
66	0x371df252	9.414349e-06
67	0x37076560	8.07023e-06
68	0x3635042d	2.6973532e-06
69	0x3497f6d9	2.8305547e-07
70	0x3337a289	4.2755833e-08
71	0x35790315	9.2764213e-07
72	0x36a094da	4.7857e-06
73	0x36f5b810	7.3229967e-06
74	0x36ac7388	5.139449e-06
75	0x3646782e	2.9574253e-06
76	0x34c56539	3.676776e-07
77	0x33d30c03	9.827638e-08
78	0x35f8fa84	1.855035e-06
79	0x36924f5f	4.360379e-06
80	0x36b56451	5.4058987e-06
81	0x36c6640c	5.912507e-06
82	0x367534c6	3.6538563e-06
83	0x34d1bb8b	3.906574e-07
84	0x33984fb9	7.092553e-08
85	0x360e0fdb	2.1168878e-06
86	0x370c76d4	8.372317e-06
87	0x375f39ef	1.33053245e-05
88	0x371f035c	9.477921e-06
89	0x36272968	2.490904e-06
90	0x33b838f5	8.578528e-08
91	0x32182f03	8.858254e-09
92	0x3500e72c	4.8020115e-07
93	0x3656abce	3.1988488e-06
94	0x36b2b925	5.326367e-06
95	0x36074f1e	2.016262e-06
96	0x343f1d01	1.7798813e-07
97	0x30ada63d	1.2634654e-09
98	0x331aa1e6	3.6003165e-08
99	0x3378f29e	5.796266e-08
100	0x34a79524	3.1214688e-07
101	0x3531afb1	6.6193303e-07
102	0x3514f097	5.54844e-07
103	0x3408ed3c	1.2752292e-07
104	0x331b20a6	3.6118443e-08
105	0x33309b5f	4.1119502e-08
106	0x35232d0e	6.0787795e-07
107	0x366f3266	3.564311e-06
108	0x3702a5a5	7.787171e-06
109	0x371df20c	9.414285e-06
110	0x36580b7b	3.219319e-06
111	0x33f5815e	1.1432233e-07
112	0x33af5634	8.164753e-08
113	0x36657b9e	3.4195614e-06
114	0x3722551c	9.6757685e-06
115	0x373f905a	1.1418097e-05
116	0x379ba72d	1.8555287e-05
117	0x37259815	9.870176e-06
118	0x34912f15	2.704261e-07
119	0x3455d38d	1.9914133e-07
120	0x3743c8ff	1.1669704e-05
121	0x379488de	1.7706709e-05
122	0x36f5e21e	7.3278925e-06
123	0x3787a718	1.6171063e-05
124	0x372bba86	1.0235823e-05
125	0x34e1315c	4.194543e-07
126	0x3446aca7	1.8502998e-07
127	0x37aacb8d	2.0360365e-05
128	0x37fbd6bd	3.0021527e-05
129	0x36f4baad	7.2934986e-06
130	0x371ef507	9.474584e-06
131	0x36bda0ea	5.651372e-06
132	0x34b5fbf1	3.389719e-07
133	0x33beb79b	8.880962e-08
134	0x36de62bd	6.62761e-06
135	0x3787c607	1.6185468e-05
136	0x3709abc9	8.205833e-06
137	0x36beca58	5.685997e-06
138	0x36092190	2.0434127e-06
139	0x341102f9	1.3505259e-07
140	0x331166a4	3.3853794e-08
141	0x3480ecb8	2.4014093e-07
142	0x358eefb0	1.0649583e-06
143	0x35d66777	1.5974355e-06
144	0x357200d0	9.015321e-07
145	0x3426e61e	1.5543671e-07
146	0x3313db83	3.442575e-08
147	0x33b75f39	8.5389225e-08
148	0x352d7a74	6.4625715e-07
149	0x37024d8f	7.766662e-06
150	0x37a82c4d	2.004779e-05
151	0x378f6581	1.7094195e-05
152	0x368c0df7	4.173951e-06
153	0x346f11c0	2.2265067e-07
154	0x33d5f750	9.963571e-08
155	0x36b4d809	5.389568e-06
156	0x37f54ab6	2.9241066e-05
157	0x3813a10b	3.5197514e-05
158	0x37b3aff5	2.14204e-05
159	0x36c795bb	5.948093e-06
160	0x34c521c5	3.671868e-07
161	0x3499bcb6	2.8635776e-07
162	0x371975a5	9.146902e-06
163	0x3796bfd1	1.7970715e-05
164	0x36f77cf8	7.375722e-06
165	0x360926ef	2.0437253e-06
166	0x35f4d4cd	1.824135e-06
167	0x34f90fe1	4.6391418e-07
168	0x35397df1	6.910114e-07
169	0x36f6d279	7.3558735e-06
170	0x36df56d1	6.6560247e-06
171	0x368905bf	4.083587e-06
172	0x36c553db	5.8808196e-06
173	0x35a14043	1.2014137e-06
174	0x342e156f	1.621281e-07
175	0x34cd5789	3.8247916e-07
176	0x362eeb02	2.6064813e-06
177	0x3642fbfc	2.9054927e-06
178	0x3759b942	1.2977342e-05
179	0x37245c8d	9.79671e-06
180	0x3505b720	4.9812843e-07
181	0x33d99291	1.013151e-07
182	0x33f95adc	1.1611493e-07
183	0x34d09ee1	3.885862e-07
184	0x34b8e8f3	3.4442164e-07
185	0x35f8c064	1.8533433e-06
186	0x358b0093	1.0356474e-06
187	0x33888343	6.35687e-08
188	0x33c1e1e2	9.028351e-08
189	0x3380e3b3	6.001883e-08
190	0x335782d3	5.0177572e-08
191	0x32e27ad5	2.636572e-08
192	0x32b5e4d0	2.1175225e-08
193	0x3305e775	3.1176985e-08
194	0x337439ab	5.6863126e-08
195	0x33e8eded	1.084662e-07
196	0x331913fd	3.5641268e-08
197	0x3421ea12	1.5079448e-07
198	0x34ad8e0e	3.232712e-07
199	0x3481617a	2.4099046e-07
200	0x339afb49	7.216892e-08
201	0x3314fcb1	3.4688757e-08
202	0x33445d54	4.5719688e-08
203	0x3425e35d	1.5449537e-07
204	0x35e106d4	1.6765794e-06
205	0x360721c4	2.0136222e-06
206	0x35e198ad	1.6808241e-06
207	0x35fcc3bc	1.8832429e-06
208	0x36193e9c	2.283522e-06
209	0x35e6160a	1.714275e-06
210	0x35b60535	1.3561572e-06
211	0x36835629	3.9141346e-06
212	0x364feb9f	3.0982553e-06
213	0x36a65a49	4.957696e-06
214	0x3685a7af	3.98323e-06
215	0x369d5a21	4.689457e-06
216	0x36d0abd2	6.2188856e-06
217	0x36352650	2.6993403e-06
218	0x369c80de	4.6641644e-06
219	0x36867f77	4.00835e-06
220	0x371afd41	9.238081e-06
221	0x36e3d0e9	6.7894475e-06
222	0x3725c4dd	9.880602e-06
223	0x37711c7f	1.4371354e-05
224	0x3610765f	2.1526573e-06
225	0x3665dc54	3.4251907e-06
226	0x364b64e5	3.0308086e-06
227	0x36eb9ebc	7.022025e-06
228	0x36898e30	4.099471e-06
229	0x37d8804a	2.5808946e-05
230	0x379405ac	1.7645616e-05
231	0x350784fa	5.0484925e-07
232	0x35680a2e	8.644155e-07
233	0x353dd48b	7.071728e-07
234	0x35a46728	1.2248975e-06
235	0x371eac0a	9.45759e-06
236	0x37c66c41	2.3653849e-05
237	0x37044d23	7.885773e-06
238	0x333fa8ae	4.4624066e-08
239	0x336471ab	5.3188767e-08
240	0x34ab0b94	3.1859656e-07
241	0x35cd8c5d	1.5314541e-06
242	0x36c3dc87	5.8371256e-06
243	0x365711d2	3.204787e-06
244	0x352b0ce9	6.372125e-07
245	0x31c5a9ca	5.7527574e-09
246	0x323f8349	1.1147514e-08
247	0x331002d7	3.3530196e-08
248	0x33ec5564	1.1005139e-07
249	0x33f04bab	1.1189635e-07
250	0x33499afc	4.6939917e-08
251	0x31e57df3	6.679096e-09
252	0x32f2048b	2.8174574e-08
253	0x348649e7	2.5013216e-07
254	0x35ba8423	1.3896537e-06
255	0x36289834	2.5122545e-06

exp_avg f4 [10]
0	0x3a1f26fd	0.00060711784
1	0xb9ec35d0	-0.0004505352
2	0xb9cf1d8c	-0.0003950413
3	0x39db85d8	0.00041870656
4	0xba1007e1	-0.0005494338
5	0xb9a24e6e	-0.00030957483
6	0xb9c0419d	-0.0003666998
7	0x3aa81c44	0.0012825807
8	0x3aa4a510	0.00125614
9	0xbac3b8f8	-0.0014932444

exp_avg_sq f4 [10]
0	0x376e37e7	1.4198921e-05
1	0x37947b5a	1.7700415e-05
2	0x37c429b8	2.3384448e-05
3	0x37d2ebe4	2.5143796e-05
4	0x37c7b462	2.3806646e-05
5	0x37ce06b3	2.4560233e-05
6	0x3787091a	1.6097492e-05
7	0x37e3c342	2.7151433e-05
8	0x3817bfed	3.617995e-05
9	0x381d1966	3.745537e-05

exp_avg f4 [32, 1, 3, 3]
0	0xba1a5d1f	-0.000588851
1	0xb9fe4899	-0.00048500745
2	0xba2c6d55	-0.0006577571
3	0xb98bde94	-0.0002667798
4	0xb98ff3c5	-0.00027456708
5	0x39244981	0.00015667641
6	0xb7cf815f	-2.4736566e-05
7	0x3940f5f6	0.00018402174
8	0x3a477810	0.0007609138
9	0xba81addb	-0.0009893732
10	0xba8f6eed	-0.0010943093
11	0xbb2145b7	-0.0024608204
12	0xb7bf8a44	-2.283336e-05
13	0xb9262e37	-0.0001584821
14	0xb90cd711	-0.00013431559
15	0x3a77bbe0	0.0009450298
16	0x38e7175a	0.00011019288
17	0xba18e742	-0.00058328
18	0x39c2441f	0.00037053318
19	0x395b82b1	0.00020934154
20	0xba501e74	-0.0007939108
21	0xba2ad0cc	-0.00065160985
22	0xba2f2fad	-0.00066828245
23	0xba7b4753	-0.0009585518
24	0xb9bf3264	-0.00036467903
25	0x3984e259	0.00025345644
26	0x39b9fa41	0.00035472403
27	0x39087900	0.00013015047
28	0x39a66c36	0.0003174261
29	0x38d1ffff	0.000100135796
30	0xb7161721	-8.946082e-06
31	0x3989fe60	0.000263202
32	0xb96e7e0d	-0.00022744406
33	0xb8712e23	-5.7501846e-05
34	0xb82a7fa7	-4.0650044e-05
35	0xba053cf6	-0.0005082631
36	0x3ad8fd79	0.0016555033
37	0x3a9a6935	0.0011780622
38	0x3a803979	0.0009782753
39	0x3a5f185d	0.00085104053
40	0x3a3add3d	0.0007128304
41	0x3a50f562	0.0007971135
42	0x3a6f8be5	0.00091379724
43	0x3ab077c1	0.0013463424
44	0x3adc484b	0.0016806213
45	0xb8586bb2	-5.1598712e-05
46	0x39e0e479	0.00042894835
47	0x3930fcbc	0.00016878819
48	0xba8d4617	-0.0010778335
49	0xbaebcb34	-0.0017989636
50	0xbb100e52	-0.0021981192
51	0xbb274b85	-0.002552719
52	0xbb3159d9	-0.002706161
53	0xbb3a8c3b	-0.0028464932
54	0x3a855690	0.0010172892
55	0x3a49ccf0	0.00076980796
56	0x3a9d4812	0.0011999628
57	0x3a42231b	0.0007405744
58	0x3a5621fd	0.0008168517
59	0x3a7adc9c	0.00095696165
60	0x3a6779f6	0.0008830124
61	0x3a81c1b8	0.0009899652
62	0x3a1cecdc	0.00059862225
63	0x3b5d8da5	0.003380635
64	0x3b21a00d	0.0024662048
65	0x3af5f521	0.0018765071
66	0x3b304bf9	0.0026900752
67	0x3b0a60a0	0.0021114722
68	0x3adb469f	0.0016729421
69	0x3b3f6537	0.0029204616
70	0x3b0bdffe	0.0021343227
71	0x3aafec44	0.0013421853
72	0x3a96c863	0.0011503812
73	0x3a907bf6	0.0011023271
74	0x3ab7fbea	0.0014036868
75	0xb8d9ae20	-0.000103798
76	0x39e61c8a	0.00043890282
77	0x39b1a8d4	0.00033885858
78	0xb80225aa	-3.1029493e-05
79	0x3a16142c	0.0005725052
80	0x3a5db4c4	0.0008457417
81	0xb1b0cfc7	-5.1458957e-09
82	0xb23ba4a0	-1.0922264e-08
83	0x29bd2a9d	8.400678e-14
84	0x25af8d8f	3.0453585e-16
85	0x25e93d2a	4.0460503e-16
86	0x29134f24	3.27092e-14
87	0x25a7b5c7	2.909306e-16
88	0x2fb9fc76	3.3830688e-10
89	0xb0d6dbc5	-1.5633012e-09
90	0xb963cd6c	-0.00021724933
91	0xb8cac6e0	-9.669154e-05
92	0x38ab6264	8.172242e-05
93	0x39133bb4	0.00014041254
94	0x3823144d	3.8881135e-05
95	0x398eff80	0.00027274713
96	0x39a09e45	0.00030635498
97	0x39c704bc	0.00037959765
98	0x3a8a13f3	0.001053451
99	0x3aa98b92	0.0012935272
100	0x3a4740ee	0.0007600923
101	0x3a3c5d87	0.00071855675
102	0xb82f9a77	-4.1867108e-05
103	0xb9eef1c5	-0.0004557503
104	0x38aecacd	8.334741e-05
105	0x37ce8339	2.4618219e-05
106	0x3839aaa3	4.4266355e-05
107	0xb9f6dedf	-0.00047086828
108	0x39aa24b3	0.0003245227
109	0x39f80b26	0.00047310552
110	0xb98c3912	-0.00026745402
111	0xba9cafb2	-0.0011954217
112	0xbb25c8b3	-0.0025296628
113	0xbb482d16	-0.0030544451
114	0xbb7f68b8	-0.003897233
115	0xbb66b6fd	-0.0035204284
116	0xbb3dc5ab	-0.002895693
117	0x39f6d99d	0.0004708291
118	0x3944f476	0.00018783085
119	0x3975ef08	0.00023454067
120	0x39ce8fdb	0.00039398563
121	0xb9297b50	-0.00016163033
122	0xb9be299e	-0.0003627063
123	0x3a9759b5	0.001154712
124	0x3a7ee68e	0.00097236864
125	0xb98811b0	-0.0002595312
126	0x3a8c8068	0.001071942
127	0x3ac7ad02	0.0015234055
128	0x3aaffb89	0.0013426404
129	0x3864ce01	5.4551292e-05
130	0xba124fdb	-0.00055813574
131	0xbae86770	-0.0017731022
132	0xbb3a3a6c	-0.002841617
133	0xbb3c7b82	-0.002876014
134	0xbb38d082	-0.0028200452
135	0xbb0247c9	-0.0019879213
136	0xbb1aacbb	-0.002360149
137	0xbaf0f27d	-0.0018382814
138	0xbaca0c52	-0.0015415049
139	0xbab4f862	-0.0013806934
140	0xba899859	-0.0010497674
141	0xb9eece5f	-0.00045548656
142	0xba80a26e	-0.0009814033
143	0xba786077	-0.00094748236
144	0xba4367e0	-0.0007454138
145	0xba66e5d6	-0.0008808052
146	0xbab7835f	-0.0014000944
147	0xbb0c11aa	-0.0021372833
148	0xbb410826	-0.002945432
149	0xbb3f7aa0	-0.0029217377
150	0xbb833067	-0.0040035727
151	0xbb445153	-0.00299557
152	0xbb1097ce	-0.002206314
153	0x3abebddb	0.0014552431
154	0x3b1d8384	0.0024034688
155	0x3b37c1b4	0.002803904
156	0x3a48e3dd	0.0007663349
157	0x3aa6a4d2	0.0012713915
158	0x39b137af	0.00033801558
159	0xba99a37f	-0.0011721699
160	0xbaa46089	-0.0012540977
161	0xbaab6cc9	-0.0013078685
162	0xb7004529	-7.645497e-06
163	0xb9ae6b99	-0.00033268033
164	0xb9a81f37	-0.00032066714
165	0xb8f4bc7b	-0.00011669934
166	0xb9c5d78b	-0.0003773536
167	0xb92a2bde	-0.00016228805
168	0xb7ef0bca	-2.849651e-05
169	0x3a081d32	0.0005192339
170	0x3a290968	0.000644824
171	0x3925ea12	0.00015822824
172	0x391984a1	0.00014640625
173	0x3896a958	7.1841e-05
174	0x38b0491e	8.405953e-05
175	0x39e4978f	0.0004360047
176	0x3a56458a	0.0008173814
177	0x3a18fa54	0.00058356416
178	0x3a977325	0.0011554701
179	0x3a6752bd	0.00088242796
180	0xb8917dd1	-6.937574e-05
181	0x39f40371	0.0004654187
182	0x394a9604	0.00019320106
183	0x38cdf616	9.820999e-05
184	0x3967df67	0.000221131
185	0x390a17b8	0.00013169541
186	0x3a1962e1	0.0005851221
187	0x3a0e9dd8	0.00054403907
188	0x379590fd	1.78297e-05
189	0x3a29a267	0.0006471038
190	0x39b16dfc	0.00033842016
191	0xb8e49c00	-0.000109009445
192	0x38e60247	0.00010967679
193	0xb900d2a2	-0.00012285498
194	0xba413bf3	-0.0007371299
195	0xb7308747	-1.0521914e-05
196	0xb9c5ccc3	-0.00037727327
197	0xba96403e	-0.0011463237
198	0x3a275133	0.0006382644
199	0x39357b4d	0.00017307438
200	0x37c38885	2.3309383e-05
201	0x383a6158	4.4436514e-05
202	0xb94d3831	-0.00019571256
203	0xb92b3dd2	-0.0001633086
204	0xb8c7753f	-9.510898e-05
205	0x39c38f4e	0.0003730007
206	0x3a1351bd	0.0005619785
207	0x3a92dac0	0.0011204109
208	0x3a2f06b2	0.0006676718
209	0x399b0647	0.0002956858
210	0x3a2f9e6b	0.00066993263
211	0x3a1e9abb	0.00060502783
212	0x3963c57b	0.00021721974
213	0x3a1615a5	0.0005725271
214	0x3a8170a0	0.0009875484
215	0x3a8429d8	0.0010083271
216	0x3a1b2994	0.00059189764
217	0xb88e3193	-6.7803216e-05
218	0xb8edf5de	-0.00011346837
219	0x3a0b48cb	0.0005313276
220	0xb8053935	-3.176295e-05
221	0xb9a92729	-0.00032263368
222	0x3a031b01	0.00050012773
223	0x397238e4	0.00023100112
224	0xb7d35d22	-2.5196528e-05
225	0xb9aa9788	-0.00032537826
226	0xba1e4073	-0.00060368254
227	0x3a5beb9e	0.00083892967
228	0xb9e34954	-0.00043351448
229	0xb93a5a30	-0.0001777194
230	0xb9c86ff3	-0.0003823038
231	0xbb01d893	-0.0019812926
232	0xbb2f70db	-0.0026770148
233	0xbb2e155e	-0.0026563029
234	0x3a1cbd9c	0.0005979182
235	0x3a094c2a	0.00052374846
236	0x3a5d2777	0.00084363617
237	0x39bb5c9f	0.00035736428
238	0x3a7a8041	0.00095558545
239	0x3aaac703	0.0013029281
240	0x3a1020d6	0.0005498057
241	0x3a89606a	0.0010481004
242	0x3a9a1139	0.00117544
243	0xb9e31b01	-0.00043316933
244	0x3a1b1259	0.0005915515
245	0x3aae1259	0.0013280615
246	0x3a10a9ae	0.00055184483
247	0x3ae22977	0.0017254789
248	0x3b2785b7	0.0025561878
249	0x3a93a026	0.0011262938
250	0x3af0b4ee	0.0018364468
251	0x3b204f61	0.0024461376
252	0x3b0db73f	0.0021624116
253	0x3ab7f4e2	0.0014034773
254	0x3b141b87	0.0022599415
255	0x3b6a9cec	0.00357991
